models/aalborg/model_epoch_980.pt (torch, 242162 bytes, 12 tensors)

fc1.weight f4 [256, 60]
00000000: 6ce0 87bf 63f9 153f 4e95 213f a9e5 b73d
00000010: 6a48 23bf f484 303d a716 453e fe85 953e
00000020: b5ed a63e 2220 c33d 5ed7 e33d 15dc 173f
00000030: c0d4 7a3d 472b 2ebe dcd7 583f f144 87bf
00000040: dc89 6bbd 65b1 ad3c ec34 febe 8410 babe
00000050: 4054 12be 6690 533e ae58 313e 29cb 563f
00000060: a7aa 203f 97dc 0b3f 9fe2 a2bd 9b14 2a3d
00000070: b4e1 8c3e 2220 01bf 98bd a1be d8db a4be
00000080: 415f adbe a435 c8be 87d9 57bd ab8c c5bc
00000090: 57f9 c3bd 0e90 a6be 4d01 82bd 6372 d6bd
000000a0: f30e fe3e 1f6d 80be f4ee 4a3e 2f9d 86be
000000b0: 11d9 c5bd 9967 1bbe dbd9 e0bd bee8 86be
000000c0: d07d aebe 54a7 803c 5ec9 a5be 8748 5c3d
000000d0: 5fc1 24be 1cef 863d 80ef 94bd ba01 0abe
000000e0: 42c3 43be 5644 9dbd b3bd e93e e46d 323e
000000f0: 6d6d 09bf 1724 db3e 0704 c43f b01a e33d
00000100: c993 b1bd 50f5 8c3c 01bd b33c 20f0 9abf
00000110: 84dc 953f caf9 87bd a524 7fbf 7285 adbe
00000120: 30f1 bfbe 3231 2f3d 2f35 4b3f a8da b53f
00000130: a3f3 813e f542 37be 5220 15bf ae32 fbbe
00000140: b7e7 efbe 3722 9fbe f7ec e3be a253 b03f
00000150: ed20 7d3d 379f cdbd 7966 f5bd 20ed b6bd
00000160: cc00 0abe 1f45 d33d d961 10be 8931 a1be
00000170: 90d7 0abe e645 dcbd 98bd 4abd e34b 163d
00000180: 6884 c03c 312c cfbd 983a 3dbe ca92 ccbd
00000190: 28aa a5bd 155a 053f 2518 bcbe 7eed 2b3d
000001a0: 59a3 5cbe 6366 06bd 7fc3 bbbc dd6f ef3d
000001b0: b3a1 103e 587e 0cbe 6630 edbc 5fcf f0bc
000001c0: fd94 1ebe 922e 1fbe 484d 07be 6f8b c83e
000001d0: db7b 093e e2a8 30be 3f2f 99bd fbc6 683d
000001e0: 0b89 ffbe 6ed4 c63f 5c4a b43f bc78 babe
000001f0: af19 d13e 8168 ee3d b515 d23d 3931 c9be
00000200: bfcc 7abe 6225 e7be a4df 013f 9d4b ad3f
00000210: 8286 eb3d ac53 803e bdc1 9b3f 1a1b 253f
00000220: 583e 613e b96e d73d c56b 9a3f 9c16 013f
00000230: 0d0e b33d e600 f7be 7372 b8be 765e cd3d
00000240: 7b39 f8be 4878 2bbe d2f4 543e b286 97bd
00000250: 4246 3fbe bce9 20bd 63b5 3f3f f68a 5d3e
00000260: 3119 843e f196 c7be 623a db3e afd9 4e3e
00000270: 2681 5bbd aff4 d4bc 6ce3 b43e dad2 f63e
00000280: 61e9 5b3f ec21 88bd b5d0 093f 5495 c1bd
00000290: 79f1 2e3e 6eb2 ff3c 2bb4 d8bd 246f 49be
000002a0: aa2c cf3c 7e54 7b3e 654c 713e 0396 d7bb
000002b0: 1b2a e6bd 795b d93d ef39 62be 0f14 9abc
000002c0: 0689 0bbe 6c95 d3be 98e7 e73c 78e4 60be
000002d0: c38a 68bf 3d22 e23c 8ea0 a63e b58d 093e
000002e0: bd1e 3f3e 3b44 263e bf15 8f3d 3cc5 923d
000002f0: 92a8 853e 91c2 18be d102 3abe d2e4 253f
00000300: aaeb 8fbf 8ad0 043f a6b3 673f a595 d63e
00000310: e424 5ebf 3680 903d d244 573f 859d 93be
00000320: fcf8 743e 0860 d83c 6ce5 613e f1a4 b13e
00000330: f4e1 20be ed0a 32be f2ce 4ebe 0fa7 99bd
00000340: e309 be3e c49e adbd 1aaf 6a3d adfd 48be
00000350: 9e64 123f 5cdc ca3e a457 6abc 7183 313f
00000360: f774 1c3d 12e8 34be 7a5f 083f 5b21 273e
00000370: e378 bd3d 7b13 ebbd 588b 0f3d dccf 05bd
00000380: 5559 c83d e54a 033f 1a46 683c d02d 0d3f
00000390: d76c e3bd 3836 17be bc98 983e 9586 453d
000003a0: a3e8 e6bc fc11 4cbe 9d73 0d3e 3da9 123f
000003b0: 30bd 243f 5a6a e13e 3930 553d 3a87 c13e
000003c0: 7b36 8fbe 87d6 4dbc b2c8 9ebf 1fba e63e
000003d0: eddc e6bd f364 84be cc6c 043e 00ce ccbd
000003e0: f2bc e43e 5a1d 28be 169c 9fbd c6d2 753c
000003f0: de49 7c3e a673 5e3f 2767 00bf a732 823f
-1.0615363 0.5858366 0.63118446 0.08979351 -0.6378237 0.043095544 0.19246922 0.2920379
0.3260323 0.09527613 0.111250624 0.59320194 0.06123805 -0.17008696 0.84704375 -1.0567914
-0.05750452 0.021202752 -0.4964975 -0.36340725 -0.14289951 0.20660552 0.17318985 0.8390375
0.62760395 0.5463347 -0.07953381 0.041523557 0.27515948 -0.50439656 -0.3158996 -0.32198977
-0.33861735 -0.39103425 -0.052697685 -0.024114927 -0.09569042 -0.3253178 -0.06347904 -0.10471036
0.4962078 -0.25083253 0.19817716 -0.26291797 -0.09660543 -0.15176238 -0.10979053 -0.26349443
-0.34080362 0.015704788 -0.32380193 0.053780105 -0.1608939 0.06588575 -0.072722435 -0.13477221
-0.19117454 -0.0767905 0.45652542 0.17424732 -0.53682595 0.42800972 1.5313729 0.110890746
-0.08670766 0.017206818 0.02194071 -1.210453 1.1707921 -0.0663944 -0.9966529 -0.33890873
-0.374887 0.042771526 0.79378027 1.4207354 0.25381193 -0.17896636 -0.5825244 -0.49062103
-0.46856472 -0.3108079 -0.44516727 1.3775523 0.06179898 -0.100401334 -0.11982436 -0.08931947
-0.13476866 0.10315918 -0.14099826 -0.31483105 -0.13558793 -0.107555196 -0.049497217 0.036693465
0.023500636 -0.10115851 -0.18479383 -0.09988935 -0.08089095 0.5209058 -0.3673717 0.041974537
-0.21546687 -0.032812487 -0.022920368 0.11691258 0.14124183 -0.13720071 -0.028953742 -0.029395757
-0.15486522 -0.15545109 -0.13213074 0.3916888 0.13426153 -0.17251924 -0.074797146 0.056830388
-0.49909243 1.5533578 1.4085193 -0.36420238 0.40839908 0.11641026 0.102580465 -0.39295366
-0.24492167 -0.45145708 0.50731874 1.35387 0.11500265 0.25063837 1.2168499 0.6449448
0.21996439 0.105191655 1.2064139 0.50425124 0.08742914 -0.48242873 -0.36024818 0.100277826
-0.48481354 -0.16745102 0.20796517 -0.07398738 -0.18679145 -0.039285406 0.7488615 0.2163504
0.2580047 -0.38982347 0.4281798 0.20200227 -0.053589962 -0.02599558 0.3532976 0.48207742
0.8590298 -0.06647095 0.53834087 -0.0945231 0.17084302 0.031213012 -0.10581239 -0.19671303
0.025289852 0.2454395 0.23564298 -0.006579162 -0.112385 0.1061315 -0.22092412 -0.018808393
-0.13626489 -0.41324937 0.028308675 -0.21962154 -0.90836734 0.027604217 0.32544369 0.13432963
0.1866407 0.16236965 0.069865696 0.07166526 0.2610517 -0.14917971 -0.18165137 0.6480228
-1.1243794 0.51880705 0.90508497 0.41911045 -0.8677504 0.07055704 0.84089386 -0.28831115
0.23923105 0.026412979 0.22060174 0.34696153 -0.15711194 -0.1738698 -0.20196131 -0.07502567
0.37116918 -0.08477548 0.057295896 -0.1962802 0.5718478 0.39621246 -0.014303122 0.6934119
0.038197484 -0.17666653 0.53270686 0.16321318 0.09251573 -0.11478325 0.035044998 -0.032668933
0.09782664 0.51286155 0.01417687 0.5514803 -0.11104744 -0.14766777 0.29804027 0.04822405
-0.028187102 -0.19928735 0.13813634 0.5728949 0.6435118 0.44026452 0.05204794 0.37798482
-0.27971253 -0.012563354 -1.2404997 0.45063874 -0.11272607 -0.25858268 0.12932128 -0.10000229
0.44675404 -0.16417447 -0.07793443 0.015003866 0.24637553 0.86895216 -0.501574 1.0171708

fc1.bias f4 [256]
00000000: 13f2 c6bf 85e0 17bf 8633 8abf 436a 003e
00000010: 8ee4 6abe 0a5a 73bf a165 96bf 8611 1fbf
00000020: fd82 01be 9137 0cbf 8017 4fbf 87d2 01bf
00000030: 7ca2 56bf 8542 97be 4efc 76bf c4de 9c3d
00000040: 5d8d 70bf 0831 cabe d5e3 c4bd 3692 883d
00000050: 8dfa 81bf 9ecd 34bf 5879 6ebe b35d aabf
00000060: afc8 68bf a516 90bf 462a 843c 4ae4 3fbf
00000070: 852c 32bf 987c 89be ab42 1ebf 5ad6 98be
00000080: 6ebd 88bf 1295 88bf eb14 43bf 63e6 b2bf
00000090: e707 cbbe c401 35bf 7e7f 58bf 0883 03bf
000000a0: 0889 a6bf 52e6 65bf a405 82bf 704b 19bf
000000b0: 838c 88bf 8bb0 3cbf e6ab fdbe 63e7 5abf
000000c0: 63f4 49bf e1b1 e8be 54e7 0ebf 4a83 77bf
000000d0: 77e8 aebe ecfc 6cbf fa7c 1dbf 9ee9 a1bf
000000e0: 8efa 06bf 6fbe 73bf 64ba 68bf 8f2e 98bf
000000f0: 07ec 08bf 5b33 3cbf 4dcc a0be 30a7 bbbe
00000100: 8f9d 4dbd e1a8 9bbe 6f77 febe b5ef 0dbf
00000110: 8afb 6ebf f28d f3be d18c 60bf ffa8 993e
00000120: aad3 8bbd 63e3 3fbf 69cc 89bf ac60 27bf
00000130: ed9f 78be 673e 38bf 654a 2fbe e3eb 88be
00000140: 0bb6 8fbf f17a 22bf 17a9 07bf 53aa 18bf
00000150: c528 5bbf 241d 90bf d173 92bf 3943 68bf
00000160: cb7b 16bf 9cd4 03bf ac1d 92bd 8334 36bf
00000170: ba8c 05bf 9a33 73bf 941a b2bf e4db 8ebf
00000180: 9d47 ffbe d865 22bf a950 11bf fbb7 96be
00000190: 0695 c6be 8c69 47bf 963a 17bf cf07 65bf
000001a0: 5eee 04be 7e0c 6dbf 9eb2 71bf 2b98 57bf
000001b0: 4760 9bbf cb1b d0bf a1cd 06bf 6e6c 2abf
000001c0: 3a3c e8be 4d9a 1ebf 9d08 c8bd 0d76 6cbe
000001d0: 25fd 94bf 690d 6ebe 3df9 26bf 6b57 24bf
000001e0: 4e81 d9be 855e 3dbf e3f2 5abf 9891 e2be
000001f0: 8439 f1be 6be0 67bf eeab 42bf 25c3 19bf
00000200: 5f12 89bf 8b80 65bf 7b48 a7bf 774a 8dbf
00000210: 0045 0abe 445b c0bf da1e 6fbf 38ab 5fbe
00000220: 567a 2dbf e885 1a3e 2aa0 edbe a267 96bf
00000230: 788d 0cbf e4a5 48bf fbe7 39bf f941 4cbf
00000240: 8484 dbbe aec2 86bf 52a7 2bbf f3dd 0fbf
00000250: 58d1 2abf aa13 8cbf 2a2e 5ebf d234 3bbf
00000260: 8cd9 c2be 44fd 85bf 0e0a dabe e1e8 66bf
00000270: 53ca c0be 9895 febe 90cb 8bbf 2eb2 46bf
00000280: ce44 67bf 67dd 443e 07cc 9bbf 4629 d7be
00000290: 9bcb ae3d 5637 3abf a9b4 81bf d842 c4bf
000002a0: 1411 2dbf 4f9a cdbf 017b 0abf c6bd b8be
000002b0: 13f6 2dbf 5a9e 4bbe 51b7 f6bd 5b3a c5be
000002c0: 7898 5dbf a538 4bbf 1eeb a6bf 016f 84bf
000002d0: 64ad 41bd ddc7 40bf ad33 17bf c46b 6bbd
000002e0: 10f0 66bf 4c81 a5be edb2 e8bf 093d d5be
000002f0: 30c4 51bf 4fe8 42bf 315e 32bf 4f35 25bf
00000300: 166d 4bbe 3f87 04bf bd19 61bf 39ec 89be
00000310: 1215 77bf f51b 8abf 2c2a b8be 78b6 8ebe
00000320: 3cb3 5cbf 4de4 2fbf 2340 90bf 36f2 4ebf
00000330: 5796 4abf 4626 33bf f1e2 1ebf ae1d b7bf
00000340: c946 86bf 9cb1 1cbf 2bc0 7cbf d0e4 89bf
00000350: a0f4 98bf 2a7b b5bd 4dba ffbe 4fa1 44bf
00000360: 8b37 ddbe c5df 80bd c850 a0bf 4dee b7bf
00000370: 6e23 adbe 95ac 22bf 7bce 18bf 1130 bcbf
00000380: 6f56 16bf 8a3f 28bf 848c e4bf 40e5 2ebf
00000390: ecc5 fbbe 4e20 2fbf ec1a 55bf cc4f 65bf
000003a0: 7b38 87bf e7b8 65bf 913e 97bf 97ea 4bbf
000003b0: d1cc abbf 67ed 98bf ec72 343e 3dba 92bf
000003c0: 159a 533e 279e aabf dea2 47bf 4434 0ac0
000003d0: 5fd3 8bbf bcd6 0fbf a3b1 8fbf 7fe2 6dbf
000003e0: baa2 a1be fb7c f6be f7f7 23bf c35c 65bf
000003f0: a538 8abf 0db2 09be 3946 c5be b58d 43bf
-1.5542625 -0.59326965 -1.0796974 0.12540536 -0.22938749 -0.95059264 -1.1749765 -0.62136114
-0.12647624 -0.5477229 -0.80895233 -0.50711864 -0.8384168 -0.29542938 -0.96478736 0.07659677
-0.93965703 -0.39490533 -0.09613768 0.066685125 -1.0154587 -0.70626247 -0.23288476 -1.3309845
-0.9093122 -1.125691 0.016133439 -0.74957716 -0.6959918 -0.2685287 -0.6182048 -0.29851037
-1.0682809 -1.0670493 -0.76203793 -1.3976558 -0.39654467 -0.7070582 -0.8456954 -0.5137181
-1.3010569 -0.89804566 -1.0157971 -0.59880733 -1.0667881 -0.73706883 -0.4954521 -0.8550932
-0.7888853 -0.4544821 -0.5582173 -0.96684706 -0.34161732 -0.9257343 -0.61518824 -1.2649419
-0.52726066 -0.95212454 -0.9090941 -1.1889209 -0.5348515 -0.7351586 -0.3140587 -0.3665099
-0.050199088 -0.30402282 -0.49700496 -0.5544389 -0.9335257 -0.47569233 -0.8771487 0.30011746
-0.06827481 -0.7495634 -1.0765506 -0.65381885 -0.24279757 -0.7197022 -0.17118223 -0.26742467
-1.122743 -0.63468844 -0.52992386 -0.59634894 -0.85609084 -1.1258893 -1.1441594 -0.90727574
-0.58782643 -0.5149629 -0.07134566 -0.71173877 -0.52167857 -0.9500061 -1.3914361 -1.1160855
-0.49859324 -0.6343665 -0.567637 -0.2943724 -0.3878557 -0.77895427 -0.5907377 -0.8946504
-0.12981555 -0.92597187 -0.94413173 -0.84216565 -1.2138757 -1.6258482 -0.52657515 -0.665717
-0.4535845 -0.61954194 -0.09767268 -0.23091908 -1.1639754 -0.23247303 -0.6522406 -0.6419589
-0.42481464 -0.7397235 -0.85526866 -0.44251704 -0.47114193 -0.9057681 -0.76043594 -0.6006339
-1.0708731 -0.89649266 -1.3068994 -1.103835 -0.13502884 -1.5027852 -0.9340645 -0.21842659
-0.67764795 0.15090144 -0.46411258 -1.1750376 -0.54903364 -0.7837813 -0.726196 -0.79788166
-0.4287454 -1.0528162 -0.67052186 -0.5619804 -0.66725683 -1.0943501 -0.8678919 -0.7312747
-0.380566 -1.0467916 -0.42585796 -0.90199095 -0.3765436 -0.49723506 -1.0921497 -0.7761563
-0.9033936 0.19225083 -1.2171639 -0.42023677 0.085349284 -0.72740686 -1.0133258 -1.5332899
-0.67604184 -1.6062716 -0.5409394 -0.36082286 -0.67953604 -0.19884625 -0.120466836 -0.38521084
-0.86560774 -0.7938331 -1.3040502 -1.0346376 -0.0472845 -0.7530497 -0.59063226 -0.05747582
-0.90210056 -0.32325208 -1.8179604 -0.4164813 -0.81939983 -0.76135725 -0.69674975 -0.6453447
-0.19865832 -0.5176887 -0.879299 -0.26938036 -0.96516526 -1.0789782 -0.35969675 -0.27873588
-0.8621099 -0.68707734 -1.1269573 -0.80838335 -0.7913565 -0.69980276 -0.62065035 -1.4305933
-1.0490352 -0.6120851 -0.98730725 -1.0772953 -1.1949654 -0.08861382 -0.49946824 -0.7680864
-0.43206438 -0.06292681 -1.2524652 -1.4369599 -0.33816093 -0.6354459 -0.59690064 -1.4702169
-0.5872564 -0.6572195 -1.7855382 -0.6831856 -0.4917444 -0.6840867 -0.83244205 -0.89574885
-1.0564111 -0.89735264 -1.1815969 -0.7965483 -1.342188 -1.194745 0.17621964 -1.1463085
0.20664246 -1.3329514 -0.7798289 -2.15944 -1.092388 -0.56187034 -1.1226085 -0.9292373
-0.31569463 -0.48142228 -0.6405024 -0.8959467 -1.0798537 -0.13446827 -0.38530138 -0.763881

fc2.weight f4 [128, 256]
00000000: d068 e9be b5c2 043f 017d 1dbe 339a fa3e
00000010: ae07 62bf 7201 10bd 7124 f7bd a6b4 9f3e
00000020: 47b0 b83e 69b6 d63d 96d8 a63e 0dc8 7abc
00000030: dd68 d3bd d200 ef3e 5117 a4bd ab89 70be
00000040: 4be0 3e3d 3e2f d4be 3a50 173e b317 003f
00000050: af75 a7be 0df6 a9be bf63 65be 52bc bebe
00000060: 9a6d 9fbe ca69 bebd 4c36 2b3e 539d 9cbe
00000070: cf57 f0be c988 acbe 11ca 1dbd 8c6e 65bd
00000080: 9789 cc3e d0a7 4cbe 6e76 023e 7140 003e
00000090: 1c93 953c 1bf0 fa3d 17a5 47be 2e90 543d
000000a0: 9f97 c13d 23c1 93bd c502 be3d 9841 0dbf
000000b0: 894a 0f3e 1028 123d 6a59 10be f508 54bd
000000c0: 9e39 8f3d 9f0d f7be c7ff 173d 2cb1 923d
000000d0: e687 8c3c ef34 793d 143d ed3d b0fb 43bf
000000e0: 322d 353d af3a 07bc c8dc 07bb dfff 55be
000000f0: b5e2 c1be 74bf dd3e c441 22bd 4a4e 323f
00000100: dff0 db3e 473c 3b3e ffaf 82be 1096 b6bc
00000110: 5952 f23c e773 90be 9611 a7be c7b8 453e
00000120: ea82 413e eb4a f73d 778e 53bb 3e4b cabe
00000130: a1f6 123e d1ef 7e3d b4f3 7c3e ebfa 88be
00000140: d298 b6bd b7d8 d93e 2a40 87bd 2641 6e3e
00000150: af8d 8f3e 8dea e4be 3b1b 43be aaaa 1e3e
00000160: 673d 8b3b 074a b0bc 87c5 8ebd 96a8 583e
00000170: c431 983d 0df1 213e 16d2 6c3e 61d5 0e3f
00000180: 0857 4a3e 8f57 e73d d206 ee3e 7f94 d7be
00000190: baec 4bbf 20c9 ef3d f72c 4bbd cb23 903d
000001a0: 42ab 1f3d aeb6 093e 9a2c 82be a1e1 183e
000001b0: c61a 53bd bf76 bfbf cda9 cf3e 73f6 cd3e
000001c0: b34c dabd 2c82 963e cee4 37be 0673 adbe
000001d0: a5f6 22be e60f 603d c2c5 01bd da58 8fbf
000001e0: 0231 47be ad18 91bd 1ec8 f8be f778 f63d
000001f0: b721 213e 1454 ea3e 819f e63e 0440 f8be
00000200: ef5e d4bd 0b91 b1bd 0767 ecbf de35 67bc
00000210: 9bbb 683e 8269 dd3e 06bc 00bd dfd4 74be
00000220: 7cef ab3d 3cdb 2ebe 1a48 77be 4258 7fbf
00000230: 60fc c33e f94c 0a3e a491 c53d 2ac5 163f
00000240: e8cd 1c3f 927f 113f 655d c8bd 52d9 523c
00000250: b729 383e 63e3 573e 16ee 803e 0231 eabe
00000260: cc74 8f3e 5c56 c03d e503 983e 0ac3 a3be
00000270: d482 15be 47ea ccbe b8f3 7e3e bb50 f73e
00000280: 2751 bfbe 9894 43bd 7a82 f8bb ab71 2c3e
00000290: 9db6 63be d8d8 59bc 14c2 d5be f709 b83e
000002a0: bb03 5bbe 8e39 103f 392e 21bd 277d 60be
000002b0: b321 2ebf b0e4 933e a90d 6f3e 98ae 96be
000002c0: d8da a33d 3e47 03bf 05f8 0cbf 8fbb 0abe
000002d0: 3945 573e 6f3a 0dbe 61d7 04be 588a 383f
000002e0: efb6 bbbe 548c 213e bbb8 e4be c035 eb3e
000002f0: b840 03bf 9b00 4a3e 3798 2f3f 9c4d 1a3e
00000300: 21ba a7be 2617 073f ef8d 03bf 2d21 9ebe
00000310: c700 e4be 1cab 023f de36 dfbe 6bca 523e
00000320: 1f9f 7b3e 5061 b63e 86df 6abe 0820 acbe
00000330: 7933 833e 74df 21be 3ac9 a3be de84 99be
00000340: a577 23be 6089 8dbd d7c3 e5bc 4571 79bd
00000350: cb92 f43e d09c edbe d564 abbc e185 fe3e
00000360: 424b ca3e 4023 603e d402 33bf b1f3 52bf
00000370: 8d52 df3a f2e6 0bbf 81af c0bc a8df eb3e
00000380: b086 413f ff5b 1dbf d3b0 ce3e 7704 3c3e
00000390: d00f 1dbe 5260 a53d d7e5 0bbf 7b42 00bf
000003a0: 0caf ac3e 7bbe 023e 966b 2fbe 99ac 973d
000003b0: 653b fabe 7626 653e 44a1 3e3c 7ee3 b5bf
000003c0: 7eb1 12be e5e1 d7bd 2bf8 d73e ca6f c63d
000003d0: 6139 643c a4e0 e13e 7ba8 c3be bfc3 873e
000003e0: fe9b ae3e 5dbc 183f 337a 3dbf 21ac a73e
000003f0: ab6f ad3b 5cb2 93bd 45a2 573d ed33 263f
-0.45587778 0.518596 -0.15379716 0.4894577 -0.8829297 -0.03515763 -0.120674975 0.3119251
0.3607199 0.10484011 0.32587117 -0.015306485 -0.103227355 0.46680313 -0.0801226 -0.23490016
0.04660062 -0.41442293 0.14776698 0.5003616 -0.32706973 -0.33195534 -0.22401331 -0.37253052
-0.31138307 -0.092975214 0.16719931 -0.3058878 -0.46941993 -0.3369811 -0.038522784 -0.05601363
0.39948723 -0.1998589 0.1274049 0.12524582 0.018258624 0.12252828 -0.1949657 0.051895313
0.094527476 -0.07214572 0.09277872 -0.55178213 0.13993277 0.035682738 -0.14096609 -0.051766355
0.069934115 -0.4825258 0.037109163 0.07162699 0.017154645 0.060841497 0.11583915 -0.7655592
0.044232555 -0.008253737 -0.002073096 -0.20898388 -0.37868276 0.4331013 -0.0396135 0.6965071
0.42957208 0.18284713 -0.255249 -0.022288352 0.029580282 -0.28213426 -0.32630605 0.19308768
0.18897596 0.12074836 -0.003228096 -0.3951053 0.14351894 0.062240425 0.2470234 -0.26753935
-0.08915867 0.42548153 -0.06604035 0.2326704 0.28037784 -0.44710198 -0.19053356 0.1549479
0.004249263 -0.021519674 -0.06971269 0.2115806 0.07431367 0.1581461 0.23127016 0.5579434
0.19759762 0.11295997 0.46489578 -0.4210548 -0.7965809 0.117082834 -0.04960343 0.07038077
0.038981684 0.13448593 -0.25424653 0.1492982 -0.051539205 -1.4958113 0.40559235 0.40227088
-0.106591605 0.29396188 -0.17958376 -0.33876818 -0.159144 0.054702662 -0.031682737 -1.119899
-0.19452289 -0.07084785 -0.48590177 0.12034791 0.15735517 0.45767272 0.45043567 -0.4848634
-0.1036967 -0.08670243 -1.8468941 -0.014111964 0.22727816 0.4324456 -0.031429313 -0.23909329
0.083952874 -0.17075819 -0.24148598 -0.99744046 0.38278484 0.13505925 0.09646919 0.588946
0.6125169 0.5683528 -0.097834386 0.012869196 0.17984663 0.21082835 0.25181645 -0.45740515
0.28018796 0.09391472 0.2969047 -0.3198474 -0.14600688 -0.4002249 0.24897659 0.4830378
-0.37366602 -0.047749132 -0.0075839134 0.16840236 -0.2223763 -0.0132963285 -0.41749632 0.35945103
-0.21388142 0.5633782 -0.039350722 -0.21922742 -0.6802017 0.28885412 0.23345055 -0.2943008
0.080007255 -0.5128058 -0.5506595 -0.1354811 0.210225 -0.13791822 -0.12972786 0.72086096
-0.36663005 0.15776187 -0.44672188 0.45939445 -0.5127063 0.19726793 0.68591636 0.15068668
-0.32759193 0.52769697 -0.5138845 -0.30884686 -0.44531843 0.5104234 -0.43596548 0.20585029
0.24572419 0.3562112 -0.2293683 -0.33618188 0.25625208 -0.15807897 -0.3198946 -0.29984182
-0.1596361 -0.06910968 -0.028047485 -0.060899038 0.47768244 -0.464087 -0.020922104 0.49711516
0.39510542 0.21888447 -0.6992619 -0.82403094 0.0017038152 -0.5464927 -0.023521187 0.46069074
0.7559614 -0.614685 0.4036928 0.18361078 -0.15338063 0.08075012 -0.5464758 -0.5010144
0.337273 0.12767975 -0.17130885 0.07405967 -0.4887344 0.22377953 0.011635128 -1.421005
-0.1432552 -0.10541133 0.42181525 0.09689291 0.013929696 0.441167 -0.38214478 0.2651653
0.34103388 0.5966242 -0.74014586 0.3274851 0.005292853 -0.07211754 0.052644987 0.6492298

fc2.bias f4 [128]
00000000: fe94 823f 66ed b1bd e81d cb3e 11aa 1cbf
00000010: a7c0 a5bd 075d a8be 2b43 22bd b417 2abe
00000020: 1365 b93f 0ec5 26bd 8d48 85bd b638 90bd
00000030: 55d1 423f ca9a d73d f97e 333e f401 c9be
00000040: 3d07 f03d d571 083f ac84 3a3e dea2 f9be
00000050: fa88 7f3d 062d a5b9 945f 933d ce14 a83e
00000060: 94ff 183c a8ba 053f c7d1 dbbd 2a06 693f
00000070: 4feb 1fbf 593e 203f 14b4 203f b346 ac3f
00000080: 1e80 d0bc 569a dfbe 52f4 18bd 28dc 8f3c
00000090: a7a1 893d ec58 ee3e b0a8 35bd 9e5f 6bbd
000000a0: fc16 3dbe 4a1b 7b3f 9d19 b53e 647c 1ebc
000000b0: f767 e1bd 6172 01be 4b5a e2be b70c 483d
000000c0: 1ad6 c1bd 8b7f e13f e216 213f da6a 4e3f
000000d0: 58b2 9b3d ce0d 03be 1028 d73d 5ec6 6b3f
000000e0: 7d49 49bf 8450 223f 08d7 213f 39ea 503f
000000f0: 8bee 9a3e 097e 803e 5e92 13bf d20c 403e
00000100: 683e 0d3f 02ec 943f fd73 3dbf 69ba bf3e
00000110: 05b3 1bbe 021c 39bf c7ed c0be 569b 7e3f
00000120: 98b9 ddbe cc09 f33b 92d3 a2bd 85a4 e63e
00000130: 0381 e8bc 0588 f93d 1933 e33e 3eab fa3e
00000140: fe99 333d ef36 833e 0b4d a93d 22ad 4d3f
00000150: d109 ccbd 31f1 e53c 8305 41bd 2727 423f
00000160: 9ef8 b63e ef38 4ebf edf6 773d 8228 8ebd
00000170: 22c5 6ebe e966 d1bd 9880 18bf 7ab0 8c3e
00000180: 8beb eb3e 4197 833e 6c4f d93e 6a1d c73e
00000190: 2368 a63d 3f0b ad3d 86f5 cf3e b944 353f
000001a0: 01bf 473e 3850 c7be cf4e 0abf c64a 99bc
000001b0: f39f 9e3e 9ec2 8ebd a1d1 c43e 2fa5 9c3e
000001c0: 2301 823c dfb7 5cbf 3edd 533c 9583 96bc
000001d0: 4614 c33e 48ec 97be 53dc b5be 9a75 0fbf
000001e0: eb8d e0bc 8f29 2e3e 0fa7 a4bd fd40 4ebd
000001f0: e570 0c3f 8874 0cbd 06eb 483f 3e00 b1bd
1.0201719 -0.08687858 0.39671254 -0.61197 -0.08093386 -0.32883474 -0.039614838 -0.16610605
1.448397 -0.04071527 -0.065079786 -0.07042067 0.76100665 0.105275705 0.17528905 -0.39259303
0.117201306 0.53298694 0.18214673 -0.4875707 0.06238649 -0.00031504798 0.071959645 0.32828373
0.009338278 0.5223794 -0.10733371 0.9102503 -0.6246843 0.62595135 0.6277478 1.3459076
-0.025451716 -0.43672436 -0.037342377 0.017561033 0.06720286 0.46552217 -0.044350326 -0.057464235
-0.18465799 0.98088515 0.35371104 -0.009673212 -0.11006158 -0.12641288 -0.44209513 0.04884025
-0.09464665 1.7617048 0.6292554 0.8063179 0.07602376 -0.12798235 0.10505688 0.9209956
-0.7862776 0.6340411 0.63218737 0.81607395 0.3026012 0.25096157 -0.57645214 0.1875489
0.5517335 1.1634524 -0.7400511 0.37446907 -0.1520501 -0.7230836 -0.3768141 0.99455774
-0.4330566 0.0074169394 -0.0795051 0.45047393 -0.02838183 0.12184147 0.44374922 0.48958772
0.04384803 0.25627849 0.08266648 0.80342305 -0.0996281 0.02806911 -0.047124397 0.7584099
0.35736555 -0.80555624 0.06053822 -0.0694132 -0.23317388 -0.10224707 -0.5957122 0.2747839
0.46078143 0.25701335 0.42443407 0.3888963 0.08125331 0.08449411 0.40617007 0.7080799
0.19506456 -0.3892839 -0.540265 -0.018712413 0.30981407 -0.06970714 0.38441184 0.30594775
0.015869683 -0.86218065 0.012931166 -0.01837329 0.38101405 -0.29672456 -0.35519657 -0.5603882
-0.027411422 0.17008041 -0.080396764 -0.050354946 0.54859763 -0.03429082 0.7848362 -0.08642624

fc3.weight f4 [64, 128]
00000000: b8cc 0dbf fd35 953d 6417 783e b8a0 20be
00000010: af36 fdbc ee58 acbd 5ab1 1ebd 02a5 d33e
00000020: dd66 673e 9a45 b33d 03a4 24bd 888b 72bd
00000030: 0ad4 693d 0a6b 993d 02c8 96be b8fc f8be
00000040: 13ca 2dbe f22c 8abd 5f84 9d3e 6c61 51be
00000050: 83b8 46be 4dcb 1bbd ce2e 2abc 84c6 283d
00000060: 8066 003d c195 793c e06c 763e ff43 e33d
00000070: 3121 8fbe edd2 8abd c1d9 c83d f5b0 d4bd
00000080: 2392 c0bc 230c e53d 3c31 2dbd 5d64 7fbd
00000090: 1e3f dd3e baa1 1bbd 17b1 cf3c 1ab6 843c
000000a0: fad1 07be 822e 9fbf e0be af3e 2685 34bd
000000b0: 131a b93c 3419 2a3e 0c0c 72be a27f 3bbf
000000c0: 20d3 a2bd b081 5fbe b23c b1bd a629 143d
000000d0: 660a 143e 160e 66bd 39ae 673d da8b 123d
000000e0: c882 0dbd 6234 0abd 14d8 3d3e 8e6f 893e
000000f0: 6e71 a3be 4237 403d 315d 1b3f 30a8 883e
00000100: 29f4 ce3e d569 e4bc f15d 813d 0524 7dbd
00000110: 888b 30be ddca 073d 43e9 d2bd ddfe 573d
00000120: 6cc3 a33c 4240 243d 6cce ae3d bb1a 8bbd
00000130: 7c29 4d3a 49db bc3d ba32 a03d c543 d0bd
00000140: c3b7 b6bb 5760 393d 6c5d cc3d 83ee 05be
00000150: 3ec6 d8bb 591f aebc e3ed 3d3e 7d33 763b
00000160: 8f14 86bd 5662 c03c a65d 9a3d fe41 3abd
00000170: 49ed 4abd 30e0 b1bd 401d 8e3e fedd ebbf
00000180: a011 8c3c d258 f6bd 361b 263c 50ac a73d
00000190: 5d4a 5f3d 1074 0cbe 00b6 7ebe 991e a8be
000001a0: f138 9fbe 74b9 bc3e 5098 fbbc 97ab a43d
000001b0: e54a 743d 0c19 64bd 954b e73d 7fe0 973d
000001c0: 0d7a ad3c 3638 d03d 4844 cdbc 2476 69bd
000001d0: 437b fa3d d468 523d 428d 133c e8a6 b83d
000001e0: 2549 393e 838d b6be cafd 12bb 098f 383c
000001f0: d618 21be df73 1b3e 72ec b43c 8308 f7bc
00000200: a554 fb3d d3e2 4fbc 942d 0f3e 0cee 983e
00000210: 6e3c 7fbd 95dd f6bd 1900 f13c caec 843e
00000220: 71af 893e ef69 81be ccd8 4e3d a585 183d
00000230: 46a5 a2bd 28ff 27be 42ce 1d3e 3288 db3e
00000240: 8edc 45c0 ed2c 48bd 5adc 24c0 85d8 f5bf
00000250: d982 fabe 4e8b 67bd 3e69 323d 60f6 733f
00000260: d1fe a7bd 4336 58bd b267 0cbe fa67 603e
00000270: 7a5a 8cbd 6d9b d0be c038 7ebe 7ccc 50be
00000280: a8d3 113c 4bec 003f 4eca 83bd 4f7c 653c
00000290: 7941 e5bf d831 8d3c ada6 a2bc 26b5 6e3d
000002a0: b45e 203e 6d18 653d dd6d 943d 2f68 c1bd
000002b0: d685 a83c 9547 aebe 02b4 c5bf d6d9 c13e
000002c0: 82d1 bc3f 18ee ad3c 7375 b4bd 1d0e 40be
000002d0: 315c b23d f4c9 b5bd 1731 e53f 5ec0 133e
000002e0: 7799 19c0 5a1c 133e de36 4fbf b8b3 58bd
000002f0: 44be 2f3e a753 483e 34f3 6f3f f55b b43d
00000300: e01d 0abf 5130 383f 90f5 5d3e 6fbd 7bbf
00000310: 4eac 423f e1b8 d2be 4c54 97bd ea69 f7bd
00000320: 88f2 38be 1d9a 403e 609f c0bd 715e 473e
00000330: d0e2 133d 05e6 01c0 ce2a d73d 9737 babc
00000340: 7256 eabe bc19 cd3b b303 e83d 2248 06c0
00000350: 0d02 86bd bcec 6dbc 3d7a d7bf 898a bcbd
00000360: 82f7 d83e d3f1 bcbb 0c5f dcbf 6298 51bd
00000370: 2751 a9be 0c38 32bd cac6 e8be 6670 2bbe
00000380: eb86 373d 2d14 413f 3c10 18bf d1ac 8d3e
00000390: 3778 ac3f 69b1 61be 5b65 7e3e a06d f43c
000003a0: 9525 45bc 2ac8 963e 2ff3 87c0 5e8f c3bc
000003b0: 81ca 373e c4cf a4bd 4b1c ffbf 0f21 dabf
000003c0: 2ea1 e8be 1a16 ff3d a426 1cbd bfc9 543d
000003d0: 712d 8abc e7e8 173e ce44 083f c56d 283e
000003e0: 1c0f bb3e 8034 3e3d 859b 583c 9b9e 523c
000003f0: 10aa 91be 0da9 db3c c00d 8c3e b743 8e3c
-0.553905 0.07285688 0.24227673 -0.1568631 -0.030909864 -0.084153995 -0.038743354 0.41336828
0.22597833 0.0875351 -0.040195476 -0.0592151 0.05708698 0.07491119 -0.2944947 -0.4863031
-0.16971616 -0.06746854 0.30765054 -0.2044732 -0.19406323 -0.03803568 -0.010387136 0.041204944
0.03134775 0.015233458 0.2406497 0.110969536 -0.2795501 -0.06778512 0.09807158 -0.103853144
-0.023507183 0.111839555 -0.04228328 -0.062351573 0.43212217 -0.03799603 0.025352998 0.016200114
-0.13263693 -1.2436068 0.34325314 -0.044072293 0.022595441 0.16611177 -0.23637408 -0.7324163
-0.07950425 -0.21826816 -0.08654155 0.03617253 0.14457092 -0.056165777 0.056562636 0.035777904
-0.03454855 -0.033741362 0.18539459 0.26842922 -0.31922477 0.046927698 0.60689074 0.26690817
0.40420654 -0.027882496 0.06316746 -0.06180193 -0.17240727 0.03315245 -0.102983974 0.05273329
0.019990645 0.040100344 0.085354656 -0.06792208 0.0007826311 0.09221513 0.07822175 -0.10169176
-0.0055761053 0.045257892 0.09978756 -0.13079266 -0.006615429 -0.021255182 0.18547778 0.003756731
-0.0654689 0.02348439 0.07537393 -0.04547309 -0.0495427 -0.086853385 0.2775669 -1.8427122
0.017098248 -0.1202866 0.0101383235 0.08187163 0.054514278 -0.1371615 -0.24874115 -0.32835844
-0.3109813 0.3686024 -0.030712277 0.08040541 0.059641737 -0.05568795 0.11293713 0.07415866
0.021176362 0.101669714 -0.025056973 -0.056997433 0.122305416 0.051369503 0.009005846 0.0901621
0.18094309 -0.3565484 -0.0022429102 0.011264571 -0.1573213 0.1518092 0.022085402 -0.030155426
0.12272004 -0.012688356 0.1398223 0.29869115 -0.06231349 -0.12053982 0.029418992 0.25961906
0.26891664 -0.25276133 0.050499722 0.03723683 -0.0794168 -0.16405928 0.15410712 0.42877346
-3.0915866 -0.04887097 -2.5759492 -1.9206702 -0.48927954 -0.056529336 0.043557398 0.95297813
-0.08202899 -0.052786123 -0.13711432 0.21914664 -0.068531945 -0.4074358 -0.24826336 -0.20390505
0.00890056 0.50360554 -0.06435071 0.014006688 -1.7910606 0.017235681 -0.019854868 0.058278225
0.15661126 0.055931497 0.07247517 -0.094436996 0.02057163 -0.34038988 -1.5445559 0.37861508
1.4751437 0.021231696 -0.08811464 -0.18755384 0.0870899 -0.0887641 1.7905606 0.14428851
-2.3999918 0.14366284 -0.80943096 -0.05290577 0.17162424 0.19563161 0.93730474 0.08806602
-0.53951836 0.71948725 0.21675706 -0.9833593 0.76044166 -0.41156676 -0.07389125 -0.120807484
-0.18061268 0.1880879 -0.09405398 0.1946962 0.036104977 -2.0296643 0.10506211 -0.022731585
-0.45769078 0.0062591713 0.113288306 -2.0981526 -0.0654336 -0.014521774 -1.6834179 -0.09206111
0.42376333 -0.0057661324 -1.7216506 -0.051170714 -0.33069727 -0.04351048 -0.45464164 -0.16742095
0.044806402 0.7542141 -0.5939977 0.2767091 1.3474187 -0.22040333 0.24843352 0.02983743
-0.012032886 0.29449588 -4.2484355 -0.023872074 0.17948343 -0.08047441 -1.9930509 -1.7041339
-0.4543547 0.124553874 -0.038122788 0.051950213 -0.016867371 0.14834939 0.5322999 0.16448124
0.36534965 0.046436787 0.0132206725 0.012855197 -0.2845006 0.026814008 0.2735424 0.017366273

fc3.bias f4 [64]
00000000: 8110 913f c00b 5cbf c58a 16be 9e33 80be
00000010: 84de d33f 770e 573d accf 973f 97a5 02bd
00000020: 3523 1b3f 145a 36bd 775f 2fbf 8d52 6d3f
00000030: caed 57bd c967 38bf a90b 1d3f a09d b9bd
00000040: ca97 ebbd 4d2a 5bbf ebc1 7abd fb60 343f
00000050: 0d3a 243e b03d 90be fd29 0cbd fe70 5a3f
00000060: a7ef 683f d69a bdbd bc19 8d3f 548d 47bd
00000070: 7257 c43f e6cc 943f d22f dbbd f75f 02bf
00000080: b8de 0540 160f 2dbe 5541 3b3e 0733 8c3f
00000090: 3aef 15bf 8d8e 87bf 22aa 9d3f f160 3b3f
000000a0: cbbd 4abe cdca 05be cee3 0cbf 00c1 a63e
000000b0: 6522 4cbe ae89 22be ff83 0e40 66a5 79bf
000000c0: c8b1 603f fbcb 1fbd bbfb 493e f9bd a63f
000000d0: 533a 4b3f 81e9 56bf 2f11 ac3f f65d 31be
000000e0: bb2d a3bd e5e2 093f ccd8 503f 39ee afbd
000000f0: 010a b63e 707f 30bf 0742 87bf 4c4c 8a3f
1.1333162 -0.8595543 -0.14701374 -0.2503938 1.6552281 0.05250403 1.1860251 -0.0318962
0.60600597 -0.0445195 -0.6850504 0.9270409 -0.052717008 -0.72033364 0.61345917 -0.09063268
-0.11503561 -0.8561142 -0.06122009 0.7046048 0.1603777 -0.28172064 -0.03421973 0.8532866
0.9099068 -0.09258048 1.1023479 -0.048718765 1.5339186 1.162503 -0.107024804 -0.5092768
2.0917187 -0.16900286 0.18286641 1.0953072 -0.58568156 -1.0590378 1.2317545 0.73194796
-0.19798963 -0.13065644 -0.550351 0.32569122 -0.19934995 -0.15872833 2.2268064 -0.97518003
0.8777127 -0.03901289 0.19724934 1.3026725 0.7938587 -0.8395005 1.3442744 -0.17321
-0.07967707 0.5386184 0.81580806 -0.08590359 0.35554507 -0.68944454 -1.0567025 1.0804534

fc4.weight f4 [32, 64]
00000000: 9cce 7f3c 78f1 96bd 84e7 86bd 2f99 4ebe
00000010: 9a97 a539 ee12 a4bd 2f8d 4f3e 9a51 ca3b
00000020: bf28 353d 1bb3 883d 0f22 9b3d 3e48 5fbe
00000030: a5e9 91bc 65f9 0fbf ab97 2abc 580a cb3c
00000040: c50c 9abd 5ba0 5ebf d1d9 fe3b 7290 8dbe
00000050: 84bb 8e3d f803 2cb8 cdf5 19bf 9017 253d
00000060: 7631 cf3d 325d 5bbd d207 cf3d 7fb4 103d
00000070: e720 693e 217f 93bd 18c6 21bd bf6e 86bd
00000080: 784b ec3c 2c9f 12be b43f 68bc a4b2 a8bc
00000090: 5b8b 38bd 02fc 453d e6ad 883d 5fe2 7c3d
000000a0: 60f8 06be 0781 fb3d ee74 363d b5ef f0be
000000b0: 9a66 40bc 2cfc 3ebb 386e 4f3e 7db1 363d
000000c0: 089e 9c3d f69a dabf 6e21 91be c0d4 abbd
000000d0: b20a e5bc 15aa 0fbd cfed 103e c557 ddbd
000000e0: c722 d3bb 20a1 df3c 22e3 e03c 9bb7 a43d
000000f0: f772 bc3e dcbb 55bd a792 2dbc 9abe c2bd
00000100: 5413 ef3c a69b 57bc f4eb 13bd dbae 76bd
00000110: 4e24 883d 9257 64bc 947f febd d23f 023b
00000120: 7e81 c53c 9540 1cbd d8cd 98bd c0fd 41bc
00000130: 39a6 323c da8b 273e 3047 653c 0fc7 0c3d
00000140: b7ab 2fbd bdd8 e4bd 343c 183d 2f96 f0bd
00000150: ccbd 163c a721 153d 0d26 b73d 8a5d 76bc
00000160: 970b a23d 8361 063d 928a f9bc 921b b23d
00000170: c9e3 b33d 4aba 0d3c 1081 a53c 1ac0 ca3c
00000180: a985 8b3d e534 083d cdfc d5bc 5b1e 3cbd
00000190: 0071 eb3c b904 fd3a 6721 4dba 6bba 09bd
000001a0: 9735 de3b 3dad 69bc 5a08 813b 3745 04be
000001b0: 54e0 44bd 177e fcbc ff24 32bd 1c44 413d
000001c0: 0cdc a5bd ee81 91be bbf2 56be a918 6dbd
000001d0: 006a 5e3d 8907 92bd f927 293d 5256 243c
000001e0: da92 a03d 898f e1bc 40e6 5e3c a0ec 46bc
000001f0: 259a a6bf 1835 dbbe b1f6 493c 57e7 a0bc
00000200: e340 f6be ff7e a0bd d92f b2bd 0177 55bd
00000210: 7b4a 90be 0d54 80be b1bd 0bbe 517d a2bc
00000220: d54d 87bd 5659 333d a4ed 04bd 3a93 16be
00000230: 11dc 993d 3fcf 5b3d 8046 3fbd c2f7 c1b9
00000240: 30d4 9ebd fdc7 913d 9edf 6f3d 3a0a 043d
00000250: 5465 4ebe b570 02bd f3a4 c3bc 3b5f 51be
00000260: b37e 1cbf a2c1 e8bc 292a 95bf d993 adbc
00000270: 4cb8 e5be 5796 03bf 761b 46bd 8427 18bd
00000280: 242a 523e ff70 55bd b87e 6b3c 20ed 373e
00000290: ef98 6abc 6870 1ebd ad51 143e 995d 07bf
000002a0: 61cb b13d a71b 603d e0c2 6f3d d1b6 7ebe
000002b0: 5bce dcbe 85e9 a1bc 883d 21bf 37a0 22be
000002c0: 1628 25bf fbfa 9abe b0d5 d6bd 8dae aebf
000002d0: af7e cdbd d529 8abe e2fd 7dbd ddce 81bc
000002e0: f8cc 3f3d 38b8 8dbe dc6f 473c c874 80bd
000002f0: ed16 a73d 06bf 363b 508b 233d bbd2 d7be
00000300: 046a 5e3d 008e f8bb b15b dcb9 4ede 0e3c
00000310: 98fe c6bd 9835 3e3b 2f58 39bb 2653 4bbc
00000320: 0f90 2a3b d8a1 aabd be0e 8dbb 7c14 b73d
00000330: 9d74 d3bc 1017 c1be 311b f43c fe1c 98bd
00000340: cbb5 523d 6bcb 54bf 5df0 e137 410e 40bb
00000350: 42e7 b33a cba1 66bb c6e7 08bd 3b9e 8c3a
00000360: 0bad b0bc 6df0 ee3d 023f aebd fef6 313c
00000370: e1d4 573c c1d3 0f3e fe89 93bd 8336 01bf
00000380: 4347 773e 75c0 c83c 5c81 46bd bb7c 86bc
00000390: de73 cf3d 79f4 923c b05c 55bb 438d 06bd
000003a0: 2eef 9fbc 1849 adbe 634d 22bc a3bf 81bc
000003b0: 0e5c 293d e854 913c c7bf 403d a01f daba
000003c0: c35c 82bc f281 a9bc 5d50 9d3c bde8 473d
000003d0: a4ee 2f3d f8a8 e93c 880f 623d 24a5 d1bd
000003e0: 82ec 2cbc dabe d6bb c618 01be 35ba 0fbe
000003f0: ac5c d9bc e46d 193e 08b4 edbc 2cc9 45bc
0.015613224 -0.07370275 -0.06587127 -0.20175622 0.00031584204 -0.08011423 0.20268701 0.0061742784
0.04422831 0.06674787 0.075748555 -0.21804902 -0.017811606 -0.5623992 -0.010412137 0.024785206
-0.07521967 -0.86963433 0.0077774306 -0.27649266 0.069693595 -4.101169e-05 -0.6014069 0.040305674
0.10116856 -0.053555675 0.101089135 0.035328384 0.22766457 -0.07201982 -0.039495558 -0.06564092
0.02884458 -0.14318532 -0.014175344 -0.020592995 -0.045054775 0.048336037 0.066737935 0.06173932
-0.13180685 0.122804694 0.044545107 -0.47057882 -0.011743212 -0.0029142005 0.20256889 0.04460286
0.076473296 -1.707854 -0.28345817 -0.08390188 -0.027959201 -0.035074312 0.14153217 -0.10807756
-0.0064433548 0.02729851 0.027452055 0.080428325 0.3680646 -0.05218111 -0.010594047 -0.095090106
0.029184021 -0.013159668 -0.036113694 -0.06022535 0.066475496 -0.013936894 -0.12426677 0.0019874466
0.024109598 -0.038147528 -0.074611366 -0.011840284 0.010903888 0.16361943 0.013994023 0.034369525
-0.04288837 -0.11174152 0.03716679 -0.11747395 0.009200525 0.036409047 0.089428045 -0.01503695
0.07912367 0.03280784 -0.030461583 0.08696665 0.08783681 0.008650372 0.020203143 0.024749804
0.06812603 0.03325357 -0.026121521 -0.045927387 0.028740406 0.0019303776 -0.0007825107 -0.033625048
0.0067812908 -0.014262495 0.003937763 -0.12917028 -0.0480655 -0.030821843 -0.043492313 0.047184095
-0.08098611 -0.2841944 -0.20991032 -0.057884846 0.05430031 -0.071303435 0.041297887 0.010030346
0.0784051 -0.027534263 0.013604701 -0.012141377 -1.3015791 -0.42813945 0.012326882 -0.019641561
-0.4809638 -0.078367226 -0.087005325 -0.052115444 -0.28181824 -0.25064126 -0.1364658 -0.019835146
-0.06606642 0.04378637 -0.032453194 -0.147046 0.075126775 0.053664442 -0.046698093 -0.00036996423
-0.07755315 0.07118223 0.058562867 0.032236315 -0.20155841 -0.031845767 -0.023882365 -0.20446484
-0.6113083 -0.028412644 -1.1653491 -0.021188663 -0.4486717 -0.51401275 -0.048366033 -0.03714706
0.20523888 -0.052109715 0.014373474 0.1796155 -0.014318689 -0.038681418 0.14484282 -0.52877194
0.086813696 0.05471387 0.058535457 -0.24874426 -0.43126187 -0.019764671 -0.62984514 -0.1588143
-0.6451429 -0.30269608 -0.104899764 -1.3647019 -0.100339286 -0.2698504 -0.0620097 -0.01584571
0.046826333 -0.2767961 0.012172665 -0.06272274 0.081586696 0.0027884855 0.03992778 -0.42152962
0.054300323 -0.007585287 -0.00042029985 0.008719994 -0.09716529 0.0029023644 -0.0028281321 -0.012409961
0.0026025807 -0.083316505 -0.004304736 0.08939454 -0.025812441 -0.37712908 0.029798122 -0.07427405
0.051442903 -0.8312289 2.6934018e-05 -0.002930537 0.0013725536 -0.003519165 -0.03342416 0.0010728309
-0.021566888 0.11666951 -0.085081115 0.01086211 0.013173313 0.14045621 -0.07204054 -0.50473803
0.24148278 0.024505833 -0.04846321 -0.016416898 0.10129522 0.01793884 -0.0032556467 -0.03284956
-0.01952323 -0.3384483 -0.009906146 -0.01583845 0.041347556 0.017740682 0.047057893 -0.0016641505
-0.015913373 -0.020691846 0.01920336 0.04880594 0.042952195 0.028522953 0.055190593 -0.10236576
-0.010554435 -0.006553513 -0.12607107 -0.14035876 -0.026533447 0.14983326 -0.02901651 -0.012071889

fc4.bias f4 [32]
00000000: dab8 12bf ebfd 693f 1190 e3be e881 943f
00000010: 99c8 103f a502 7dbe b0bb 1abf 4b8a 323d
00000020: 369b cbbc 2824 693e d3fb 09bc 7002 193f
00000030: 28d2 1cbd 23c7 9bbe 162d 333f 1468 1abf
00000040: 04ff 4b3f 91a1 49be 99fe 2e3f 6684 633f
00000050: 87d9 4d3f bd0c a63f f739 1d3f 56ce af3f
00000060: 8d95 303c 05ee d63f 66be d43e ce4f 36bf
00000070: d186 5d3d 70ee 60be db21 18bd 8263 5bbe
-0.5731331 0.91403073 -0.4444585 1.1602144 0.5655609 -0.2470804 -0.6044264 0.043588918
-0.024854284 0.22767699 -0.008421856 0.59769344 -0.038286358 -0.30425367 0.6999067 -0.6031506
0.79686 -0.19690539 0.68357235 0.888739 0.80410045 1.2972637 0.6141657 1.3734844
0.010777843 1.6791388 0.41551512 -0.7121552 0.05408365 -0.21965957 -0.037141662 -0.21424678

fc5.weight f4 [16, 32]
00000000: 3e12 c6bc 3afc 7f3d 63af aabe 8d2c bd3a
00000010: 4143 9fbf 1498 3c3c 005d 84bd 295f afbe
00000020: 5e44 94bd abf3 08bc 04e0 c7bd 2699 5cbb
00000030: 6e1a b93d bd8a 03be 5c30 ed3b c6f7 28bd
00000040: 81ab c33d ad0a 1f3d bb5c 6e3d e942 a83d
00000050: 4c61 38bf 07a1 31be 4579 7abb a7d6 73be
00000060: 25d7 6bba 2e7e 49be 5797 003d 279d 82bd
00000070: 9232 183c 92ba 273d 8b29 953c c9c6 15bc
00000080: 9391 f3bc 4b75 dabb f09d d23c 2c55 8c3c
00000090: 47b2 db3d 8070 e53d 4233 7cbd 46e5 993d
000000a0: d118 ba3b 7daf af3c 0e9d 22be 8a13 093d
000000b0: 9cc2 fa3c 6378 e7bd 061b 62bd 2841 ec3b
000000c0: 3439 19bd 8aa3 0f3e 0a28 a2bd d9d8 613b
000000d0: 5c92 0dba 4ffd 9f3d 9141 a03c 65d2 823e
000000e0: 75bb d2bd d695 533c a428 8cbe 3b95 5abd
000000f0: 6c9b c7be 8b70 10bd b68d 2fbe 92af 75bd
00000100: be51 b33c 9b52 acbd 8e3c cbbd 4f7d 54bd
00000110: f2e8 313a 47c1 583d 6e53 86bd 21bb d6be
00000120: a620 44bc 685f b43d f2b2 f63d 5ced 493b
00000130: 0ce4 44be 68b6 3c3e 4391 1dbe f37c ab3b
00000140: df35 1cbb 0ea4 b8bd e143 103c 807f f83c
00000150: 8b12 22bb 382d da3a 8544 033d 74b4 b2be
00000160: 7776 8fc0 eaf1 2ebc 3bcb f13e 5c92 bfc0
00000170: fd99 02bf f8e1 8fbd 2716 183d f547 2e3e
00000180: 887e 2cbc 93a3 f4bc 07a1 cabe de81 5f3e
00000190: 7428 103b 05b7 babb 1140 3ebe 9e2b d5bd
000001a0: a179 93bb a19d db3d 6026 263e dd50 aebd
000001b0: f064 103d 0c32 da3c fe59 48be a40b 6f3c
000001c0: 713f 36bd 21b5 b83d edbf 39be 0de0 4dbd
000001d0: fed7 02bb 4312 643d 0fa5 7dbd 60bf 8c3b
000001e0: 9871 423b 9fcb 02bc 353b d53d 14ce 863c
000001f0: 2482 7e3c 343b e43c 2d96 e9bd a704 e53d
00000200: 404a 0dbc ca80 6fbd 5a8b 8f3e 8fcc 42bd
00000210: 6e4c 103f 8569 94bd 589b a93e 948b 83bd
00000220: f31f 5fbc acf5 b13d 567c 0dbb 1342 703d
00000230: 9285 b5bc 4182 b63c b825 29be 09ff 3c3c
00000240: cfe7 1cbd 0638 973c 75f6 78bd 7dca 293d
00000250: 6392 5b3e cdec c13d 1305 8b3d 8bf4 ad39
00000260: 22c4 b03b 838f cb3b 27c0 883d d9cd a53b
00000270: 93e3 d0bc de88 2ebd 5ad4 05be 604c 4e3e
00000280: 48b6 91bf fbdc 1b3e 9492 c2bd cc74 29bf
00000290: cd73 0abe f1db 923d 6378 d0be fde6 863d
000002a0: d61d 02bf 7a67 6e3d 9f84 20bd fd6d aabe
000002b0: 2bb8 f3bc 54fb 3fbc 3143 e2be 724f 1cbe
000002c0: 07b6 7b3e 9c64 10be 120c 4d3e ca2d 41bf
000002d0: 01e6 45bd 4fbd ab3d 2da3 da3d fbb0 773d
000002e0: 2e68 b0bf caea d1bd 8d65 42be 3d26 16bf
000002f0: 77cb e53c fd96 923d 7aa5 aabd acc0 773c
00000300: 2330 f2bd 7307 71be 64b4 243e 4d16 31be
00000310: 067e 1fbe 036b 013e 9e06 62bc 0ae2 8d3d
00000320: 045e 9ebd d0b9 24be e3da dcbd 8ec7 953d
00000330: d4a0 163e 4af8 6f3d 5ed2 09be a59e 6d3d
00000340: c70c c5bc 80cf 213e 09a3 85be d788 0cbd
00000350: ae66 88bd 4b66 94bd 1eeb 16be ebc1 f9bd
00000360: 05ce f6bd 61d5 03be ec7a 53bd 8650 77be
00000370: cf55 203d cea4 42b9 0107 5fbd 925c 923d
00000380: 30c5 e93b b117 8e3d e209 9d3e 54ae 603d
00000390: 741a 0e3f b9e8 a0bd 3e45 1d3f ef87 8838
000003a0: c072 cebb ff9d 1dbc d1c7 35be 2b9b c4bb
000003b0: 68b5 c4bb 9193 aebb eb8b 273d 8e96 d3ba
000003c0: c9ec 5c3b 6790 0abd 7957 843b 012f 57bb
000003d0: 843e a43e 6b87 4a3a beaf 833a 3920 5b3b
000003e0: 93a2 29bb 96c1 abbb 64f2 c8bc 107a 153c
000003f0: 3268 803d 0f1b 81bd 812b 893b d799 d03d
-0.02417862 0.0624964 -0.33336934 0.0014432833 -1.2442399 0.011510868 -0.06463051 -0.3425229
-0.072396025 -0.008358876 -0.097595245 -0.003366062 0.09038244 -0.12845893 0.007238431 -0.04125192
0.09554196 0.03882854 0.058193903 0.08215887 -0.72023463 -0.17346583 -0.0038219255 -0.23812352
-0.00089965976 -0.1967704 0.03139433 -0.06377631 0.009289401 0.04094941 0.018208286 -0.009141632
-0.029732501 -0.0066668144 0.025710076 0.017130457 0.10727363 0.11203098 -0.06157232 0.075144336
0.005679228 0.021445984 -0.15880224 0.0334659 0.030610375 -0.11302259 -0.055201553 0.0072099157
-0.03740807 0.14027229 -0.07917793 0.0034461527 -0.00054005324 0.07811987 0.019562514 0.25551143
-0.10289661 0.012914142 -0.27374756 -0.053364974 -0.38985765 -0.03526358 -0.17143902 -0.05998189
0.021889564 -0.08414193 -0.09923659 -0.051877316 0.0006786726 0.0529187 -0.06558882 -0.41939643
-0.011970675 0.0880726 0.1204585 0.0030811643 -0.19227618 0.18428957 -0.15387444 0.005233401
-0.002383582 -0.09015666 0.008805246 0.030334234 -0.002473029 0.0016645556 0.032047767 -0.349033
-4.483211 -0.010677794 0.47225365 -5.986616 -0.5101622 -0.07025522 0.0371305 0.17019637
-0.010528214 -0.029863155 -0.3957598 0.21826884 0.0021996768 -0.005698087 -0.18579127 -0.1040871
-0.0045005833 0.10723425 0.16225576 -0.08511517 0.03525251 0.026635192 -0.1956558 0.014590178
-0.044494096 0.090189226 -0.1813962 -0.0502625 -0.0019965167 0.05568148 -0.06192499 0.0042952746
0.0029669758 -0.007983117 0.104116835 0.016455688 0.015533958 0.027860261 -0.11405597 0.11182528
-0.00862366 -0.058472432 0.28036004 -0.047558364 0.5636662 -0.07246689 0.3312633 -0.06423107
-0.013618457 0.08689436 -0.0021589003 0.058656763 -0.022158418 0.022278907 -0.16518295 0.0115354145
-0.038307007 0.018459331 -0.060781915 0.041452873 0.21442561 0.09468994 0.06788077 0.0003317933
0.0053944746 0.0062121763 0.06677275 0.0050599393 -0.02549914 -0.042610995 -0.13069287 0.20146322
-1.1383753 0.15221016 -0.09500614 -0.6619384 -0.13520737 0.07170857 -0.40716848 0.06587026
-0.50826776 0.05820415 -0.039188977 -0.3328704 -0.029750904 -0.011717636 -0.44191888 -0.15264681
0.24581157 -0.1410088 0.20024136 -0.75460494 -0.048315052 0.08385717 0.106756546 0.060471516
-1.3781793 -0.102498606 -0.18984051 -0.58652097 0.028051121 0.07157705 -0.083323434 0.01512162
-0.118255876 -0.23537998 0.16084439 -0.17293663 -0.15575418 0.12638478 -0.013795523 0.06927879
-0.07732776 -0.16086507 -0.10783937 0.07313453 0.14709789 0.058586396 -0.13459155 0.058012623
-0.024053944 0.15801811 -0.26100948 -0.03431019 -0.066602096 -0.07246073 -0.14738128 -0.1219519
-0.12051014 -0.12874366 -0.0516309 -0.24151811 0.039144333 -0.00018562676 -0.05445004 0.07146563
0.0071341023 0.069381125 0.30671602 0.054853752 0.55509114 -0.07856888 0.6143378 6.510305e-05
-0.0063003004 -0.009620189 -0.17752005 -0.005999943 -0.0060030706 -0.00532765 0.04090492 -0.0016142891
0.003371047 -0.03382912 0.004038748 -0.0032834413 0.32078946 0.00077258673 0.0010046882 0.0033435954
-0.0025884255 -0.005241583 -0.024529643 0.00912334 0.06269874 -0.06303989 0.0041860943 0.101855926

fc5.bias f4 [16]
00000000: 0568 8b3f 2332 d63e a63a 193f 2f28 683e
00000010: 769b 863e 6c18 b1bd ee26 9139 ed8f a43d
00000020: 98dd 37be 788e 943d ea6b 70be 46b2 5dbe
00000030: 76da bbbd fb46 febd 5362 863f 4a7a 6dbe
1.0891119 0.41835126 0.59855115 0.22671579 0.26290482 -0.08647236 0.0002768556 0.08035264
-0.17955625 0.07253736 -0.23478666 -0.21650037 -0.091725275 -0.12415882 1.0498756 -0.23191181

fc6.weight f4 [3, 16]
00000000: be0f 17b6 d464 3f38 6a11 13ba a9fb 26bc
00000010: 1c25 663d 7d26 5eba 0486 3f3c e6fb 793d
00000020: 041b c53e 32c8 d6bc b848 96bd 29d6 a8bc
00000030: bcc1 083c c2a0 1cba 2cd4 ac3a ce9d 47bc
00000040: 38b4 2a3f 389f 6fbd 7ece 31bd 7d47 203c
00000050: fc33 153d 5864 27bb 3da6 12be aaea d0bc
00000060: 1b8a 92bc 3efe 413b 3a40 433d 667d 09be
00000070: cc88 c9bb e659 353c 277b 36bf 1e4e a53d
00000080: 2497 303c eb86 86bb 41c5 8739 0728 3bbe
00000090: 2fd4 c63d 5a48 f33d e50d ee3d 3044 babd
000000a0: ef31 91bc fbdd bd3d 7790 e0bd b0e3 15be
000000b0: 744b f73c b884 423c 2c03 10bb 7f77 fa3d
-2.2509917e-06 4.5631852e-05 -0.00056102 -0.010191836 0.056187734 -0.0008474363 0.011689667 0.061031245
0.38497174 -0.026218507 -0.07338089 -0.020609932 0.008346971 -0.00059748825 0.0013185791 -0.01218362
0.6668124 -0.058501452 -0.043409817 0.009782669 0.03642653 -0.0025541987 -0.14321227 -0.025502522
-0.01788812 0.0029601003 0.047668673 -0.13426742 -0.0061503407 0.011068797 -0.71281666 0.0807154
0.010778222 -0.004105439 0.00025896172 -0.18276988 0.097084396 0.11879034 0.11623744 -0.09095037
-0.017724006 0.09270855 -0.109650545 -0.14637637 0.030187346 0.011872463 -0.0021974547 0.12229823

fc6.bias f4 [3]
00000000: 6e2a 7ebc 5fdf 263d 23a7 c93b
-0.015513046 0.040740367 0.0061539575
