models/final_model/model_epoch_200.pt (torch, 242162 bytes, 12 tensors)

fc.0.weight f4 [256, 60]
0	0x40474569	3.1136115
1	0xbd9270d1	-0.07150424
2	0x3f91ded4	1.1396127
3	0xbf2f33c7	-0.6843838
4	0xbf617235	-0.8806489
5	0xbf5fa402	-0.8735963
6	0xbe24937e	-0.16071889
7	0xbd97a920	-0.07405305
8	0xbf14e774	-0.5816567
9	0xbe9b63f0	-0.30349684
10	0xc04ca178	-3.1973553
11	0xc001aea0	-2.0262833
12	0xbefe08b8	-0.49616027
13	0xbee9bbb6	-0.45651025
14	0x3f1464d8	0.57966375
15	0x3f4f68f0	0.81019497
16	0xc039bc75	-2.9021275
17	0xbf1b7655	-0.60727435
18	0xbf0132f9	-0.50468403
19	0xbfb34124	-1.4004254
20	0xbfa51c60	-1.2899284
21	0xbfb5a33f	-1.4190444
22	0xbead7f0d	-0.33885995
23	0x3f5581ba	0.8340107
24	0xbd8afb70	-0.06786239
25	0x3dd67bbc	0.10472819
26	0x3dc12561	0.094309576
27	0x3cb93874	0.022609927
28	0x3c2a2cfb	0.010386701
29	0x3e4b0fb3	0.19830208
30	0x3dd57d05	0.10424236
31	0x3d872db6	0.066005155
32	0xbce4e112	-0.027939353
33	0x3d3660b5	0.04452582
34	0xbda2b190	-0.079440236
35	0x3c0b60b8	0.008506946
36	0x3d8a5eeb	0.067563854
37	0x3d04aa41	0.03238893
38	0x3d1f71dd	0.038926948
39	0xbc3232fb	-0.0108764125
40	0x3d770e2b	0.060316246
41	0xbd7982f3	-0.0609159
42	0xbcd8fed1	-0.026488693
43	0xbd8e6e16	-0.06954591
44	0x3b907b23	0.0044092103
45	0xbc0066a6	-0.007836973
46	0xbd31716e	-0.043321066
47	0x3c1be898	0.009515904
48	0x3ca68402	0.020326618
49	0xbd9a07fb	-0.075210534
50	0xbd882fce	-0.06649743
51	0x3d48a4c0	0.048985243
52	0x3ba862ac	0.0051387157
53	0xbda2c835	-0.07948343
54	0xbdda8c04	-0.10671237
55	0xbd6c2f3c	-0.057662234
56	0x3c1fbfa3	0.00975028
57	0x3d906670	0.070507884
58	0xbda08576	-0.07837956
59	0x3c276bb3	0.010218549
60	0x3f84c311	1.037203
61	0x3fd95819	1.698001
62	0x40096c4a	2.1472344
63	0x3fb87858	1.4411726
64	0xc01dda69	-2.4664557
65	0xbfd4a154	-1.6611733
66	0xbed3b6b1	-0.4135032
67	0x3f77f61f	0.96859926
68	0x3f5de56b	0.8667819
69	0x3f0d31da	0.5515419
70	0xbd5b6c35	-0.05356999
71	0x4025090a	2.5786767
72	0x3f75b484	0.9597857
73	0x409361b4	4.6056767
74	0x3f39ce1e	0.72580135
75	0x3fba4d66	1.455487
76	0x3e877a89	0.26460674
77	0xbfedb3b9	-1.8570472
78	0xbfc8d669	-1.5690433
79	0xbfc2fc36	-1.5233219
80	0xbf3c5e7d	-0.7358168
81	0xbfae569a	-1.3620179
82	0xbe018894	-0.12649757
83	0xbf7d6afb	-0.98991364
84	0x3dd07d65	0.10180167
85	0x3e980105	0.29688278
86	0x3f3a77b7	0.7283892
87	0x3ea5d922	0.32392222
88	0x3ec24a79	0.37947443
89	0x3e5afdc0	0.2138586
90	0x3ec8b9eb	0.39204344
91	0x3e4ad620	0.19808245
92	0x3e847ffe	0.258789
93	0x3eff4018	0.49853587
94	0x3db790ec	0.089631885
95	0x3ba330a5	0.004980164
96	0xbc5aafda	-0.01334759
97	0xbd46d9ed	-0.048547674
98	0x3e4789e2	0.19486192
99	0x3ef362eb	0.47536406
100	0xbdbb89c3	-0.09157135
101	0x3e24434a	0.16041294
102	0xbe8f24d3	-0.27957782
103	0x3e588260	0.21143484
104	0x3d8e0b8b	0.069357954
105	0xbc426995	-0.011865993
106	0x3da65225	0.081211366
107	0x3d8f88b1	0.07008494
108	0xbda869a2	-0.08223273
109	0xbe5030bd	-0.20331092
110	0xbde30dca	-0.110866144
111	0x3d71e65a	0.05905757
112	0xbd19dfe8	-0.03756705
113	0x3c7a3032	0.01527028
114	0xbdc58a9f	-0.096455805
115	0x3e53c77d	0.20681567
116	0x3db82609	0.0899163
117	0x3d8820d7	0.06646889
118	0x3d87b9c2	0.06627227
119	0x3d8f2b17	0.069906406
120	0x3f62a1c4	0.88528085
121	0x3f70aa6b	0.9401004
122	0x3f1ada49	0.60489327
123	0xbf21f0cd	-0.6325806
124	0x3e242653	0.16030245
125	0xbf7a347f	-0.9773635
126	0xbeae6cc1	-0.34067348
127	0xbf78b56a	-0.97151816
128	0xbecbca0a	-0.3980258
129	0x3fb33b0c	1.4002395
130	0x3fbeb545	1.4899069
131	0x402425e6	2.5648131
132	0x3eb2301d	0.34802333
133	0x403be36b	2.9357555
134	0xbe21fc22	-0.15818837
135	0x408c5a59	4.386029
136	0xbf10ebe0	-0.56609917
137	0xc00e53e0	-2.2238693
138	0xbfbda2c8	-1.4815302
139	0xbf57d1c6	-0.84304464
140	0x3f624d94	0.88399625
141	0x3cf24fd6	0.029579084
142	0x3eb5910c	0.35462224
143	0x3e0f0557	0.1396688
144	0xbdd81c50	-0.10552275
145	0x3e2b55fd	0.1673202
146	0x3da27d46	0.0793405
147	0xbe1fa8b3	-0.15591697
148	0x3ec5494b	0.3853248
149	0xbea0a530	-0.31376028
150	0x3e51406c	0.20434731
151	0x3ee6caa6	0.45076483
152	0x3ed8f9f4	0.423782
153	0x3ec550ca	0.385382
154	0x3db3840d	0.08765421
155	0x3ca72bb9	0.02040659
156	0xbddb1be6	-0.106986806
157	0xbdacf982	-0.08446027
158	0xbf4b7d2e	-0.79487884
159	0xbd8a335d	-0.06748078
160	0x3e9950d1	0.2994447
161	0x3a05d496	0.0005105225
162	0x3cae7481	0.021295788
163	0x3e131f1a	0.14367333
164	0x3f509445	0.8147624
165	0x3f255982	0.64589703
166	0xbd4f7a5f	-0.05065381
167	0xbe5acb73	-0.21366672
168	0x3e8d90c5	0.27649513
169	0x3f04a8b7	0.5181994
170	0xbe4b5cd0	-0.19859624
171	0xbe4345e7	-0.19069634
172	0x3d04d9d7	0.03243431
173	0xbdf92f3a	-0.12167211
174	0xbee11a95	-0.43965593
175	0x3f2081fa	0.6269833
176	0x3da58694	0.08082309
177	0xbdad64ba	-0.08466478
178	0xbccc21b8	-0.024918422
179	0x3cf58868	0.02997227
180	0xbfe3db87	-1.780137
181	0x408a3629	4.3191113
182	0xc0256ce2	-2.5847707
183	0xbe8b5184	-0.2721063
184	0x3f77113d	0.9651068
185	0x3ee0f4d5	0.43936792
186	0xbf9d40ab	-1.228536
187	0x3c501dc7	0.012702412
188	0xbce3a616	-0.027789157
189	0x3f6f1576	0.9339212
190	0x3e29877f	0.16555594
191	0x4012ae69	2.2918952
192	0x3fc79798	1.5593138
193	0x3fba2ca1	1.454487
194	0xbc785247	-0.015156335
195	0xbfa68b21	-1.3011209
196	0x40333b6b	2.8005016
197	0xbe947bf6	-0.29000825
198	0x3ee118b6	0.43964165
199	0x3ef92187	0.48658392
200	0x3e8d3902	0.27582556
201	0xbe87994e	-0.2648415
202	0x3d2be1d9	0.041963432
203	0x3faf9cb4	1.3719697
204	0x3dbc7ead	0.09203849
205	0x3df87c1f	0.12133049
206	0x3e3f15cf	0.18660663
207	0x3e15604b	0.14587514
208	0x3db3e123	0.08783176
209	0xbc9f4128	-0.019440249
210	0x3f48e146	0.7846874
211	0x3e638f9e	0.22222754
212	0xbe63bba0	-0.22239542
213	0xbdab90c5	-0.08377222
214	0x3c461d5a	0.012091959
215	0x3fc62a01	1.5481569
216	0x3d1148a4	0.035469666
217	0x3e426b4f	0.18986247
218	0x3e638c9e	0.2222161
219	0x3d2e121e	0.042497747
220	0xbe139e19	-0.14415778
221	0xbe1bf9bf	-0.1523199
222	0xbdb35c03	-0.08757784
223	0x3e31b65f	0.17354725
224	0x3c847a82	0.016171698
225	0xbc74b86a	-0.014936546
226	0x3c4063ab	0.011742513
227	0x3c8b5255	0.017007032
228	0x3d867ed4	0.06567159
229	0xbca44545	-0.020052562
230	0xbd4f2671	-0.05057377
231	0xbc6f7aea	-0.014616707
232	0x3ce7337a	0.028222788
233	0x3cb1e5c7	0.021716012
234	0x3d4c5f54	0.0498956
235	0xbca70dd3	-0.020392334
236	0x3d3b48c6	0.0457237
237	0x3c9da309	0.01924278
238	0x398410ba	0.00025189464
239	0x3d89946a	0.06717761
240	0xbe765570	-0.2405603
241	0xc08ef5fa	-4.4675264
242	0xbe7456f4	-0.23861295
243	0xbfc260af	-1.5185755
244	0xbf957fcb	-1.1679624
245	0xbf84b153	-1.0366615
246	0xbf3bb4f4	-0.7332299
247	0xbfa58053	-1.2929786
248	0x3f7aafdb	0.97924584
249	0x3f3b6fee	0.73217666
250	0x3f48ce9a	0.7844025
251	0xc095df9d	-4.6835465
252	0x40834179	4.1017423
253	0x40732165	3.7989132
254	0x3ff8a95a	1.9426682
255	0xbfe3e250	-1.780344

fc.0.bias f4 [256]
0	0xc09bdc70	-4.870659
1	0xc03243a1	-2.7853777
2	0xc05e25e3	-3.4710624
3	0xbfb5934d	-1.4185578
4	0xc061de5b	-3.5291965
5	0xbfc026e6	-1.5011871
6	0xbfba7d4f	-1.4569491
7	0xc0098167	-2.148523
8	0xc08971ba	-4.2951326
9	0xbf826762	-1.01878
10	0xbfc1feda	-1.51559
11	0xbf9cbc53	-1.2244972
12	0x3d244c5e	0.040111892
13	0xc0281778	-2.6264324
14	0xbfd93ba4	-1.6971326
15	0xc050ccfc	-3.2625113
16	0xc030915e	-2.7588725
17	0x3ef8bc7e	0.48581308
18	0xc0a66621	-5.199967
19	0xbff99bbf	-1.9500655
20	0x3f8e5ce9	1.1122104
21	0xbfa45fce	-1.2841737
22	0xc0740dc2	-3.8133397
23	0xc0380ffb	-2.8759754
24	0xc01982ba	-2.398604
25	0xc005a69d	-2.0882943
26	0xc073b6c7	-3.8080308
27	0xbfd84831	-1.6897031
28	0xbfe0fddf	-1.7577475
29	0x400e9077	2.2275674
30	0xc061e11e	-3.529365
31	0xc094594f	-4.635902
32	0xc08ed14d	-4.4630494
33	0x4010a003	2.2597663
34	0xc0c0e4c5	-6.027926
35	0xc06e935b	-3.7277439
36	0x3ea51bac	0.32247674
37	0xc0d87538	-6.764309
38	0xbe4984cc	-0.19679564
39	0xc017818b	-2.3672817
40	0xc0772261	-3.8614733
41	0xc045ae5c	-3.088767
42	0xbd3c7073	-0.046005677
43	0x40b5f38c	5.68598
44	0xc00b242d	-2.174083
45	0xc01fcb07	-2.4967668
46	0x3f8d3126	1.1030624
47	0xc021176c	-2.5170546
48	0x3e340008	0.17578137
49	0xbf1abb9d	-0.60442525
50	0xc08b92df	-4.3616786
51	0xc0871221	-4.220963
52	0xc0ec30bf	-7.3809505
53	0xc0c86f03	-6.263551
54	0xbff1cb08	-1.8890085
55	0xc0a49ae3	-5.143907
56	0xc0690ec6	-3.6415267
57	0xc0407fb0	-3.0077934
58	0xbf94eaf2	-1.16342
59	0xbcad8448	-0.02118124
60	0x3fbcc61c	1.4747958
61	0xc04c9e95	-3.197179
62	0xbf9a3834	-1.2048402
63	0xc08da4ae	-4.4263525
64	0xbf013445	-0.5047038
65	0xc05b71ca	-3.4288201
66	0xc07687d0	-3.8520393
67	0x3ea54299	0.32277372
68	0xc05d348b	-3.456332
69	0xbf991844	-1.196053
70	0xbfefd48e	-1.8736742
71	0xc09060a5	-4.5117974
72	0xc07e5454	-3.973897
73	0xc092900d	-4.5800843
74	0xc03a8234	-2.914197
75	0xc07e725c	-3.97573
76	0xc039484e	-2.8950381
77	0xc0b879f8	-5.764889
78	0xc0d13dd6	-6.5387983
79	0x3f38adfe	0.7214049
80	0xc009a655	-2.150777
81	0x3f01f091	0.507577
82	0xc0b38f76	-5.6112623
83	0xc00ea28b	-2.2286708
84	0xc0431f58	-3.048788
85	0xc07cc646	-3.9496017
86	0xbec82d6f	-0.39097163
87	0xc06b5d7f	-3.6775815
88	0xc0096877	-2.147001
89	0xc0a27dbb	-5.077848
90	0xbfc56763	-1.5422176
91	0xbfc8d8af	-1.5691127
92	0xc05cc5de	-3.4495769
93	0x3fb5b52e	1.4195917
94	0xc030347a	-2.753203
95	0xbf220170	-0.63283443
96	0xbf19d8cf	-0.6009645
97	0xbf85df15	-1.0458704
98	0x4000de07	2.0135515
99	0xc0c96090	-6.2930374
100	0xbe142cc4	-0.14470202
101	0xc094f1ab	-4.6545005
102	0xbfc7bcfa	-1.5604546
103	0xbf8f9fe8	-1.1220675
104	0xbffc512c	-1.9712272
105	0xc084c33f	-4.1488338
106	0xc084d3aa	-4.150838
107	0xc0313270	-2.7687035
108	0xc08d1488	-4.4087563
109	0xc0172c58	-2.3620815
110	0xc05a2bb0	-3.4089165
111	0xc0072d9b	-2.1121585
112	0x3de4b35c	0.111670226
113	0xbfc7de2e	-1.5614679
114	0xc08123da	-4.0356264
115	0xbf3f978d	-0.74840623
116	0xbf8601c9	-1.0469295
117	0xbfd48046	-1.6601646
118	0x3e48b778	0.19601238
119	0xbf221f13	-0.63328665
120	0x3eb11606	0.34587115
121	0xbe980fba	-0.29699498
122	0xc06efef6	-3.7343116
123	0xc090c58c	-4.5241146
124	0xc0a64b5b	-5.1966987
125	0xbffcb8c7	-1.974389
126	0xc06805b2	-3.6253476
127	0xc05df160	-3.4678574
128	0xbff3d2d5	-1.9048716
129	0x403fe051	2.9980662
130	0x3faa812a	1.3320668
131	0xc07bcec5	-3.9344952
132	0xc044094a	-3.063067
133	0xc05daee4	-3.4637995
134	0xc0957599	-4.670605
135	0xc06c2155	-3.6895344
136	0xbeea8cde	-0.45810598
137	0x40877de0	4.2341156
138	0xc01efa53	-2.4840286
139	0xbfd627f6	-1.6730945
140	0x3e57e132	0.21081999
141	0xbff1ea46	-1.889962
142	0xc021585a	-2.5210176
143	0xbcff9740	-0.031200051
144	0x3f05f40c	0.5232551
145	0x40aed304	5.4632587
146	0xc01599cb	-2.3375118
147	0xc0320c81	-2.7820132
148	0xbff35d6f	-1.9012889
149	0xc0111604	-2.2669687
150	0xbfff8493	-1.9962333
151	0xc02016d4	-2.5013933
152	0xbff77d9a	-1.9335206
153	0xc01c3912	-2.4409833
154	0xc0693058	-3.6435757
155	0xc04f61f9	-3.2403548
156	0xbdf9e47d	-0.12201784
157	0xc0bbbe90	-5.867012
158	0xc046000b	-3.0937526
159	0x4026968b	2.6029384
160	0x3fd8619f	1.6904792
161	0xbf816fe3	-1.011227
162	0x3fa062c5	1.2530142
163	0xbedb6ea5	-0.42857853
164	0xc061c4f8	-3.527647
165	0xbf7f0653	-0.99619025
166	0xc0374f77	-2.8642251
167	0xbf2b4acc	-0.66911006
168	0xc028f642	-2.6400304
169	0xc0036d7d	-2.0535576
170	0xbd89c269	-0.06726534
171	0xc0975cca	-4.730077
172	0xc02b222e	-2.6739612
173	0x3e162fee	0.14666721
174	0xc0963973	-4.694513
175	0xc0067c27	-2.1013277
176	0xbf3faa31	-0.74869066
177	0xc0122a0a	-2.2838159
178	0xbeec54ac	-0.4615835
179	0x3d901316	0.0703489
180	0x3db5bc4f	0.08873808
181	0xc01ba99b	-2.432227
182	0xc09906b9	-4.7820706
183	0xc097e922	-4.7472086
184	0xbf01b7a6	-0.5067085
185	0x3e1a0c16	0.15043673
186	0x3ed3b34e	0.41347736
187	0xc06fbec0	-3.7460175
188	0xc05bba9e	-3.4332652
189	0x3e596a21	0.21231891
190	0xc0083c9e	-2.1286998
191	0xc05c05c8	-3.4378529
192	0xbec8b8b5	-0.3920342
193	0xc01989ce	-2.399036
194	0x3f3b984a	0.7327925
195	0xc0fdae38	-7.927517
196	0x40039bd0	2.056385
197	0xbfc96942	-1.5735247
198	0xc059342f	-3.39381
199	0xc054e990	-3.3267555
200	0xc09d44ce	-4.914649
201	0xc0781d09	-3.8767722
202	0xbf890558	-1.0704756
203	0xc0092cc9	-2.1433585
204	0xc008a719	-2.1351988
205	0xbf8c3b2c	-1.0955558
206	0xbb909fd7	-0.0044135856
207	0xc0ad30b1	-5.412194
208	0xbf092dba	-0.535854
209	0x405ae847	3.420427
210	0xbe15ec92	-0.14641026
211	0xc051b7a4	-3.2768335
212	0xbf2288be	-0.634899
213	0x4039fec3	2.9061744
214	0xc0d55af5	-6.667353
215	0xbc258db3	-0.0101045845
216	0xbd050580	-0.03247595
217	0xbf1e54a3	-0.61847895
218	0x402244a4	2.5354395
219	0xc072d5ed	-3.794307
220	0xbf873daa	-1.0565693
221	0xc09c82dd	-4.8909745
222	0xbede6a08	-0.4344027
223	0xc0ae1d14	-5.4410496
224	0xc03b6d14	-2.9285326
225	0xc00c6b0e	-2.194034
226	0x3f3150ed	0.6926411
227	0xc0ba2595	-5.8170877
228	0x3f44250b	0.76619023
229	0x3f83cd37	1.0297002
230	0xc00ec0e8	-2.230524
231	0xbfff2152	-1.9932044
232	0xc050c1e6	-3.2618346
233	0xbf612ee3	-0.8796217
234	0x3c2aca95	0.010424276
235	0xc04099b1	-3.0093806
236	0xbf226a48	-0.6344342
237	0xbfebf8a1	-1.843525
238	0xbfae2891	-1.360613
239	0xc07add75	-3.9197667
240	0xc001ba56	-2.026998
241	0xc05fd4bf	-3.49736
242	0xc02c378f	-2.690891
243	0xc0877f49	-4.2342877
244	0xbeb7ec74	-0.35922587
245	0xbebc772b	-0.36809668
246	0xc0e59469	-7.1743665
247	0xc0a90d2f	-5.2828593
248	0xbff958a5	-1.9480177
249	0x40ca2fda	6.3183413
250	0xc01fc4aa	-2.4963784
251	0xbeea2524	-0.4573146
252	0xbf9114fc	-1.1334529
253	0xc093b821	-4.6162267
254	0xc0b5c6f4	-5.6805363
255	0xc0a543f4	-5.164545

fc.1.weight f4 [128, 256]
0	0x3cd915ac	0.026499592
1	0xbd2f5555	-0.04280599
2	0xbc5c7749	-0.013456174
3	0xbb3b2797	-0.0028557533
4	0xbd92bc4a	-0.071648195
5	0xbda28767	-0.07935982
6	0xbd4a53a4	-0.049396172
7	0xbd899049	-0.06716973
8	0xbd8a6a3a	-0.06758542
9	0x3d1dac80	0.038494587
10	0xbc7d22ef	-0.015450223
11	0xbdb3b1fb	-0.087741815
12	0x3cd99d82	0.026564363
13	0x3d058551	0.032597844
14	0xbc45c62a	-0.012071172
15	0x3d3d0b46	0.04615333
16	0x3b15bd38	0.002284838
17	0xbca054a8	-0.019571617
18	0xbcdb542b	-0.026773533
19	0xbc8bb5b0	-0.017054409
20	0x3c7bff37	0.015380672
21	0xbc853dbd	-0.01626479
22	0xbd1ddfc3	-0.038543474
23	0x3bd816a1	0.0065944945
24	0xbd604449	-0.05475262
25	0xbd4af614	-0.049551085
26	0xbdb41ac4	-0.08794168
27	0xbd369dd5	-0.044584114
28	0xbd05ae57	-0.032636967
29	0xbc86b257	-0.016442461
30	0xbce37320	-0.027764857
31	0xbd5a0b13	-0.053233217
32	0xbd1f8b98	-0.038951486
33	0xbd815f11	-0.063169606
34	0x3d439fdd	0.04775988
35	0xbcf446b5	-0.029818872
36	0x3cd3dcf3	0.025862193
37	0xbcde0bdc	-0.027105264
38	0xbd6fdf4e	-0.05856257
39	0x3d26fc01	0.040767673
40	0xbdafd7ef	-0.08586108
41	0xbd81e086	-0.063416526
42	0xbd0d2f82	-0.034469135
43	0x3bba72ce	0.0056899553
44	0xbb7047cc	-0.0036663888
45	0x3cf64e71	0.0300667
46	0x3d2efa16	0.04271897
47	0xbd51817f	-0.051148888
48	0xbd34c837	-0.044136252
49	0x3b923330	0.0044616684
50	0xbd799b14	-0.06093891
51	0x3d5cf619	0.053945635
52	0xbd8ecdf1	-0.06972874
53	0xbd379688	-0.044821292
54	0x3bcac4ef	0.006188027
55	0xbc8ee4a3	-0.017443007
56	0x3d749d1b	0.05972014
57	0xbd62920f	-0.055315074
58	0xbd97ce06	-0.07412343
59	0xbd9865fa	-0.074413255
60	0x3d395f50	0.045256913
61	0xbc999c0e	-0.01875117
62	0xbc424fce	-0.011859847
63	0x3cd147d7	0.025546951
64	0xbd821095	-0.06350819
65	0x3c80c5e9	0.01571937
66	0xbd4d4ed8	-0.05012402
67	0xbdb44b15	-0.08803383
68	0xbd9f793f	-0.07786798
69	0xbcfaffbf	-0.030639527
70	0xbcc441ad	-0.023957098
71	0xbc1ac810	-0.009447113
72	0xbd9c2188	-0.07623583
73	0xbbf05503	-0.007334353
74	0xbcaa1736	-0.020763021
75	0x3c78bf13	0.015182274
76	0xbce54282	-0.027985815
77	0xbca82d58	-0.020529434
78	0xbd3268c1	-0.043556932
79	0xbda341ac	-0.0797151
80	0x3d3846bf	0.044989344
81	0xbd713135	-0.058884818
82	0xba849e37	-0.0010117952
83	0xbcfcdac5	-0.030866036
84	0xbc89b39f	-0.016809283
85	0xbb8bc770	-0.004265718
86	0xbd0aa2e2	-0.033846743
87	0x3b9e4ade	0.004830702
88	0xbcc50626	-0.024050783
89	0x3c1245b7	0.008927754
90	0xbc9853eb	-0.018594703
91	0xbd6410fa	-0.055680253
92	0x3d32c1be	0.0436418
93	0x3bf3eddf	0.007444128
94	0xbc944920	-0.018101275
95	0xbca9d495	-0.02073125
96	0xbbbe1acb	-0.005801534
97	0xbd90fef4	-0.070798784
98	0xbd85d27f	-0.065342896
99	0x3cc02187	0.023453487
100	0xbc86a3de	-0.01643556
101	0xbb5858c1	-0.0033011886
102	0xbb7d16c4	-0.0038618306
103	0xbd93a260	-0.07208705
104	0xbdbf0760	-0.093275785
105	0x3d05b986	0.032647632
106	0x3d1189aa	0.035531677
107	0xbda9b50e	-0.082864866
108	0xbd7edafe	-0.062220566
109	0x3c863b2b	0.016385635
110	0xbc2b1c16	-0.010443708
111	0x3d33755c	0.043813094
112	0x3c1ec4d8	0.009690486
113	0x3c88defd	0.016707892
114	0xbce9d181	-0.028542282
115	0xbd03ba14	-0.03215988
116	0xbacafbc5	-0.001548641
117	0x3c81dfe1	0.015853824
118	0xbd02d745	-0.03194358
119	0xbd1263dc	-0.035739765
120	0xbd96979e	-0.073531374
121	0xbc19c86b	-0.009386162
122	0x3aec29d9	0.0018017843
123	0xbcacfe5b	-0.02111738
124	0xbcb8e9bd	-0.022572393
125	0xbcba7781	-0.022762062
126	0x3cf04358	0.029328987
127	0xbb9531c6	-0.0045530526
128	0xbb0cd6bb	-0.0021490294
129	0xbd54aef4	-0.05192466
130	0x3c32ad87	0.01090563
131	0x3c6221c4	0.013801996
132	0xbda5871b	-0.0808241
133	0xbd5d8f33	-0.054091644
134	0xbc13b635	-0.0090156095
135	0x3cc408cd	0.023929978
136	0x3cb97bf9	0.022642123
137	0xbcf3bac6	-0.029752146
138	0x3d4fcf67	0.050734904
139	0xbdc51216	-0.0962259
140	0x3c3a3a86	0.011366492
141	0xbc7c4e00	-0.015399456
142	0xbd0b1f09	-0.033965144
143	0xbd9fc8c9	-0.078019686
144	0xbd8c51c0	-0.0685153
145	0xbdb20e33	-0.086941145
146	0xbd182371	-0.037143175
147	0xbcad3513	-0.021143472
148	0xbd472b0b	-0.048625033
149	0xbd9ac360	-0.07556796
150	0x3d08c65c	0.033392295
151	0xbd7846b1	-0.06061429
152	0xbc59e170	-0.013298377
153	0x3b889c1d	0.004169001
154	0xbd6d565c	-0.057943687
155	0xbb0ea5d4	-0.0021766322
156	0xb9ef2ae0	-0.00045617577
157	0xbb495bee	-0.003072496
158	0xb9292862	-0.0001613214
159	0xbd6c0a42	-0.05762697
160	0x3cdcdb50	0.026960045
161	0xbd92c7f5	-0.07167045
162	0xbd143261	-0.036180858
163	0xbc964cd5	-0.018347183
164	0xbd1ac9ab	-0.03778998
165	0x3ceee9e5	0.029164264
166	0xbd85d48e	-0.06534682
167	0x3cfd877d	0.030948395
168	0xbd01f936	-0.031731807
169	0xbb0a98aa	-0.0021148124
170	0xbd9c4178	-0.07629675
171	0x3a7f55de	0.0009740273
172	0x3ca06f14	0.019584216
173	0xbd8b665d	-0.068066336
174	0xbc075701	-0.008260489
175	0xbbb73511	-0.005591043
176	0x3d207c35	0.039180953
177	0x3c99f927	0.018795563
178	0xbd933e71	-0.07189644
179	0xbd90d15d	-0.07071183
180	0xbd2b79ed	-0.041864324
181	0xbcecccd6	-0.028906267
182	0x3ba0c8af	0.004906736
183	0x3ba5bf22	0.005058185
184	0xbda2a158	-0.0794093
185	0xbd59b82a	-0.05315415
186	0xbc55f62a	-0.013059178
187	0xbda98123	-0.08276584
188	0xbd4d58a4	-0.050133362
189	0xbcb65c2b	-0.022260746
190	0xbd0555d0	-0.03255254
191	0x3cc44f41	0.023963572
192	0xbd9f325f	-0.077732794
193	0xbd38281e	-0.044960134
194	0xbdc25318	-0.09488505
195	0xbca9cc6c	-0.020727359
196	0x3d1668d6	0.036721073
197	0x3cb23756	0.021754902
198	0xbcb81605	-0.022471437
199	0xbd816d2f	-0.06319653
200	0xbd7d955c	-0.06191002
201	0xbd547845	-0.05187251
202	0xbc2e26bb	-0.010629351
203	0x3cf4bce5	0.029875228
204	0xbda801f9	-0.08203501
205	0xbc10cbad	-0.008837623
206	0xbd083b1c	-0.033259496
207	0xbda45b9f	-0.08025288
208	0xbd998c7a	-0.07497497
209	0x3cf224d2	0.029558573
210	0xbc606786	-0.013696557
211	0x3c913057	0.017723246
212	0x3cabc75f	0.020969091
213	0xbd05a5b2	-0.032628722
214	0xbca79d38	-0.02046071
215	0xbd767f91	-0.06018025
216	0xbd63fe7a	-0.05566261
217	0x3b1d3f81	0.002399415
218	0xbd7dcfd1	-0.061965767
219	0xbd6d7bc1	-0.05797935
220	0xbd21f287	-0.039537933
221	0xbda581ac	-0.080813736
222	0xbbe7ac59	-0.007070106
223	0x3c2cdc9b	0.010550643
224	0xbd63a070	-0.055572927
225	0xbc35c4bc	-0.011094268
226	0xbd368589	-0.044560943
227	0x3b43e7fb	0.002989291
228	0xbc927999	-0.017880248
229	0xbd10b027	-0.035324242
230	0xbd2db6f0	-0.04241079
231	0xbd38839f	-0.0450474
232	0xbcd7ab4c	-0.026326798
233	0xbd8a6dc5	-0.06759218
234	0xbc4b5491	-0.012410299
235	0x3c651a72	0.013983356
236	0x3ca6bb22	0.020352904
237	0xbd9ae289	-0.075627394
238	0xbde0ec97	-0.10982626
239	0xbca5d768	-0.020244315
240	0x3ca2213f	0.019791244
241	0x3d18afd2	0.03727705
242	0xbda6373b	-0.08116003
243	0xbd1dc071	-0.038513605
244	0xbd1a6896	-0.037697397
245	0x390229c9	0.00012413332
246	0xbc8aff0d	-0.01696732
247	0xbd0531b2	-0.032518096
248	0xbda73e2e	-0.08166157
249	0xba053300	-0.0005081147
250	0xbd36f294	-0.044664934
251	0xbda94333	-0.0826477
252	0xbc5caac1	-0.013468445
253	0xbd257238	-0.04039213
254	0xbd79d5f0	-0.060995042
255	0xbcc5a024	-0.024124213

fc.1.bias f4 [128]
0	0x3ba87c05	0.0051417374
1	0xbf4db6bc	-0.80356956
2	0x3fbc46ad	1.4709069
3	0x3fec7859	1.8474227
4	0x3c43fbd0	0.011961892
5	0x3e8d5987	0.27607366
6	0xbda9b3d0	-0.0828625
7	0x3fa808b6	1.3127658
8	0xbd904428	-0.0704425
9	0x40a4a934	5.1456547
10	0x4077d32a	3.8722634
11	0xbff10ce5	-1.883206
12	0x3cd98ca2	0.026556317
13	0x40860ca0	4.189041
14	0xbfef4849	-1.8693935
15	0xc02e7982	-2.7261662
16	0x411c8a45	9.783757
17	0x4042ec4c	3.0456724
18	0x3b8a0b38	0.004212763
19	0xbd23b53e	-0.039967768
20	0x3f0f63b4	0.5601151
21	0xbfb237bc	-1.3923259
22	0xc04bea88	-3.1861897
23	0x4056fb9e	3.3591075
24	0x40028be0	2.0397873
25	0xc099637a	-4.793393
26	0xbe919c3e	-0.28439516
27	0xbe790cca	-0.24321285
28	0x3f419e19	0.7563186
29	0x3f8395a4	1.0280042
30	0xbf8366ed	-1.0265785
31	0x3fdf8263	1.7461666
32	0xc0b76243	-5.730745
33	0xbd0c9e65	-0.034330744
34	0x3fab2302	1.3370059
35	0x3f19ebf5	0.60125667
36	0x3f4a2704	0.78965783
37	0x402673ac	2.60081
38	0x3f032a2e	0.51236236
39	0x3fe1da1e	1.7644689
40	0xbf2a0566	-0.6641449
41	0xc0512a2c	-3.268199
42	0x4083a47f	4.11383
43	0xbd95a812	-0.073074475
44	0x402ff13c	2.7490988
45	0xbda2f3da	-0.07956667
46	0x3f871d26	1.055577
47	0x40ea7eb4	7.3279667
48	0xbeb4a4aa	-0.3528188
49	0xbfa54ee4	-1.29147
50	0x3fce5e19	1.6122466
51	0xbd966beb	-0.073448025
52	0xc013f098	-2.3115597
53	0xbc89fbc7	-0.01684369
54	0xbd82856d	-0.06373105
55	0xbefc2bf7	-0.49252293
56	0xc02b3c6c	-2.6755629
57	0x404e2a19	3.2213194
58	0xbca5652f	-0.02018985
59	0x3ffb57c9	1.9636165
60	0x3abd35f2	0.0014435633
61	0xc01f7098	-2.4912472
62	0x401bdbfe	2.4353023
63	0x3eb4795a	0.35248834
64	0x3fa78f62	1.3090632
65	0xbc5c449d	-0.013444093
66	0xbd6ed534	-0.058308795
67	0xc00df1b7	-2.217878
68	0x409538a1	4.6631627
69	0x3c2b2a02	0.010447027
70	0x40852aae	4.16146
71	0xbdb782c6	-0.0896049
72	0xc03a76df	-2.9135053
73	0xbd2b991a	-0.041894056
74	0x3fc8b5bc	1.5680461
75	0xbf2549d3	-0.6456577
76	0xbda09052	-0.07840027
77	0x3c5bdbf7	0.013419143
78	0x3ee34f27	0.44396326
79	0x3fc62d7d	1.5482632
80	0xbf532240	-0.82474136
81	0x4037cedc	2.8720007
82	0x3eddd8bd	0.4332942
83	0x408fa5aa	4.4889727
84	0x3cdd6a42	0.027028207
85	0x3e6a2003	0.22863774
86	0xbd97ed36	-0.07418291
87	0x401f48b6	2.488813
88	0x3c55c2a5	0.013046895
89	0xbfa6ebb4	-1.3040681
90	0x402151bc	2.5206137
91	0xbf8eac15	-1.1146265
92	0x403f5c2f	2.9900014
93	0x3e079dd2	0.13243797
94	0x4003f376	2.0617347
95	0xc0cb3a46	-6.3508635
96	0x3f4d5580	0.8020859
97	0xbed745c9	-0.4204543
98	0xbdb6ea4a	-0.08931406
99	0x400c7310	2.1945229
100	0x40868869	4.2041516
101	0x3f110200	0.56643677
102	0x3fdf5579	1.7447959
103	0xbe439f1e	-0.19103667
104	0x40abebcb	5.3725333
105	0x3edc23e9	0.42996147
106	0x3fbe7352	1.4878943
107	0xbd544894	-0.05182703
108	0xbd0c59ce	-0.034265332
109	0xbd54465b	-0.05182491
110	0x404ec359	3.230673
111	0xbd996eba	-0.074918225
112	0x4061a748	3.525835
113	0x4097bdde	4.741927
114	0x3cd987f3	0.026554083
115	0xbc30a833	-0.010782289
116	0xbf04ec2a	-0.5192286
117	0x3c681849	0.014165946
118	0xc046ab38	-3.1042004
119	0x3ff331aa	1.8999531
120	0x3f842871	1.0324842
121	0x408557e6	4.16698
122	0xbcd4162d	-0.02588948
123	0x3f95ddeb	1.1708349
124	0xc00c3c6e	-2.1911883
125	0xbd849e20	-0.064754725
126	0xbe104d27	-0.14091931
127	0x3fbf4c55	1.494517

fc.2.weight f4 [64, 128]
0	0x3ce1f7c7	0.02758397
1	0xbe913292	-0.28358895
2	0x3df74591	0.120738156
3	0xc08fbb04	-4.491579
4	0xbd79bada	-0.06096921
5	0xbf369b45	-0.7133067
6	0x3d09a982	0.03360892
7	0x3cc56461	0.024095716
8	0xbce50380	-0.02795577
9	0x402c2444	2.6897135
10	0x3f41c95f	0.7569789
11	0xbf8cf29c	-1.1011539
12	0xbdb3ffdf	-0.08789038
13	0x3eb2f7af	0.34954593
14	0x3edc38d5	0.4301211
15	0xbec40b94	-0.38290083
16	0xbf226e68	-0.63449717
17	0x3e020d45	0.12700374
18	0x3c74e718	0.014947675
19	0x3d495f91	0.049163405
20	0xbf186528	-0.5952935
21	0xbfb8f37c	-1.4449306
22	0x3d8abfb5	0.067748465
23	0xbf11d16f	-0.56960195
24	0xbfa01224	-1.2505536
25	0x3ef71b92	0.48263222
26	0x3fd9f6b2	1.702841
27	0xbede22c2	-0.43385893
28	0x3eddf48d	0.4335064
29	0x3efb297d	0.4905509
30	0xbea2f6ff	-0.31829068
31	0x3f4915e1	0.7854901
32	0xbeb033d0	-0.3441453
33	0x3cb920e7	0.022598697
34	0xbe03ebde	-0.12882945
35	0xc0823c0a	-4.069829
36	0x3f2773d5	0.6541112
37	0x3f1afb7e	0.60539997
38	0xc01715ad	-2.360698
39	0xbfe2fbc4	-1.7733083
40	0x3e35aa82	0.17740825
41	0x3f9e0cf9	1.2347709
42	0x3e29a6e1	0.16567566
43	0x3d09a2e8	0.033602625
44	0x3ead88e7	0.3389351
45	0x3c53ff05	0.012939219
46	0x3f62cda6	0.88595045
47	0xbfd4dec4	-1.6630483
48	0x3f28aaf1	0.65885836
49	0xbe7c64f7	-0.2464789
50	0x3e8b2c18	0.27182078
51	0xbbd029a9	-0.0063526225
52	0xbfe4587c	-1.7839503
53	0xbd0ca758	-0.03433928
54	0x3dc768aa	0.0973676
55	0x3f88c4f9	1.0685111
56	0x3f081abb	0.5316579
57	0xc050d4cf	-3.2629888
58	0xbd3935db	-0.045217376
59	0xbfca5c1f	-1.5809363
60	0x3c92dd93	0.01792792
61	0xbedcaf75	-0.43102613
62	0xbe86bdb3	-0.26316604
63	0x3f6f99f7	0.93594307
64	0xbf9c6927	-1.221959
65	0x3cbe7e29	0.023253517
66	0xbd821095	-0.06350819
67	0xbfba68f2	-1.4563277
68	0xbf86f043	-1.0542072
69	0x3d48888f	0.048958357
70	0xc0517c6c	-3.273219
71	0xbdb0f4ad	-0.08640418
72	0xbe5e306d	-0.2169816
73	0xbc993e53	-0.018706476
74	0xc097046f	-4.719291
75	0x3fd2461c	1.6427646
76	0xbd1ae436	-0.037815295
77	0x3da176b3	0.07883968
78	0xc01becea	-2.436335
79	0xbf071ff1	-0.52783114
80	0xc07351ea	-3.8018746
81	0xc00cb47a	-2.1985154
82	0x3f1d05ab	0.61336774
83	0xbed18ca2	-0.40927607
84	0x3e2bab93	0.16764669
85	0x3f35e433	0.7105133
86	0xbda25fa5	-0.07928399
87	0xbfb0e5a3	-1.382008
88	0xbdd44745	-0.10365156
89	0xbfebb18f	-1.8413562
90	0xc01367e6	-2.3032165
91	0xc01addbf	-2.4197843
92	0xbf77d801	-0.9681397
93	0x3e38e714	0.180569
94	0xbc943116	-0.018089812
95	0xbfc860c7	-1.5654534
96	0xbc8b82d1	-0.017030152
97	0x3ea16bab	0.31527457
98	0xbd5ddb63	-0.0541643
99	0xbf920f15	-1.1410853
100	0xbd35450e	-0.04425531
101	0xc086e0ab	-4.2149253
102	0x3dac3f25	0.08410481
103	0xbf653776	-0.8953775
104	0xbf0e8a1e	-0.556795
105	0xbf450514	-0.76960874
106	0xbf009ca3	-0.5023901
107	0xbca885d3	-0.020571625
108	0x3bd90f8f	0.006624169
109	0x3d1926a8	0.03739038
110	0xbf93ee8b	-1.1557173
111	0x3bdbc123	0.0067063733
112	0xc0642dbb	-3.5652912
113	0xbe929133	-0.28626403
114	0x3d909959	0.07060499
115	0x3c8d10d4	0.017219938
116	0xc038134d	-2.876178
117	0x3d04bef5	0.032408673
118	0x3f5c2484	0.8599322
119	0x3dc81c44	0.09771016
120	0xbfad9bdc	-1.356319
121	0x3f16efb0	0.58959484
122	0x3d9ccba8	0.07656032
123	0x3f6ac8bc	0.91712546
124	0xbf22e1ed	-0.63625985
125	0xbcd2c43a	-0.025728334
126	0x3db98fbb	0.090606175
127	0xbcdc2811	-0.026874574
128	0x3d39e4dd	0.045384277
129	0xbf909a58	-1.1297102
130	0xbdfea434	-0.12433663
131	0x3f50540c	0.81378245
132	0xbd5df601	-0.054189686
133	0xbef1abdd	-0.47201434
134	0xbd17bfc8	-0.03704813
135	0xbfbc929d	-1.4732243
136	0x3cfd1267	0.030892564
137	0x3f0f8a57	0.56070465
138	0xbfa9e09c	-1.327167
139	0xbf13c708	-0.5772557
140	0x3d554feb	0.05207817
141	0xbf8c53c9	-1.0963069
142	0xbe7f72ae	-0.2494609
143	0xbdb4e510	-0.08832753
144	0x3e6c9119	0.23102225
145	0xbfbfbe01	-1.497986
146	0x3d7d802e	0.06188982
147	0x3d506d0a	0.050885238
148	0xbfd2a855	-1.6457621
149	0x3dce3f7b	0.10070702
150	0x3f6b102d	0.9182156
151	0xbf95fbb7	-1.1717442
152	0xbd8dbf8e	-0.06921302
153	0xbd014cfa	-0.03156755
154	0xbf3b8693	-0.7325222
155	0x3e122dc6	0.14275274
156	0x3e585501	0.21126176
157	0xbcefd048	-0.02927412
158	0xc108e327	-8.555457
159	0xbfbe471c	-1.4865451
160	0xbe855438	-0.26040816
161	0xbd844008	-0.064575255
162	0xbedaada5	-0.42710605
163	0xc08b3c45	-4.351107
164	0x3f012279	0.50443226
165	0x3e725621	0.23665668
166	0x3c52a6ca	0.012857148
167	0xbf5ee2a1	-0.8706456
168	0xc0173bd8	-2.3630276
169	0xbf5fade2	-0.873747
170	0x3f2119ac	0.629298
171	0xbd57efb8	-0.052718848
172	0x3e5e9b88	0.21739018
173	0xbd1bd120	-0.038041234
174	0xbf0cf116	-0.5505537
175	0xbf4ebbba	-0.807552
176	0x3d91e2ee	0.071233615
177	0xbea34b70	-0.31893492
178	0xbe265c28	-0.16246092
179	0x3d277189	0.04087976
180	0x3ec4f89c	0.38470924
181	0x3cc61be8	0.024183229
182	0xbd0383b4	-0.032108024
183	0xbf318491	-0.69342905
184	0x3d47ea87	0.048807647
185	0xbda8e706	-0.08247189
186	0xbb8d280b	-0.004307752
187	0x3eae023b	0.33986077
188	0x3c882975	0.01662133
189	0xbd8400bc	-0.064454526
190	0xbf9c49d0	-1.2210026
191	0xbf0662b2	-0.5249435
192	0x3ea75ca0	0.32687855
193	0xbd1d9d27	-0.03847995
194	0x3d6d1b5e	0.057887428
195	0xbef30060	-0.47461224
196	0x3e356f3b	0.17718212
197	0x3de09a5e	0.10966943
198	0x3ed46b56	0.4148814
199	0xbcfdbd0f	-0.03097394
200	0xbd0d166f	-0.034445222
201	0xbc58b363	-0.013226363
202	0xbfaaa5d2	-1.3331854
203	0x3f878129	1.0586292
204	0x3c8dc429	0.01730545
205	0xbd347a21	-0.044061784
206	0xbd6b17af	-0.057395633
207	0xc010ce9d	-2.2626107
208	0x3d16160e	0.036642127
209	0x3fbdc55f	1.4825858
210	0xbec2e2cf	-0.38063666
211	0x3eb85600	0.36003113
212	0xbd804b95	-0.06264416
213	0xbc68180c	-0.0141658895
214	0x3d98b167	0.07455712
215	0x3f2f1708	0.6839452
216	0xbcc833d3	-0.024438774
217	0xbf6bd775	-0.92125636
218	0xbd9e5928	-0.07731849
219	0x3f145148	0.57936525
220	0xbf26f12d	-0.65211755
221	0x3eb59558	0.35465503
222	0x3e9054cc	0.28189695
223	0xbe866164	-0.26246178
224	0xbe8345ce	-0.25639194
225	0x3f5664b0	0.83747387
226	0x3d0175e4	0.03160657
227	0x3f361491	0.7112513
228	0xbec6c3f6	-0.3882138
229	0x3f6ddd78	0.9291606
230	0x3f6d6570	0.92732906
231	0xbf2f766d	-0.6854008
232	0x3d9f3640	0.07774019
233	0xbf1f486e	-0.62219894
234	0xbeb5d741	-0.35515788
235	0xbc2b0f66	-0.010440683
236	0xbce382a9	-0.027772265
237	0xbd14eba3	-0.036357533
238	0x3f059870	0.52185726
239	0x3c897ac8	0.01678218
240	0x3ef8b2d8	0.48573947
241	0xbecbfc22	-0.398408
242	0x3dc3ad91	0.095545895
243	0xbd149872	-0.036278196
244	0x3e4df277	0.20112024
245	0xbd64a0ef	-0.05581754
246	0xbf851d73	-1.0399612
247	0xbe6d5b9d	-0.23179479
248	0x3d3b46e7	0.045721915
249	0x3ea7184d	0.32635728
250	0x3da2b7bb	0.079452
251	0x3ebc56cf	0.3678498
252	0xbeb60d9b	-0.35557255
253	0x3cb840ea	0.022491891
254	0xbd022fad	-0.03178375
255	0x3f16fa53	0.58975714

fc.2.bias f4 [64]
0	0xc0420867	-3.0317628
1	0x3f6b19f1	0.9183646
2	0x41543d9b	13.26504
3	0x3f4fffca	0.8124968
4	0xc052cef1	-3.2938807
5	0xbf78aad4	-0.97135663
6	0xbef26092	-0.47339302
7	0xbf51b264	-0.8191283
8	0xc090da19	-4.5266232
9	0x41626659	14.149987
10	0x4021b7ce	2.5268435
11	0x3ec0cffb	0.37658677
12	0x4102f9bd	8.185971
13	0xbf00d109	-0.5031896
14	0xbd5c593e	-0.053796045
15	0x412aa24e	10.664625
16	0xbfa627af	-1.298086
17	0x3f2550c6	0.64576375
18	0xbddd7cc8	-0.10814816
19	0xbf34253a	-0.70369303
20	0x3df5052c	0.11963877
21	0xc06f5a32	-3.73988
22	0x3f2f147e	0.68390644
23	0x403f4b3e	2.9889674
24	0x4114f13d	9.308896
25	0xc0ccab93	-6.395944
26	0x3e3402cb	0.1757919
27	0xbfbace8c	-1.4594283
28	0x40376c34	2.8659792
29	0xbc9e1cb9	-0.019300805
30	0x40480dad	3.1258347
31	0x40a1afde	5.052718
32	0x3ede05a7	0.43363687
33	0xbf8bde8e	-1.0927293
34	0xbe09f15e	-0.1347098
35	0xc0440ca3	-3.0632713
36	0x40483275	3.1280797
37	0xbe3541e5	-0.17700918
38	0x3e36fdd9	0.17870273
39	0xc17b29b1	-15.697679
40	0x3fc2f192	1.5229971
41	0xc01c646c	-2.4436293
42	0xbfee9462	-1.8639033
43	0xbe957ed3	-0.29198322
44	0x3fece4f6	1.8507373
45	0xc0061410	-2.0949745
46	0x400399d0	2.056263
47	0x40d7fe5d	6.7498
48	0x414589fd	12.346189
49	0x408ae791	4.3407674
50	0xbf3b77f4	-0.7322991
51	0xbe39492e	-0.18094322
52	0x408bea3c	4.372343
53	0x3fdb81c3	1.7148975
54	0x41165bfa	9.397455
55	0x4141e84e	12.119215
56	0xc0c58de7	-6.173572
57	0xbc9e4a67	-0.019322587
58	0xbda1bc04	-0.07897189
59	0x41144823	9.2676115
60	0x401f3273	2.4874542
61	0xbe0bbf6a	-0.13647237
62	0x408fdf05	4.495974
63	0x3f301318	0.68779135

fc.3.weight f4 [32, 64]
0	0x3e4e45f4	0.20143872
1	0x3b63a876	0.0034737862
2	0xbd8ca629	-0.0686763
3	0xba34e7cf	-0.0006900997
4	0xbbe93db7	-0.0071179527
5	0xbbfc450e	-0.0076986616
6	0xbbd10a21	-0.0063793813
7	0x3edddbb3	0.4333168
8	0xbdf937d3	-0.12168851
9	0xbc196d72	-0.009364473
10	0xbb484b20	-0.0030562356
11	0xbabd5550	-0.0014444981
12	0x3df15013	0.11782851
13	0x3be60403	0.007019521
14	0xbda70825	-0.0815585
15	0xbc88da40	-0.016705632
16	0x3aa64d32	0.0012687801
17	0xbba3ed39	-0.0050026444
18	0x3c899b9a	0.01679783
19	0x3dd2e19a	0.10296936
20	0xbbefcded	-0.0073182494
21	0x3b0a6a34	0.002112043
22	0x3b50091e	0.0031743716
23	0x3bd32dd0	0.0064446703
24	0x3cc81785	0.024425277
25	0xbea2dd9a	-0.31809694
26	0xbad6bdd1	-0.0016383474
27	0x3c8e8302	0.017396454
28	0x3ae6992d	0.0017593257
29	0xbc696d45	-0.014247243
30	0x3b1a4f12	0.0023545665
31	0x3b1f783e	0.0024333145
32	0xbd6149da	-0.05500207
33	0xbae1c47e	-0.0017224697
34	0xbda59790	-0.08085549
35	0xbb795430	-0.0038044564
36	0x3e1f56c9	0.1556045
37	0xbb63e949	-0.00347765
38	0xbb866dc4	-0.0041024406
39	0xbd9b1f0a	-0.075742796
40	0xbb58b1af	-0.0033064892
41	0xbdb99456	-0.09061496
42	0xbedd5345	-0.43227592
43	0x3ac901c2	0.0015335607
44	0xbbe90470	-0.0071111247
45	0x3bb31be2	0.0054659704
46	0xbcd7866f	-0.02630922
47	0x3d5cc5ce	0.05389958
48	0x3dbd5156	0.09244029
49	0x3ab4858f	0.0013772714
50	0xbf8f5d1a	-1.1200287
51	0xbe02289e	-0.12710807
52	0x3975479f	0.00023391702
53	0xb9a68221	-0.0003175894
54	0x3d84c9b9	0.06483788
55	0xbd89091b	-0.0669119
56	0x3ebfccf7	0.37461063
57	0x3d8efa19	0.06981296
58	0xbc775477	-0.015095822
59	0x3e4215d1	0.18953635
60	0x3a9e9295	0.0012098128
61	0xbdbb320f	-0.09140407
62	0x3b1006eb	0.002197678
63	0x3e986377	0.29763386
64	0xc0509458	-3.2590542
65	0xbffc29dd	-1.9700276
66	0x3d4f3fce	0.05059796
67	0x3d888ab3	0.0666708
68	0xbeed8e26	-0.46397513
69	0xbe059c06	-0.130478
70	0xbcd2ee27	-0.025748326
71	0xbe74e8b7	-0.23916899
72	0xbfa04e8d	-1.2523972
73	0xbe226b64	-0.15861279
74	0xbf97af8b	-1.1850446
75	0xbb9cab62	-0.0047811726
76	0xbe4fb99d	-0.2028565
77	0xbe4de122	-0.20105413
78	0xbd3224ca	-0.043492116
79	0xbe851abc	-0.2599696
80	0xbb4fe227	-0.003172049
81	0xbeebf1f8	-0.46083045
82	0xbe363045	-0.17791851
83	0xbd4278a6	-0.04747834
84	0xbf9385d5	-1.1525217
85	0xbe35e5e4	-0.17763478
86	0xbe4d3cde	-0.2004275
87	0x3b2efe89	0.0026702008
88	0xbe081d48	-0.1329242
89	0xbf366588	-0.71248674
90	0x3f1cebea	0.61297476
91	0xc04760a2	-3.115273
92	0xc07a017c	-3.9063406
93	0xbdd2f1ab	-0.10300001
94	0x3dda92f9	0.10672564
95	0x3e7a0098	0.24414289
96	0xbc0d9821	-0.008642227
97	0xbd467392	-0.04845006
98	0x3d6b18e5	0.05739679
99	0x3b6927fe	0.0035576816
100	0x3e1f480a	0.15554824
101	0xbe8d82ce	-0.2763886
102	0x3e678c8a	0.22612205
103	0xc02f65b4	-2.7405825
104	0x3d65f41a	0.056140997
105	0x3d037cf2	0.03210158
106	0xbf879561	-1.0592462
107	0xbf5fb51f	-0.87385744
108	0x3d30688f	0.043068465
109	0xbd7db5a2	-0.061940797
110	0xbf0fd202	-0.5617982
111	0xbc78232b	-0.015145103
112	0xbe057a34	-0.13034898
113	0xbecfc744	-0.40581715
114	0x3e101d4a	0.14073673
115	0xbd1f7932	-0.03893394
116	0xbdd860e4	-0.105653554
117	0xbd5da659	-0.05411372
118	0xc01ba5ca	-2.431994
119	0x3d498ca0	0.049206376
120	0xbebaa026	-0.3645031
121	0x3d251382	0.040301807
122	0x3d717e39	0.058958266
123	0xbe921ae5	-0.28536144
124	0xbf158e29	-0.58420044
125	0xbce357f3	-0.027751898
126	0xbe84ef19	-0.25963667
127	0xbfa843f4	-1.3145738
128	0xbe7bef63	-0.24603038
129	0xbddcb022	-0.10775782
130	0xc0a697e4	-5.2060413
131	0xbf446c50	-0.7672777
132	0xbf7d61eb	-0.98977536
133	0xbe529c34	-0.205674
134	0xbe91729e	-0.28407758
135	0x3dab62e7	0.083684735
136	0xbe8ab6d2	-0.27092606
137	0xbfbf05b0	-1.4923611
138	0x3dcc3d26	0.09972601
139	0xbeb4fa39	-0.35347155
140	0x3f2d3f87	0.6767506
141	0xbcff1faf	-0.031143038
142	0x39dd8e84	0.00042258587
143	0xbfa206f4	-1.2658372
144	0xbfd0bab9	-1.6306983
145	0xbe1cc390	-0.15308976
146	0x3d3fe378	0.04684779
147	0xbd06a945	-0.03287627
148	0xbf653d5a	-0.8954674
149	0xbff85858	-1.940196
150	0xbe77b55d	-0.24190278
151	0xbddad966	-0.10685997
152	0xc027a873	-2.6196563
153	0xbe131b27	-0.14365827
154	0xbd851d93	-0.064997815
155	0xbe135d55	-0.14391072
156	0x3d835298	0.06412238
157	0x3d656103	0.05600072
158	0xbf3071cc	-0.6892364
159	0x3c20546d	0.009785754
160	0xbd0fd99d	-0.03511964
161	0x3d3ea29c	0.046541795
162	0xbd56672c	-0.052344486
163	0xbf3490fc	-0.7053373
164	0xbef5544b	-0.47915873
165	0x3dee6aa3	0.11641433
166	0xbe03b8e1	-0.12863494
167	0xbf13bd65	-0.5771087
168	0xbfee30e2	-1.8608668
169	0xbee0562c	-0.43815744
170	0xbec62b72	-0.3870502
171	0xbe4b6a3b	-0.19864742
172	0x3d03d789	0.032187972
173	0xbe6e996b	-0.23300712
174	0xc023755e	-2.5540385
175	0xc014a429	-2.3225195
176	0xc063b605	-3.5579846
177	0x3e0d3529	0.1378981
178	0xbdd5ac59	-0.10433263
179	0x3de5d3f5	0.11222068
180	0xbf45d51d	-0.7727831
181	0xbf144bb0	-0.5792799
182	0xbdee5614	-0.11637512
183	0xbfe11c1b	-1.7586702
184	0xbd7e4f5d	-0.062087405
185	0x3d9d0123	0.076662324
186	0x3dd8e299	0.10590095
187	0xbe5466c5	-0.20742328
188	0x3e6dca48	0.23221695
189	0x3da83d4c	0.082148165
190	0xbfcc3244	-1.595284
191	0xbe879fe6	-0.2648918
192	0x3ea0b560	0.31388378
193	0xbd87612f	-0.06610333
194	0xbd260f7a	-0.040542103
195	0x3e6f56ab	0.23372905
196	0x3d4a3d82	0.049375065
197	0xbcd02940	-0.025410295
198	0xba2b154c	-0.0006526306
199	0xc001b374	-2.026578
200	0xbce8651e	-0.028368529
201	0xbd97e365	-0.07416419
202	0x3e244f48	0.16045868
203	0x386b0fcb	5.6043074e-05
204	0xbd9201b1	-0.07129229
205	0xbd3d8881	-0.04627276
206	0x3c75442e	0.014969869
207	0xbd70566e	-0.058676176
208	0xbe4d3545	-0.20039852
209	0x3e85e4ec	0.26151216
210	0xbde4e288	-0.1117602
211	0xbf68d10c	-0.9094398
212	0xbe7c02b5	-0.24610408
213	0x3e84f2f6	0.25966614
214	0xbe0e5145	-0.1389819
215	0xbf22e1ee	-0.6362599
216	0xbc0e35e4	-0.008679841
217	0xbe2d4171	-0.16919495
218	0xbf1ad1ce	-0.60476387
219	0xbe4e3bda	-0.20140019
220	0x3e8130da	0.25232583
221	0x3d5f133b	0.0544617
222	0x3e92d240	0.28676033
223	0xbdad839e	-0.084723696
224	0xbe2894a3	-0.1646295
225	0x3ca79fde	0.020461973
226	0xbcbaf8ac	-0.022823654
227	0xbd6580b5	-0.056030948
228	0xbed91d86	-0.42405337
229	0x3e2763c2	0.16346648
230	0xbf04c907	-0.51869243
231	0xbdd8e52c	-0.10590586
232	0x3e66e4dd	0.22548242
233	0xc0396615	-2.8968556
234	0xbfc14045	-1.5097739
235	0xbe22150e	-0.15828344
236	0xbda7c946	-0.08192687
237	0xbeef2777	-0.46709797
238	0xbf54b287	-0.8308491
239	0xbc84127c	-0.016122095
240	0xbbb39e3c	-0.0054815095
241	0x3e309623	0.17244773
242	0x3eafc0d4	0.34326804
243	0xbdaca35e	-0.08429597
244	0xbea4d5b2	-0.32194287
245	0x3ca404b3	0.020021772
246	0xbc9cca5b	-0.01913946
247	0x3bd878ce	0.006606198
248	0xbf229d9d	-0.6352175
249	0xbd15140a	-0.036396064
250	0xbd975cb3	-0.07390728
251	0xbda2c4cc	-0.07947692
252	0xbc284f7e	-0.010272859
253	0xbd6f9cf2	-0.058499284
254	0x3e790de6	0.24321708
255	0xbd163abd	-0.03667711

fc.3.bias f4 [32]
0	0x3f308779	0.68956715
1	0xc08fc84a	-4.4931993
2	0xc0238a28	-2.5553074
3	0xbf80e8bb	-1.0071024
4	0x3ff00985	1.8752905
5	0xc1160f1d	-9.37869
6	0x3ffd553e	1.9791639
7	0x40838fee	4.1113195
8	0xc1891c9b	-17.138968
9	0xbecd245e	-0.40066808
10	0xc05c3cc1	-3.4412081
11	0x3f75d37f	0.9602584
12	0xc08894b2	-4.2681513
13	0xc0f6bc62	-7.710496
14	0x3ffb6594	1.9640374
15	0xbf797904	-0.9745028
16	0xbeb169c0	-0.34650993
17	0xc0c0759d	-6.014357
18	0xbce18dea	-0.02753349
19	0xc04a5553	-3.1614578
20	0xbf1191af	-0.5686292
21	0xc09ccba1	-4.899857
22	0xbffe24e4	-1.9855008
23	0xc065889e	-3.5864635
24	0xc07673bb	-3.8508136
25	0xc0941fe5	-4.6288934
26	0xc0a17fb1	-5.0468373
27	0xc11ed14b	-9.926097
28	0x40adf224	5.435808
29	0xc182e054	-16.359535
30	0xc0110bb1	-2.2663386
31	0xc05072f3	-3.257016

fc.4.weight f4 [16, 32]
0	0xbba73a98	-0.0051034205
1	0xbea12481	-0.31473163
2	0xbf88dec9	-1.0692989
3	0x3c9be970	0.01903221
4	0x3b392449	0.0028250387
5	0xc00c8afa	-2.1959825
6	0x3c561dbd	0.013068614
7	0x3fd3723f	1.651924
8	0xc00d9a4f	-2.2125432
9	0x3e5e9f9c	0.21740574
10	0xbe9e6d97	-0.30942985
11	0x3dfacd2c	0.12246165
12	0xbe2a0043	-0.16601662
13	0xc01a5809	-2.4116232
14	0xc11f8d8e	-9.972059
15	0xbdb7a9e3	-0.0896795
16	0xbd76ab4a	-0.060221948
17	0xbe8b466f	-0.27202174
18	0x3bd56175	0.006511862
19	0xbf20400c	-0.6259773
20	0xbbeea19f	-0.0072824503
21	0xc0137839	-2.3042128
22	0xbdf5c498	-0.12000388
23	0xbfddf213	-1.73395
24	0xbe2e64b0	-0.17030597
25	0xbfc67433	-1.5504211
26	0xbfe2e61f	-1.7726477
27	0xbc8725bb	-0.016497483
28	0xc1b5c9d3	-22.723547
29	0xbfed3776	-1.853255
30	0xc025a91f	-2.5884473
31	0xc090e329	-4.5277295
32	0xbb099ca2	-0.0020997901
33	0x399958c4	0.0002924857
34	0xbba6735a	-0.005079669
35	0xb9465955	-0.0001891603
36	0x3e071e39	0.13195123
37	0xba866cbb	-0.0010255793
38	0x3b31ddef	0.002714034
39	0xbd6a2500	-0.057164192
40	0xbe017631	-0.12642743
41	0x3aa231f5	0.0012374507
42	0xbcb64e55	-0.022254148
43	0x3ac13af9	0.0014742307
44	0x3aef61e0	0.0018263422
45	0xbccc4b1a	-0.024938155
46	0x3b0f1310	0.002183143
47	0xbaa56128	-0.0012617456
48	0x3d35f347	0.04442146
49	0xb9fe6c32	-0.00048527267
50	0x3e16ec23	0.14738517
51	0xbc708a56	-0.014681419
52	0xb9b22ce9	-0.00033984266
53	0x39cea85f	0.00039416828
54	0xbab0e628	-0.0013496326
55	0x39033194	0.00012511603
56	0xba9f28b3	-0.0012142867
57	0xbbd88665	-0.006607818
58	0xbe19f31c	-0.15034145
59	0xbbf2553f	-0.007395416
60	0xbabdddf0	-0.0014485698
61	0xbc8628be	-0.01637685
62	0xbb2698f8	-0.0025420766
63	0xbc0eaa01	-0.008707524
64	0xbc9964ba	-0.018724788
65	0xbcf1e142	-0.029526357
66	0xbe8e2aa0	-0.27766895
67	0xbf1c25ad	-0.6099499
68	0x3d15ce49	0.036573682
69	0xbcc86603	-0.024462705
70	0xbd2c349d	-0.042042363
71	0xbdb2fe2a	-0.08739884
72	0x3d65e184	0.05612327
73	0x3c4fd839	0.012685829
74	0x3dc25368	0.09488565
75	0xbb6047bd	-0.0034222447
76	0xbcd9cd73	-0.026587224
77	0x3c98b0c4	0.018638976
78	0xbc9d2f3c	-0.019187562
79	0x3c2f905f	0.010715573
80	0xbc046784	-0.008081321
81	0x3dafdfe4	0.085876256
82	0xbddda0bc	-0.10821673
83	0x3cd37497	0.02581243
84	0xbded1c12	-0.115776196
85	0x3ca0956e	0.019602504
86	0xbc821b31	-0.015882106
87	0x3d1801ba	0.03711102
88	0x3bc66b79	0.006055292
89	0xbe349ca9	-0.17637886
90	0xbc8b7a9e	-0.017026242
91	0x3c31d6ba	0.010854417
92	0x3c8fb7a3	0.01754362
93	0xbdaaddf1	-0.08343113
94	0x3db0611c	0.08612272
95	0x3cd866b5	0.026416162
96	0xbf5bf481	-0.8591996
97	0xbf1ad697	-0.6048369
98	0xbaa676be	-0.0012700183
99	0xbfac72c3	-1.3472522
100	0xbf1221f2	-0.57083046
101	0xc008fa50	-2.1402779
102	0xc0dd560a	-6.916753
103	0x3e0a4013	0.13501005
104	0xbd83846f	-0.06421744
105	0xc0541e08	-3.314333
106	0x3e4578c6	0.19284353
107	0xbdf24ac2	-0.11830665
108	0xbe295ca8	-0.16539252
109	0xbe958303	-0.29201517
110	0xbff3e4bb	-1.9054178
111	0xc03a3219	-2.9093077
112	0xbe9baf72	-0.30407292
113	0xc03535a5	-2.8313992
114	0x3f35b250	0.7097521
115	0xc053b168	-3.307703
116	0xbe0c859f	-0.13722847
117	0x3d651237	0.055925574
118	0xbf17f4ab	-0.5935771
119	0xbbc37f98	-0.005966138
120	0xc04030b9	-3.0029738
121	0xbfeb0ec1	-1.8363878
122	0xc043fa31	-3.0621455
123	0xbfabb49b	-1.3414491
124	0xb9b705a6	-0.00034908688
125	0xbe7750a2	-0.24151853
126	0xbdb312dd	-0.08743832
127	0x3e2c9ffb	0.16857903
128	0xbe73c53c	-0.23805708
129	0xbddf7437	-0.10910838
130	0xbd9dc649	-0.077038355
131	0xbe312ae9	-0.17301525
132	0xbd4a754a	-0.04942826
133	0xbe670be6	-0.22563133
134	0xbe4787af	-0.19485353
135	0xbe112daa	-0.14177576
136	0x3c02d20a	0.0079846475
137	0xbe533ac5	-0.20627888
138	0x3cd0d53a	0.0254923
139	0xbd75e2bf	-0.060030695
140	0xbce12a7f	-0.027486084
141	0xbd776980	-0.060403347
142	0xbdb59e85	-0.08868126
143	0xbe00173e	-0.12508866
144	0xbe4b8bdf	-0.19877575
145	0xbdcef021	-0.10104395
146	0x3d8e60d4	0.06952062
147	0xbd331bc5	-0.043727655
148	0xbe8efc88	-0.2792704
149	0xbdee690d	-0.116411306
150	0xbd913fd9	-0.07092256
151	0xbdc734cd	-0.09726868
152	0xbd2bb4be	-0.041920416
153	0xbd413805	-0.047172565
154	0xbce37a5f	-0.027768312
155	0xbd048c09	-0.03236011
156	0xbe034aaa	-0.12821451
157	0x3b8a2142	0.0042153904
158	0xbdaa6130	-0.08319318
159	0xbe88162c	-0.26579416
160	0xbdaa778d	-0.08323584
161	0xbda9faf8	-0.082998216
162	0xbdcc4fd2	-0.09976162
163	0xbfdac76f	-1.7092112
164	0x3dad37be	0.084578976
165	0xbdf997f5	-0.12187187
166	0xbda8b46a	-0.08237536
167	0xbef0c611	-0.47026113
168	0x3e2f3b5c	0.17112488
169	0x3db1574b	0.08659228
170	0x3e9ffd24	0.31247818
171	0x3d9657a6	0.07340936
172	0xbd58e4f0	-0.052952707
173	0xbe3c51ba	-0.18390551
174	0x3d1455b3	0.03621454
175	0x3cee26c3	0.029071217
176	0xbcb0929c	-0.021554284
177	0x3e8570a7	0.2606251
178	0x3e2932fa	0.16523352
179	0xbecbd90b	-0.39814028
180	0xbe9fed1c	-0.31235588
181	0xbfa52385	-1.2901465
182	0xbd29a0fe	-0.0414133
183	0x3ddd76a4	0.108136445
184	0xbfe77844	-1.8083577
185	0xbf8ec878	-1.1154928
186	0xbed79a6a	-0.42109996
187	0x3d4ab825	0.04949202
188	0xbd564d49	-0.0523198
189	0xbe3473e1	-0.1762233
190	0x3e8e2f8e	0.27770656
191	0x3e2bc4b4	0.16774255
192	0xbe933d09	-0.28757504
193	0xbe27770c	-0.16354007
194	0xbe49fd2c	-0.19725484
195	0xbe8756c0	-0.26433372
196	0xbea6feb7	-0.32616207
197	0xbe69f783	-0.22848324
198	0xbf81c3e4	-1.0137906
199	0x3dcd2ba6	0.10018091
200	0xbd04ce97	-0.032423582
201	0xbd71825d	-0.058962215
202	0xbd353c40	-0.044246912
203	0xbe879703	-0.264824
204	0xbef5fbe3	-0.48043737
205	0xbd84bc68	-0.06481248
206	0xbee763dd	-0.45193377
207	0xbec2b699	-0.38029936
208	0xc06a1e78	-3.6581097
209	0xbfaaefaf	-1.3354396
210	0x3cf3159b	0.029673388
211	0xbf8bb16a	-1.0913517
212	0xbef58f0a	-0.47960693
213	0xbe1aeb19	-0.15128745
214	0xbcb195a1	-0.021677794
215	0xbe1d2cf9	-0.15349187
216	0xbe8ac3e6	-0.27102584
217	0xbe2135f0	-0.15743232
218	0xbf429893	-0.7601406
219	0xbe90cd42	-0.282816
220	0xbebe8ebc	-0.37218273
221	0xbe7f7216	-0.24945864
222	0xbd729ce4	-0.059231654
223	0xbe7287d0	-0.23684621
224	0xbd0a7cb1	-0.03381032
225	0xbeb3275a	-0.3499096
226	0xbe20b194	-0.1569274
227	0xbf9de7a4	-1.2336316
228	0xbfd290d6	-1.645045
229	0xbe6323b7	-0.22181593
230	0x3e84907c	0.25891483
231	0x3e487ac1	0.19578077
232	0x3e222ce4	0.15837437
233	0xbefa3341	-0.4886723
234	0x3e4acd1e	0.19804808
235	0xbef23c09	-0.47311428
236	0xbeafe830	-0.34356833
237	0xbbddcc56	-0.0067687435
238	0xbf89497f	-1.0725554
239	0xbeabde03	-0.3356782
240	0xbe0366f3	-0.12832241
241	0xbe58fac5	-0.21189411
242	0xbdaa88e6	-0.083268926
243	0xbd187319	-0.03721914
244	0xbefcb63b	-0.4935778
245	0xbeeb7e0f	-0.45994613
246	0xbe848881	-0.25885394
247	0xbd73b01c	-0.059494123
248	0xbee50ebb	-0.447378
249	0xbbd50a52	-0.0065014744
250	0xbeb4e803	-0.3533326
251	0xbdb19dbd	-0.08672664
252	0xbef016fc	-0.46892536
253	0xbe388078	-0.18017757
254	0x3bbae69d	0.005703761
255	0xbe0129b4	-0.12613565

fc.4.bias f4 [16]
0	0x3ce52867	0.027973367
1	0xbcf8be0b	-0.030364057
2	0x3faeb677	1.3649434
3	0xc0972e97	-4.724437
4	0xbe6bdbcf	-0.23033069
5	0xc083166a	-4.096486
6	0xbd10de21	-0.03536809
7	0xbf9698e9	-1.1765414
8	0xbfac8645	-1.3478476
9	0x40ec4aba	7.384122
10	0x3fc36d34	1.5267701
11	0xbf452981	-0.77016455
12	0x404fb533	3.2454345
13	0xbf1049a9	-0.56362396
14	0x40ea677b	7.325132
15	0x3e36ca9c	0.17850727

fc.5.weight f4 [3, 16]
0	0x3d9e27d9	0.07722444
1	0x37b229dd	2.1238748e-05
2	0x385ef86b	5.3160282e-05
3	0x3ce64f1b	0.028113892
4	0x3cbd45a7	0.023104502
5	0x3a555b55	0.0008138915
6	0xbd569206	-0.052385353
7	0x3a0c8746	0.00053607335
8	0xb911d85a	-0.00013908875
9	0x39880ed0	0.00025950978
10	0x38965078	7.167546e-05
11	0x3a01b62b	0.00049481046
12	0xb8021543	-3.1014217e-05
13	0xbd25d9fb	-0.040491085
14	0x39ed686a	0.00045281957
15	0xb80064b6	-3.0611372e-05
16	0xb8c3dcb2	-9.339432e-05
17	0xba41ad72	-0.0007388211
18	0x3dfdb757	0.12388485
19	0xbd45ddd5	-0.04830726
20	0xbd506329	-0.050875816
21	0xbd027de9	-0.03185836
22	0x3e5f18d4	0.21786815
23	0x3e269f62	0.16271737
24	0xbd2c9d7b	-0.042142373
25	0xbafddc3b	-0.0019368002
26	0x3e3f1e75	0.18663962
27	0x3d0b6fdd	0.034042228
28	0xbe23d31f	-0.15998505
29	0xbdbcae65	-0.092129506
30	0xbb4c6c68	-0.0031192545
31	0xb8095616	-3.274352e-05
32	0x3a0c9aa1	0.00053636177
33	0x3d9e8ceb	0.07741722
34	0x39f2931c	0.00046267442
35	0xbd2dca33	-0.04242916
36	0x3c6bbf0d	0.014388812
37	0xbb81abbf	-0.0039572413
38	0x3e77cb8a	0.24198738
39	0x3af7f2ef	0.0018917004
40	0xb8ede976	-0.00011344526
41	0xbdcc1237	-0.09964412
42	0xba118424	-0.00055510015
43	0xb9b6ddbe	-0.00034878956
44	0xb9953387	-0.00028457885
45	0xbd648b69	-0.055797014
46	0x3ddede24	0.10882214
47	0xbda7f802	-0.082016006

fc.5.bias f4 [3]
0	0x39c9a1de	0.00038458308
1	0x3f0bb27e	0.5456923
2	0x3bc3bd40	0.005973488
