models/final_model/model_epoch_400.pt (torch, 242162 bytes, 12 tensors)

fc.0.weight f4 [256, 60]
0	0x407aeff7	3.9208963
1	0xbe22e0a7	-0.1590601
2	0x3fceac71	1.6146375
3	0xbf849cef	-1.0360392
4	0xbfb06afa	-1.3782647
5	0xbf713ea3	-0.942362
6	0xbe4debf7	-0.20109545
7	0xbe3f81e2	-0.1870189
8	0xbf5023fa	-0.81304896
9	0xbf07c390	-0.5303278
10	0xc091b74c	-4.553625
11	0xc01e3718	-2.4721127
12	0xbed9388f	-0.42425963
13	0xbf2d99cb	-0.67812794
14	0x3e5b3077	0.21405207
15	0x3fab543f	1.3385085
16	0xc079bde9	-3.9022162
17	0xbf6ed45b	-0.9329278
18	0xbe806688	-0.25078225
19	0xbfdbc19c	-1.716846
20	0xbfd71b24	-1.6805158
21	0xbffda0b0	-1.9814663
22	0xbf3ff474	-0.7498238
23	0x3f80321c	1.0015292
24	0xbd1aa994	-0.03775938
25	0x3e2c9003	0.16851811
26	0x3e171185	0.14752777
27	0xbd64f490	-0.055897295
28	0x3d817027	0.063202195
29	0x3e31ca0d	0.17362233
30	0x3e862c6e	0.26205772
31	0x3e5b25b6	0.21401104
32	0x3d057a15	0.03258713
33	0x3d2ce446	0.042209886
34	0x3e177c3b	0.14793484
35	0x3d3c51cb	0.04597644
36	0x3dc6a3af	0.09699189
37	0x3d344fb9	0.044021342
38	0xbd467ad7	-0.048456993
39	0xbc977301	-0.018487455
40	0x3d3fee8b	0.04685835
41	0xbd8fcaba	-0.07021089
42	0x3c50e035	0.012748768
43	0xbd00d61e	-0.031454198
44	0xbcf44293	-0.029816901
45	0xbdbb7e12	-0.091549054
46	0x3d42548c	0.04744391
47	0xbd8935c0	-0.06699705
48	0x3a711814	0.00091970083
49	0xbcfff13b	-0.031242957
50	0xbdd960f5	-0.10614196
51	0x3d4febb0	0.05076188
52	0xbc88b553	-0.016688025
53	0xbcb735cc	-0.02236452
54	0x3bf3463b	0.0074241436
55	0xbc679d59	-0.014136636
56	0x3d84177f	0.06449794
57	0x3dc6cd4b	0.09707125
58	0xbd3109f5	-0.043222386
59	0xbc12d30b	-0.008961449
60	0x3ff11f5e	1.8837698
61	0x3ffa710a	1.9565747
62	0x404bcec3	3.1844947
63	0x3fdc6b30	1.7220211
64	0xc075fcd4	-3.8435564
65	0xc020a23c	-2.509902
66	0x3b9d8540	0.0048071444
67	0x3f8592e3	1.0435451
68	0x3fabf1e2	1.3433192
69	0x3f64124b	0.8909041
70	0xbea86e3c	-0.32896602
71	0x4073f0a2	3.811562
72	0x400aeb07	2.170595
73	0x40c76899	6.2315183
74	0x3f93ccd1	1.154688
75	0x3ff46b3b	1.9095224
76	0x3ec7b800	0.39007568
77	0xc0424746	-3.0356002
78	0xc0151f40	-2.3300323
79	0xc00fe0aa	-2.2480874
80	0xbf64632d	-0.8921383
81	0xbff1c9f1	-1.8889753
82	0xbee58907	-0.44831106
83	0xbf64ed58	-0.8942466
84	0x3d3c3d80	0.04595709
85	0x3e88f069	0.26745918
86	0x3f74adb9	0.9557758
87	0x3ee7fd1e	0.453103
88	0x3edbf5d7	0.42960998
89	0x3eae0839	0.33990648
90	0x3ec1e35e	0.3786878
91	0x3e3211af	0.17389558
92	0x3e4de39d	0.20106359
93	0x3e9f5d75	0.3112599
94	0xbc2bcd6b	-0.010485987
95	0xbd33ad46	-0.04386642
96	0xbd8a798a	-0.06761463
97	0xbde3a298	-0.11114997
98	0x3e527e38	0.20555961
99	0x3e2c390f	0.16818641
100	0x3c819b8e	0.015821245
101	0x3e311d32	0.17296293
102	0xbe8bfc42	-0.27340895
103	0x3d0bff80	0.03417921
104	0x3d512b89	0.05106691
105	0xbd8525ce	-0.06501351
106	0x3e96bc51	0.2944055
107	0x3e6013b4	0.21882516
108	0xbe20ea6a	-0.15714422
109	0xbd5bcfb6	-0.053664885
110	0x3da462f5	0.08026687
111	0x3d1d60b3	0.038422298
112	0x3dda2303	0.10651209
113	0x3eeb4ec4	0.4595853
114	0x3d591b9b	0.053004842
115	0x3e3674eb	0.17818038
116	0xbd3d9365	-0.046283145
117	0xbd7af2af	-0.061266597
118	0x3de90e99	0.113797374
119	0xbc69af4c	-0.014262985
120	0x3f91abe5	1.1380583
121	0x3f9a89fc	1.207336
122	0x3f1b894f	0.6075639
123	0xbfd9d770	-1.7018871
124	0xbee2be9e	-0.44286054
125	0xbfa4e928	-1.2883654
126	0xbf798b9a	-0.9747864
127	0xbfc3740a	-1.5269787
128	0xbeb2d93f	-0.3493137
129	0x400dc576	2.215177
130	0x40231f9b	2.548804
131	0x405f4002	3.4882817
132	0x3f2384f4	0.63874745
133	0x40806966	4.012866
134	0x3f03a9fd	0.51431257
135	0x40a7fbbf	5.2494807
136	0xbe819a38	-0.25312972
137	0xc03ff448	-2.9992847
138	0xc0235908	-2.552309
139	0xc0072cd7	-2.1121118
140	0x3fb5e237	1.420966
141	0xbd8f1374	-0.06986132
142	0x3f51ca5b	0.81949395
143	0x3e967b86	0.29391116
144	0x3d625249	0.055254254
145	0x3e0c77a7	0.13717519
146	0xbe4a71dd	-0.19769998
147	0xbe98aab2	-0.2981773
148	0x3dbcad8f	0.09212791
149	0xbe2cfeac	-0.16894025
150	0xbddfd5e6	-0.1092947
151	0x3f11665d	0.5679682
152	0x3ef7c30e	0.48391002
153	0xbaa266da	-0.0012390271
154	0x3d612760	0.05496919
155	0xbddd09d1	-0.10792888
156	0xbe2e3d55	-0.17015584
157	0xbc223f97	-0.009902856
158	0xbf80dd54	-1.0067544
159	0xbde933bd	-0.113868214
160	0xbdbbcad1	-0.091695435
161	0xbd6357d8	-0.055503696
162	0x3da444f3	0.080209635
163	0x3e13dfef	0.14440893
164	0x3fb8846c	1.4415412
165	0x3f85dcb3	1.0457977
166	0xbe689b5c	-0.22715515
167	0xbe80b76a	-0.25139934
168	0xbead2a74	-0.33821452
169	0x3e628513	0.22121076
170	0xbe1c28b6	-0.15249905
171	0xbe629127	-0.22125684
172	0xbe8b6340	-0.2722416
173	0xbe547cf8	-0.20750797
174	0xbf11e195	-0.56984836
175	0x3f576908	0.8414464
176	0x3d31f329	0.043444786
177	0xbd96fa8d	-0.073720075
178	0xbe085f4b	-0.13317601
179	0xbe00cff8	-0.12579334
180	0xc017cea2	-2.3719869
181	0x40aa0856	5.3135176
182	0xc05652f8	-3.348814
183	0xbe2de47e	-0.16981694
184	0x3f669a6d	0.90079385
185	0x3f0d921c	0.5530107
186	0xbfb6cc9b	-1.4281191
187	0x3ee6c00c	0.45068395
188	0x3e73746e	0.23774883
189	0x3ff16149	1.8857814
190	0xbcd3709c	-0.025810532
191	0x405445e9	3.316767
192	0x3fec6873	1.8469375
193	0x3ff897c9	1.9421321
194	0xbea74b82	-0.32674795
195	0xc0038a56	-2.0553184
196	0x4081467c	4.039854
197	0xbb44b3ec	-0.0030014468
198	0x3ed655b8	0.41862273
199	0x3f51b698	0.8191924
200	0x3e64013c	0.22266096
201	0xbd88b986	-0.06676011
202	0x3e226e27	0.15862332
203	0x40039022	2.0556722
204	0x3d2e39f5	0.04253574
205	0x3e1eca6b	0.15506904
206	0x3dcd3468	0.10019761
207	0x3eacc3f0	0.33743238
208	0x3e9331aa	0.28748828
209	0x3dfcbe3c	0.12340972
210	0x3f76bf4d	0.9638565
211	0x3e735067	0.2376114
212	0xbd8543ef	-0.06507098
213	0xbd61d874	-0.055138066
214	0x3da73031	0.08163489
215	0x3fee6ddd	1.8627278
216	0xbda0609b	-0.07830926
217	0x3e30c372	0.17262056
218	0x3e48fd8b	0.19627969
219	0xbc9e3ab4	-0.019315101
220	0xbdd5b872	-0.10435571
221	0xbe1cb2ec	-0.15302628
222	0xbe16ce61	-0.14727165
223	0x3e3cbea3	0.18432097
224	0xbc8a6e89	-0.01689841
225	0xbe0c7d41	-0.13719656
226	0xbd117f5e	-0.035521857
227	0x3d21b7f4	0.039482072
228	0x3c94e729	0.018176632
229	0x3d2c0531	0.04199714
230	0xbceadaae	-0.028668728
231	0xbdaea706	-0.08527951
232	0xbc5cb421	-0.01347068
233	0xbc41e650	-0.011834696
234	0x3e21434e	0.15748331
235	0xbc935675	-0.017985562
236	0x3ce048a3	0.027378386
237	0x3c0fe8c7	0.008783526
238	0x3d9f675a	0.077833846
239	0xbbd49bfd	-0.006488322
240	0xbf96dd81	-1.1786348
241	0xc0cd6c15	-6.4194436
242	0xbe1c549c	-0.15266651
243	0xbfdc50df	-1.721218
244	0xbfadf7ff	-1.3591307
245	0xbfe0f44c	-1.7574553
246	0xbf3adb31	-0.7299071
247	0xbfa527b8	-1.2902746
248	0x3f92b6ed	1.1462075
249	0x3f4df017	0.80444473
250	0x3f855b8c	1.0418563
251	0xc0a7b664	-5.2410145
252	0x409199c6	4.550021
253	0x40bf7b21	5.9837804
254	0x40278e3e	2.6180568
255	0xc02a5517	-2.6614435

fc.0.bias f4 [256]
0	0xc0d53759	-6.6630063
1	0xc07846fa	-3.879332
2	0xc0940a6d	-4.6262727
3	0xc0062888	-2.0962238
4	0xc08c137d	-4.377379
5	0xc02fbd9c	-2.7459478
6	0xc00fabab	-2.2448528
7	0xc02dd750	-2.7162666
8	0xc0b3e064	-5.6211414
9	0xbfba14d7	-1.453761
10	0xc01943ca	-2.3947625
11	0xbfd43b07	-1.6580514
12	0xb9d34415	-0.0004029578
13	0xc08c4492	-4.3833704
14	0xbfe3e617	-1.7804593
15	0xc08cf3d3	-4.4047637
16	0xc054fbb8	-3.3278637
17	0x3f77006e	0.9648503
18	0xc0d586c0	-6.672699
19	0xc02e2cb0	-2.7214775
20	0x3fc503f2	1.5391829
21	0xbff59fc6	-1.9189384
22	0xc0ae8f9d	-5.455031
23	0xc0964515	-4.695933
24	0xc06180f6	-3.5234962
25	0xc03d217d	-2.955169
26	0xc0ca2f8a	-6.318303
27	0xc0058a66	-2.0865722
28	0xc0147cca	-2.3201165
29	0x402be931	2.6861079
30	0xc083382b	-4.1006064
31	0xc0e485ac	-7.1413174
32	0xc0bcc42c	-5.898947
33	0x405322cf	3.2989995
34	0xc10a4dec	-8.644024
35	0xc0ab5825	-5.35451
36	0x3e712630	0.23549724
37	0xc115fa95	-9.373677
38	0x3e4e3b55	0.20139821
39	0xc05c93a9	-3.4465125
40	0xc0a4fec9	-5.1561017
41	0xc09061ea	-4.5119524
42	0xbf215050	-0.6301317
43	0x40f91f6b	7.785085
44	0xc03e99dc	-2.9781408
45	0xc02345b7	-2.55113
46	0x3fa68a52	1.3010962
47	0xc07cce8d	-3.9501069
48	0x3e6ce868	0.23135531
49	0xbf7842e1	-0.9697705
50	0xc0becf26	-5.9627867
51	0xc0bc8237	-5.8908954
52	0xc141dffe	-12.117186
53	0xc1050fdf	-8.316375
54	0xc02b8c9a	-2.6804566
55	0xc0d501bd	-6.656462
56	0xc0a19f3d	-5.0506883
57	0xc0a3c653	-5.1179595
58	0xc01dd95b	-2.4663913
59	0x3e02a715	0.12759049
60	0x3f9a266a	1.2042973
61	0xc090e51c	-4.5279675
62	0xbfb08003	-1.3789066
63	0xc0c96259	-6.2932553
64	0xbf3e8e90	-0.74436283
65	0xc0889c78	-4.2691
66	0xc0aef110	-5.4669266
67	0x3dd9c6e1	0.10633636
68	0xc0952bf3	-4.661615
69	0xbf9f37ed	-1.2438942
70	0xc02267f4	-2.5375948
71	0xc0c37436	-6.107936
72	0xc0a408eb	-5.1260886
73	0xc0dd1525	-6.908831
74	0xc07a484f	-3.9106634
75	0xc0af1a7b	-5.4719825
76	0xc090ec18	-4.52882
77	0xc0eb6a66	-7.356738
78	0xc1113c54	-9.077229
79	0x3f42c67d	0.7608412
80	0xc0469fa2	-3.1034932
81	0xbd4a9db4	-0.049466804
82	0xc103aba7	-8.229407
83	0xc0333723	-2.8002403
84	0xc0813226	-4.0373716
85	0xc0b38a64	-5.6106434
86	0xbf2f4f84	-0.68480706
87	0xc09bd587	-4.8698153
88	0xc05474a2	-3.3196187
89	0xc0f17685	-7.5457177
90	0xbfd53fbf	-1.6660079
91	0xc0033ca1	-2.0505755
92	0xc088eda1	-4.2790074
93	0x4011f99e	2.2808604
94	0xc08b7307	-4.3577914
95	0xbf58a5ee	-0.8462819
96	0xbf814182	-1.0098116
97	0xbf734aec	-0.95036197
98	0x4045b382	3.0890813
99	0xc0feff64	-7.9686756
100	0xbf2acd00	-0.66719055
101	0xc0c80969	-6.2511487
102	0xc0186665	-2.3812497
103	0xbfe57188	-1.7925272
104	0xc02350e4	-2.5518122
105	0xc0bbd4fc	-5.869749
106	0xc0abf36a	-5.3734636
107	0xc054b352	-3.3234448
108	0xc0c49a45	-6.1438317
109	0xc04fb732	-3.2455564
110	0xc0966178	-4.699398
111	0xc018b888	-2.386263
112	0x3e03866f	0.12844251
113	0xbff876c6	-1.9411247
114	0xc0b814d7	-5.752544
115	0xc00e373b	-2.222121
116	0xbfa13769	-1.2595035
117	0xc004f4ab	-2.0774333
118	0x3f1483f8	0.5801387
119	0xbf162200	-0.5864563
120	0x3e3874fd	0.18013377
121	0xbf628d28	-0.8849664
122	0xc0a0a240	-5.019806
123	0xc0fac7cf	-7.8368907
124	0xc0d28be5	-6.579577
125	0xc03391b0	-2.805767
126	0xc0946f84	-4.6386127
127	0xc091de45	-4.5583825
128	0xc00fcdde	-2.2469401
129	0x4077e2ff	3.8732297
130	0x3ffc8362	1.9727595
131	0xc0919b10	-4.5501785
132	0xc09c301e	-4.8808737
133	0xc0a4f582	-5.154969
134	0xc0ca6006	-6.3242216
135	0xc0aa6c75	-5.3257394
136	0xbec33155	-0.38123575
137	0x40c858b6	6.260829
138	0xc05bdc36	-3.4353156
139	0xbffe0541	-1.9845353
140	0x3f8268ec	1.018827
141	0xc02d7a0a	-2.7105737
142	0xc0642825	-3.5649502
143	0xbe9629d1	-0.29328778
144	0x3edffd44	0.43747914
145	0x40eaae2f	7.3337626
146	0xc03f0214	-2.9845018
147	0xc0485797	-3.130346
148	0xc0293d91	-2.6443827
149	0xc0468ee3	-3.102471
150	0xc031aea7	-2.776285
151	0xc05c5e75	-3.4432652
152	0xc01fd173	-2.4971588
153	0xc04f95a6	-3.2435088
154	0xc09a1544	-4.815096
155	0xc09a6a78	-4.8254967
156	0xbe8bcedd	-0.27306262
157	0xc101ada3	-8.104892
158	0xc09a742e	-4.826682
159	0x4072f14c	3.7959776
160	0x40240561	2.5628283
161	0xbfabeec0	-1.3432236
162	0x3fc0c168	1.5059023
163	0xbf0d06eb	-0.5508868
164	0xc0a06b16	-5.013072
165	0xbf935581	-1.1510469
166	0xc08246ec	-4.0711575
167	0xbfaa9179	-1.3325645
168	0xc057eea0	-3.3739395
169	0xc02fb1ce	-2.7452273
170	0x3d092df6	0.033491097
171	0xc0c1b5cc	-6.053442
172	0xc05e79e9	-3.4761908
173	0x3e53b9f7	0.20676409
174	0xc0c568f7	-6.169063
175	0xc0432e5c	-3.0497046
176	0xbf85c262	-1.0449946
177	0xc04e389f	-3.2222059
178	0xbf0579f7	-0.5213923
179	0xbefbc902	-0.49176794
180	0x3eb64946	0.35602778
181	0xc03ed37b	-2.9816577
182	0xc0d3e5a2	-6.6217813
183	0xc0b094aa	-5.5181475
184	0xbf4093bd	-0.7522543
185	0x3e9161b3	0.2839485
186	0x3ebd93cb	0.3702682
187	0xc0b1a557	-5.551433
188	0xc0971d36	-4.722316
189	0x3e867149	0.26258305
190	0xc0437c3c	-3.0544577
191	0xc08b2b2f	-4.3490214
192	0xbf4b2734	-0.79356694
193	0xc05e6bcd	-3.4753296
194	0x3f8366a5	1.02657
195	0xc12359c4	-10.209415
196	0x401c981f	2.4467847
197	0xc00cc58e	-2.1995578
198	0xc0a3cece	-5.1189947
199	0xc0a08100	-5.015747
200	0xc0d001af	-6.5002055
201	0xc0a5942c	-5.1743374
202	0xbfb84529	-1.4396106
203	0xc0425630	-3.0365105
204	0xc043ffee	-3.0624957
205	0xbfc7767f	-1.5583037
206	0x3c55f234	0.013058234
207	0xc0fa332f	-7.818748
208	0xbf1df587	-0.6170277
209	0x409375d2	4.6081324
210	0xbf3c309f	-0.7351169
211	0xc0a1f5de	-5.061263
212	0xbf892477	-1.0714253
213	0x40664db5	3.5984929
214	0xc11d70fe	-9.840086
215	0xbf405149	-0.7512403
216	0xbeb47a35	-0.35249487
217	0xbf7af7c1	-0.9803429
218	0x4052af43	3.2919471
219	0xc09f640e	-4.9809637
220	0xbfc3d28b	-1.5298628
221	0xc0f15b64	-7.542406
222	0xbf250ef6	-0.64475954
223	0xc0f45bb0	-7.6361923
224	0xc082f90f	-4.0929027
225	0xc071f42c	-3.780528
226	0x3f913ba5	1.1346327
227	0xc0f7cb68	-7.74358
228	0x3f812ec5	1.0092398
229	0x3f9336da	1.1501114
230	0xc02f471b	-2.738715
231	0xc049d08e	-3.1533542
232	0xc0a3d85b	-5.1201606
233	0xbf86a1ac	-1.0518088
234	0x3d71bb34	0.05901642
235	0xc0803087	-4.0059237
236	0xbf5fd6a5	-0.87436897
237	0xc0101215	-2.2511036
238	0xbff4ade1	-1.9115564
239	0xc0b73327	-5.724994
240	0xc02c70fd	-2.6943963
241	0xc0a359dc	-5.104719
242	0xc0701ae6	-3.7516418
243	0xc0ab1183	-5.3458877
244	0xbf40e7fe	-0.7535399
245	0xbedd2622	-0.43193156
246	0xc11b4255	-9.703694
247	0xc0ee51bf	-7.447479
248	0xc021a198	-2.525488
249	0x410befdb	8.746058
250	0xc07054c6	-3.7551742
251	0xbfbbdd48	-1.4676905
252	0xbfddc467	-1.7325562
253	0xc0c7f4c3	-6.248628
254	0xc0f7f921	-7.7491612
255	0xc0ce7139	-6.451321

fc.1.weight f4 [128, 256]
0	0x3cd915ac	0.026499592
1	0xbd2f5555	-0.04280599
2	0xbc5c7749	-0.013456174
3	0xbb3b2797	-0.0028557533
4	0xbd92bc4a	-0.071648195
5	0xbda28767	-0.07935982
6	0xbd4a53a4	-0.049396172
7	0xbd899049	-0.06716973
8	0xbd8a6a3a	-0.06758542
9	0x3d1dac80	0.038494587
10	0xbc7d22ef	-0.015450223
11	0xbdb3b1fb	-0.087741815
12	0x3cd99d82	0.026564363
13	0x3d058551	0.032597844
14	0xbc45c62a	-0.012071172
15	0x3d3d0b46	0.04615333
16	0x3b15bd38	0.002284838
17	0xbca054a8	-0.019571617
18	0xbcdb542b	-0.026773533
19	0xbc8bb5b0	-0.017054409
20	0x3c7bff37	0.015380672
21	0xbc853dbd	-0.01626479
22	0xbd1ddfc3	-0.038543474
23	0x3bd816a1	0.0065944945
24	0xbd604449	-0.05475262
25	0xbd4af614	-0.049551085
26	0xbdb41ac4	-0.08794168
27	0xbd369dd5	-0.044584114
28	0xbd05ae57	-0.032636967
29	0xbc86b257	-0.016442461
30	0xbce37320	-0.027764857
31	0xbd5a0b13	-0.053233217
32	0xbd1f8b98	-0.038951486
33	0xbd815f11	-0.063169606
34	0x3d439fdd	0.04775988
35	0xbcf446b5	-0.029818872
36	0x3cd3dcf3	0.025862193
37	0xbcde0bdc	-0.027105264
38	0xbd6fdf4e	-0.05856257
39	0x3d26fc01	0.040767673
40	0xbdafd7ef	-0.08586108
41	0xbd81e086	-0.063416526
42	0xbd0d2f82	-0.034469135
43	0x3bba72ce	0.0056899553
44	0xbb7047cc	-0.0036663888
45	0x3cf64e71	0.0300667
46	0x3d2efa16	0.04271897
47	0xbd51817f	-0.051148888
48	0xbd34c837	-0.044136252
49	0x3b923330	0.0044616684
50	0xbd799b14	-0.06093891
51	0x3d5cf619	0.053945635
52	0xbd8ecdf1	-0.06972874
53	0xbd379688	-0.044821292
54	0x3bcac4ef	0.006188027
55	0xbc8ee4a3	-0.017443007
56	0x3d749d1b	0.05972014
57	0xbd62920f	-0.055315074
58	0xbd97ce06	-0.07412343
59	0xbd9865fa	-0.074413255
60	0x3d395f50	0.045256913
61	0xbc999c0e	-0.01875117
62	0xbc424fce	-0.011859847
63	0x3cd147d7	0.025546951
64	0xbd821095	-0.06350819
65	0x3c80c5e9	0.01571937
66	0xbd4d4ed8	-0.05012402
67	0xbdb44b15	-0.08803383
68	0xbd9f793f	-0.07786798
69	0xbcfaffbf	-0.030639527
70	0xbcc441ad	-0.023957098
71	0xbc1ac810	-0.009447113
72	0xbd9c2188	-0.07623583
73	0xbbf05503	-0.007334353
74	0xbcaa1736	-0.020763021
75	0x3c78bf13	0.015182274
76	0xbce54282	-0.027985815
77	0xbca82d58	-0.020529434
78	0xbd3268c1	-0.043556932
79	0xbda341ac	-0.0797151
80	0x3d3846bf	0.044989344
81	0xbd713135	-0.058884818
82	0xba849e37	-0.0010117952
83	0xbcfcdac5	-0.030866036
84	0xbc89b39f	-0.016809283
85	0xbb8bc770	-0.004265718
86	0xbd0aa2e2	-0.033846743
87	0x3b9e4ade	0.004830702
88	0xbcc50626	-0.024050783
89	0x3c1245b7	0.008927754
90	0xbc9853eb	-0.018594703
91	0xbd6410fa	-0.055680253
92	0x3d32c1be	0.0436418
93	0x3bf3eddf	0.007444128
94	0xbc944920	-0.018101275
95	0xbca9d495	-0.02073125
96	0xbbbe1acb	-0.005801534
97	0xbd90fef4	-0.070798784
98	0xbd85d27f	-0.065342896
99	0x3cc02187	0.023453487
100	0xbc86a3de	-0.01643556
101	0xbb5858c1	-0.0033011886
102	0xbb7d16c4	-0.0038618306
103	0xbd93a260	-0.07208705
104	0xbdbf0760	-0.093275785
105	0x3d05b986	0.032647632
106	0x3d1189aa	0.035531677
107	0xbda9b50e	-0.082864866
108	0xbd7edafe	-0.062220566
109	0x3c863b2b	0.016385635
110	0xbc2b1c16	-0.010443708
111	0x3d33755c	0.043813094
112	0x3c1ec4d8	0.009690486
113	0x3c88defd	0.016707892
114	0xbce9d181	-0.028542282
115	0xbd03ba14	-0.03215988
116	0xbacafbc5	-0.001548641
117	0x3c81dfe1	0.015853824
118	0xbd02d745	-0.03194358
119	0xbd1263dc	-0.035739765
120	0xbd96979e	-0.073531374
121	0xbc19c86b	-0.009386162
122	0x3aec29d9	0.0018017843
123	0xbcacfe5b	-0.02111738
124	0xbcb8e9bd	-0.022572393
125	0xbcba7781	-0.022762062
126	0x3cf04358	0.029328987
127	0xbb9531c6	-0.0045530526
128	0xbb0cd6bb	-0.0021490294
129	0xbd54aef4	-0.05192466
130	0x3c32ad87	0.01090563
131	0x3c6221c4	0.013801996
132	0xbda5871b	-0.0808241
133	0xbd5d8f33	-0.054091644
134	0xbc13b635	-0.0090156095
135	0x3cc408cd	0.023929978
136	0x3cb97bf9	0.022642123
137	0xbcf3bac6	-0.029752146
138	0x3d4fcf67	0.050734904
139	0xbdc51216	-0.0962259
140	0x3c3a3a86	0.011366492
141	0xbc7c4e00	-0.015399456
142	0xbd0b1f09	-0.033965144
143	0xbd9fc8c9	-0.078019686
144	0xbd8c51c0	-0.0685153
145	0xbdb20e33	-0.086941145
146	0xbd182371	-0.037143175
147	0xbcad3513	-0.021143472
148	0xbd472b0b	-0.048625033
149	0xbd9ac360	-0.07556796
150	0x3d08c65c	0.033392295
151	0xbd7846b1	-0.06061429
152	0xbc59e170	-0.013298377
153	0x3b889c1d	0.004169001
154	0xbd6d565c	-0.057943687
155	0xbb0ea5d4	-0.0021766322
156	0xb9ef2ae0	-0.00045617577
157	0xbb495bee	-0.003072496
158	0xb9292862	-0.0001613214
159	0xbd6c0a42	-0.05762697
160	0x3cdcdb50	0.026960045
161	0xbd92c7f5	-0.07167045
162	0xbd143261	-0.036180858
163	0xbc964cd5	-0.018347183
164	0xbd1ac9ab	-0.03778998
165	0x3ceee9e5	0.029164264
166	0xbd85d48e	-0.06534682
167	0x3cfd877d	0.030948395
168	0xbd01f936	-0.031731807
169	0xbb0a98aa	-0.0021148124
170	0xbd9c4178	-0.07629675
171	0x3a7f55de	0.0009740273
172	0x3ca06f14	0.019584216
173	0xbd8b665d	-0.068066336
174	0xbc075701	-0.008260489
175	0xbbb73511	-0.005591043
176	0x3d207c35	0.039180953
177	0x3c99f927	0.018795563
178	0xbd933e71	-0.07189644
179	0xbd90d15d	-0.07071183
180	0xbd2b79ed	-0.041864324
181	0xbcecccd6	-0.028906267
182	0x3ba0c8af	0.004906736
183	0x3ba5bf22	0.005058185
184	0xbda2a158	-0.0794093
185	0xbd59b82a	-0.05315415
186	0xbc55f62a	-0.013059178
187	0xbda98123	-0.08276584
188	0xbd4d58a4	-0.050133362
189	0xbcb65c2b	-0.022260746
190	0xbd0555d0	-0.03255254
191	0x3cc44f41	0.023963572
192	0xbd9f325f	-0.077732794
193	0xbd38281e	-0.044960134
194	0xbdc25318	-0.09488505
195	0xbca9cc6c	-0.020727359
196	0x3d1668d6	0.036721073
197	0x3cb23756	0.021754902
198	0xbcb81605	-0.022471437
199	0xbd816d2f	-0.06319653
200	0xbd7d955c	-0.06191002
201	0xbd547845	-0.05187251
202	0xbc2e26bb	-0.010629351
203	0x3cf4bce5	0.029875228
204	0xbda801f9	-0.08203501
205	0xbc10cbad	-0.008837623
206	0xbd083b1c	-0.033259496
207	0xbda45b9f	-0.08025288
208	0xbd998c7a	-0.07497497
209	0x3cf224d2	0.029558573
210	0xbc606786	-0.013696557
211	0x3c913057	0.017723246
212	0x3cabc75f	0.020969091
213	0xbd05a5b2	-0.032628722
214	0xbca79d38	-0.02046071
215	0xbd767f91	-0.06018025
216	0xbd63fe7a	-0.05566261
217	0x3b1d3f81	0.002399415
218	0xbd7dcfd1	-0.061965767
219	0xbd6d7bc1	-0.05797935
220	0xbd21f287	-0.039537933
221	0xbda581ac	-0.080813736
222	0xbbe7ac59	-0.007070106
223	0x3c2cdc9b	0.010550643
224	0xbd63a070	-0.055572927
225	0xbc35c4bc	-0.011094268
226	0xbd368589	-0.044560943
227	0x3b43e7fb	0.002989291
228	0xbc927999	-0.017880248
229	0xbd10b027	-0.035324242
230	0xbd2db6f0	-0.04241079
231	0xbd38839f	-0.0450474
232	0xbcd7ab4c	-0.026326798
233	0xbd8a6dc5	-0.06759218
234	0xbc4b5491	-0.012410299
235	0x3c651a72	0.013983356
236	0x3ca6bb22	0.020352904
237	0xbd9ae289	-0.075627394
238	0xbde0ec97	-0.10982626
239	0xbca5d768	-0.020244315
240	0x3ca2213f	0.019791244
241	0x3d18afd2	0.03727705
242	0xbda6373b	-0.08116003
243	0xbd1dc071	-0.038513605
244	0xbd1a6896	-0.037697397
245	0x390229c9	0.00012413332
246	0xbc8aff0d	-0.01696732
247	0xbd0531b2	-0.032518096
248	0xbda73e2e	-0.08166157
249	0xba053300	-0.0005081147
250	0xbd36f294	-0.044664934
251	0xbda94333	-0.0826477
252	0xbc5caac1	-0.013468445
253	0xbd257238	-0.04039213
254	0xbd79d5f0	-0.060995042
255	0xbcc5a024	-0.024124213

fc.1.bias f4 [128]
0	0x3ba87c05	0.0051417374
1	0xbfbc8fe2	-1.473141
2	0x400e047d	2.219024
3	0x4016fa6a	2.359034
4	0x3c43fbd0	0.011961892
5	0x3ee86c44	0.453951
6	0xbda9b3d0	-0.0828625
7	0x3fbb1d17	1.4618253
8	0xbd904428	-0.0704425
9	0x40d23cfa	6.5699434
10	0x40a4285e	5.1299276
11	0xc02ca2bb	-2.6974323
12	0x3cd98ca2	0.026556317
13	0x40b8db5f	5.7767787
14	0xc035ce2f	-2.8407094
15	0xc06825f2	-3.627316
16	0x41634adc	14.205776
17	0x40581988	3.3765583
18	0x3b8a0b38	0.004212763
19	0xbd23b53e	-0.039967768
20	0xbd3bd89f	-0.045860883
21	0xc0167e19	-2.3514464
22	0xc0a45251	-5.1350484
23	0x40adaedb	5.4275947
24	0x403f320f	2.9874303
25	0xc0ce27f7	-6.4423785
26	0xbf1cabe7	-0.611998
27	0xbe3a679a	-0.18203583
28	0x3e863832	0.2621475
29	0x3f9617b7	1.1725987
30	0xc003562c	-2.0521345
31	0x401b034c	2.4220762
32	0xc1081004	-8.50391
33	0xbd0c9e65	-0.034330744
34	0x40211286	2.5167556
35	0x3f79c249	0.9756208
36	0x3ec29814	0.3800665
37	0x4077dc0e	3.872806
38	0x3f1e3373	0.61797255
39	0x402212da	2.5324006
40	0xbf819a24	-1.0125165
41	0xc096c295	-4.7112527
42	0x40bc5618	5.8855095
43	0xbd95a812	-0.073074475
44	0x406f224a	3.7364678
45	0xbda2f3da	-0.07956667
46	0x3fa657e4	1.2995572
47	0x41290306	10.563238
48	0xbf8cc601	-1.0997926
49	0xc0020c63	-2.032006
50	0x4039c088	2.9023762
51	0xbd966beb	-0.073448025
52	0xc06fbcfb	-3.7459095
53	0xbc89fbc7	-0.01684369
54	0xbd82856d	-0.06373105
55	0xbf234ee3	-0.63792247
56	0xc06dd1e2	-3.7159352
57	0x409024aa	4.5044756
58	0xbca5652f	-0.02018985
59	0x40414149	3.0196097
60	0x3abd35f2	0.0014435633
61	0xc06d4795	-3.707494
62	0x40536f39	3.3036635
63	0xbf704679	-0.9385753
64	0x3f8a7d76	1.0819538
65	0xbc5c449d	-0.013444093
66	0xbd80f948	-0.062975466
67	0xc047bf14	-3.1210375
68	0x40ea91dd	7.3303056
69	0x3c2b2a02	0.010447027
70	0x40c039b7	6.0070453
71	0xbdb782c6	-0.0896049
72	0xc0901822	-4.502946
73	0xbd2b991a	-0.041894056
74	0x3f12dad4	0.57365155
75	0xbf89f62d	-1.0778252
76	0xbda09052	-0.07840027
77	0x3c5bdbf7	0.013419143
78	0x3f15a24f	0.5845079
79	0x4000d304	2.0128794
80	0xbfca0386	-1.5782325
81	0x40733694	3.8002062
82	0x3f9162a5	1.1358229
83	0x40d65c4e	6.6987677
84	0x3f1bd22e	0.60867584
85	0xbee36c7e	-0.4441871
86	0xbd97ed36	-0.07418291
87	0x4063908f	3.5556982
88	0x3c55c2a5	0.013046895
89	0xc03425ba	-2.8148026
90	0x40695717	3.6459405
91	0xc00fe074	-2.2480745
92	0x40880db7	4.251674
93	0xbe719744	-0.2359286
94	0x403fee5b	2.998923
95	0xc124c54e	-10.29817
96	0x400edec3	2.2323463
97	0xbf969e55	-1.1767069
98	0xbdb6ea4a	-0.08931406
99	0x402a4bc4	2.6608744
100	0x40bd13ea	5.908681
101	0x3f85d0ee	1.0454385
102	0x3ff19238	1.8872747
103	0xbf99025b	-1.1953844
104	0x40c53451	6.1626363
105	0x3e90a7b5	0.2825295
106	0x3fea147b	1.82875
107	0xbd544894	-0.05182703
108	0xbd0c59ce	-0.034265332
109	0xbd54465b	-0.05182491
110	0x408a56a5	4.3230767
111	0xbd996eba	-0.074918225
112	0x40922426	4.5669127
113	0x40dd926f	6.924125
114	0x3cd987f3	0.026554083
115	0xbc30a833	-0.010782289
116	0xbf289b1e	-0.6586169
117	0x3c681849	0.014165946
118	0xc077aa6c	-3.8697767
119	0x403e7d06	2.9763808
120	0x3fa78fb0	1.3090725
121	0x40bef23f	5.967071
122	0xbcd4162d	-0.02588948
123	0x3fa2fa9e	1.2732732
124	0xc063ce1b	-3.5594547
125	0xbd849e20	-0.064754725
126	0xbe104d27	-0.14091931
127	0x3fd19b79	1.6375571

fc.2.weight f4 [64, 128]
0	0x3ce1f7c7	0.02758397
1	0xbf0eab89	-0.5573049
2	0xbe0fa605	-0.14028175
3	0xc0fd2ee3	-7.9119735
4	0xbd79bada	-0.06096921
5	0xbfcb9f82	-1.5908053
6	0x3d09a982	0.03360892
7	0x3e9f2550	0.31083155
8	0xbce50380	-0.02795577
9	0x40241eaa	2.5643716
10	0x3e3b6638	0.18300712
11	0xbf764651	-0.96201044
12	0xbdb3ffdf	-0.08789038
13	0x3e33db63	0.17564158
14	0x3d9be4db	0.0761201
15	0x3eeae64f	0.45878837
16	0xbf2dee10	-0.6794138
17	0xbec02ec2	-0.37535673
18	0x3c74e718	0.014947675
19	0x3d495f91	0.049163405
20	0xbfa13893	-1.259539
21	0xbffdb8f1	-1.9822065
22	0xbd30bdb9	-0.043149684
23	0xbf1cb90a	-0.6121985
24	0xbfe70d10	-1.8050861
25	0x3f19bdcb	0.60055226
26	0x3fe37c76	1.7772357
27	0xbf03fe9d	-0.51560384
28	0x3ea472e5	0.32118908
29	0x3e10fcc1	0.14158918
30	0x3d14f7f5	0.036369283
31	0x3f5002ec	0.8125446
32	0xbed6abed	-0.41928044
33	0x3cb920e7	0.022598697
34	0xbf250342	-0.64458096
35	0xc09d1bd1	-4.9096456
36	0x3f135b74	0.5756142
37	0x3f6a595a	0.9154259
38	0xc0e463cf	-7.1371837
39	0xc0238d81	-2.5555117
40	0x3e247ded	0.16063662
41	0x3fda836a	1.7071354
42	0x3f11b718	0.56920004
43	0x3d09a2e8	0.033602625
44	0x3e5a4c45	0.21318157
45	0x3c53ff05	0.012939219
46	0x3fa48360	1.2852592
47	0xc00d5270	-2.2081566
48	0x3f93414f	1.1504306
49	0x3e7a08f0	0.24417472
50	0x3f84e363	1.0381893
51	0xbbd029a9	-0.0063526225
52	0xc016909c	-2.3525763
53	0xbd0ca758	-0.03433928
54	0x3dc768aa	0.0973676
55	0x3fab7e8c	1.3397994
56	0x3f458952	0.7716266
57	0xc0c7b6e6	-6.2410765
58	0xbd3935db	-0.045217376
59	0xbff2c0e1	-1.8965112
60	0x3c92dd93	0.01792792
61	0xbf353af2	-0.7079307
62	0xbe9e77d2	-0.3095079
63	0x3fb50bba	1.4144204
64	0xbe80da74	-0.25166667
65	0x3cbe7e29	0.023253517
66	0xbd821095	-0.06350819
67	0xbfe98ca6	-1.8246047
68	0xbfd68228	-1.675847
69	0x3d48888f	0.048958357
70	0xc091f949	-4.5616803
71	0xbdb0f4ad	-0.08640418
72	0x3b6b9f13	0.003595297
73	0xbc993e53	-0.018706476
74	0xc0dbeb76	-6.872493
75	0x40262e4a	2.5965753
76	0xbd1ae436	-0.037815295
77	0x3da176b3	0.07883968
78	0xc055e427	-3.3420503
79	0xbf04652c	-0.51716876
80	0xc0cab568	-6.3346443
81	0xbfab7122	-1.33939
82	0x3f3df0d3	0.74195594
83	0xbeb8760b	-0.3602756
84	0x3cfc886a	0.030826766
85	0x3f33a901	0.70179754
86	0xbda25fa5	-0.07928399
87	0xbfc10533	-1.5079712
88	0xbdd44745	-0.10365156
89	0xbf06bba5	-0.5263007
90	0xc0ef5eb7	-7.480312
91	0xc06855e1	-3.6302416
92	0xbf18790e	-0.59559715
93	0x3d46f86b	0.048576754
94	0xbf2e2908	-0.6803136
95	0xbfd8f755	-1.695048
96	0x3ebaff0d	0.36522713
97	0x3eaf8927	0.34284326
98	0xbd5ddb63	-0.0541643
99	0xbf9c54b1	-1.2213346
100	0x3e81d544	0.2535802
101	0xc086d324	-4.213274
102	0x3f898493	1.0743583
103	0xbfa5477f	-1.2912444
104	0xbf179587	-0.59212536
105	0xbf714ab8	-0.94254637
106	0xbf75bb39	-0.95988804
107	0xbca885d3	-0.020571625
108	0x3bd90f8f	0.006624169
109	0x3d1926a8	0.03739038
110	0xbfe6d475	-1.8033587
111	0x3bdbc123	0.0067063733
112	0xc059538a	-3.3957238
113	0xbf06b845	-0.52624923
114	0x3d909959	0.07060499
115	0x3c8d10d4	0.017219938
116	0xc0490cce	-3.1414065
117	0x3d04bef5	0.032408673
118	0x3f4f3441	0.8093911
119	0x3e069f7e	0.13146779
120	0xbf93da54	-1.1551003
121	0x3f07a4ef	0.52986044
122	0x3d9ccba8	0.07656032
123	0x3f51e9a8	0.81997156
124	0xbf113c7b	-0.5673291
125	0xbcd2c43a	-0.025728334
126	0x3db98fbb	0.090606175
127	0x3f6b71fb	0.91970795
128	0x3d39e4dd	0.045384277
129	0xbfb25c8b	-1.3934492
130	0xbde945d4	-0.11390272
131	0x3f970125	1.1797224
132	0xbd5df601	-0.054189686
133	0xbf3fdc33	-0.7494537
134	0xbd17bfc8	-0.03704813
135	0xbfdf3ef4	-1.7441087
136	0x3cfd1267	0.030892564
137	0x3f6004d3	0.8750736
138	0xbfb35e3b	-1.4013132
139	0xbf7ce189	-0.9878164
140	0x3d554feb	0.05207817
141	0xbfe3328d	-1.7749802
142	0xbee120c9	-0.43970326
143	0xbe06b515	-0.13155015
144	0x3d00d8c5	0.031456728
145	0xbfd9a833	-1.7004455
146	0x3d7d802e	0.06188982
147	0x3d506d0a	0.050885238
148	0xc0030b29	-2.0475562
149	0x3dba6783	0.091017745
150	0x3fa8f971	1.3201123
151	0xbf9aa6b2	-1.2082121
152	0xbc6932a6	-0.014233267
153	0x3b960a16	0.004578839
154	0xbf8332e9	-1.0249912
155	0x3dfd335f	0.12363314
156	0x3ed78619	0.42094496
157	0xbe9dd73a	-0.30828267
158	0xc11e9356	-9.910971
159	0xc028ff62	-2.6405873
160	0xbdf3918e	-0.11892997
161	0xbd844008	-0.064575255
162	0xbefa0b33	-0.4883667
163	0xc0b887d1	-5.766579
164	0x3f44c287	0.76859325
165	0x3ea7f069	0.32800606
166	0x3e5115b7	0.2041844
167	0xbf18d308	-0.5969701
168	0xc0466a84	-3.1002512
169	0xbf56999c	-0.8382814
170	0x3f4a9010	0.7912607
171	0xbd57efb8	-0.052718848
172	0x3e6d7d5f	0.23192357
173	0xbd1bd120	-0.038041234
174	0xbf01138a	-0.5042044
175	0xbf779467	-0.9671082
176	0x3eb1e8c2	0.34747893
177	0x3cd82306	0.026383888
178	0xbec6bcff	-0.38816068
179	0x3d277189	0.04087976
180	0x3ee21dcc	0.44163358
181	0x3cc61be8	0.024183229
182	0xbd0383b4	-0.032108024
183	0x3d00933d	0.031390417
184	0x3db525b4	0.08845082
185	0xbe86cdc7	-0.2632887
186	0xbb8d280b	-0.004307752
187	0x3f8b044c	1.0860686
188	0x3c882975	0.01662133
189	0xbe583468	-0.21113741
190	0xbf93ac26	-1.153691
191	0xbf4f62fe	-0.81010425
192	0x3ebf0881	0.37311175
193	0xbd1d9d27	-0.03847995
194	0x3d6d1b5e	0.057887428
195	0xbeac3be2	-0.33639437
196	0xbdf14699	-0.117810436
197	0x3de09a5e	0.10966943
198	0x3f4464cc	0.76716304
199	0xbcfdbd0f	-0.03097394
200	0xbdb03218	-0.086033046
201	0xbc58b363	-0.013226363
202	0xbfed78b7	-1.8552464
203	0x3fe0c839	1.7561103
204	0x3c8dc429	0.01730545
205	0xbd347a21	-0.044061784
206	0x3d9b9359	0.07596464
207	0xc0231ad0	-2.5485115
208	0x3d9aab86	0.07552247
209	0x3fcf20da	1.61819
210	0xbef441d1	-0.47706464
211	0x3ee7e44f	0.45291373
212	0xbe1d9200	-0.15387726
213	0xbd43246b	-0.047642153
214	0x3d98b167	0.07455712
215	0x3f165f57	0.5873923
216	0xbcc833d3	-0.024438774
217	0xbfab6fa2	-1.3393443
218	0xbcf9ece7	-0.030508472
219	0xbf5ca9ca	-0.8619658
220	0xbf99324c	-1.1968474
221	0x3ecea2b2	0.40358502
222	0x3ebe96c9	0.37224415
223	0xbe98b946	-0.29828852
224	0xbebb15d6	-0.36540097
225	0x3fb4f7a3	1.4138073
226	0x3d0175e4	0.03160657
227	0x3f54805a	0.8300835
228	0xbf216ccf	-0.63056654
229	0x3fd2a263	1.6455806
230	0x3f94a88f	1.161394
231	0xbf0af85a	-0.54285204
232	0xbdd04fc1	-0.10171462
233	0xbf6af393	-0.91777915
234	0xbeee771e	-0.46575254
235	0xbc2b0f66	-0.010440683
236	0xbce382a9	-0.027772265
237	0xbd14eba3	-0.036357533
238	0x3f4266b6	0.75937974
239	0x3c897ac8	0.01678218
240	0x3f0fa01d	0.5610369
241	0xbf1738a3	-0.59070796
242	0x3dc3ad91	0.095545895
243	0xbd149872	-0.036278196
244	0x3fa7a3f9	1.3096915
245	0xbd64a0ef	-0.05581754
246	0xbfb4e3ef	-1.413206
247	0xbeeb0669	-0.45903328
248	0x3d0cc645	0.034368772
249	0x3ed56e42	0.41685683
250	0x3da2b7bb	0.079452
251	0x3f705f80	0.9389572
252	0xbeda4857	-0.42633316
253	0x3cb840ea	0.022491891
254	0xbd022fad	-0.03178375
255	0x3f43a07d	0.7641676

fc.2.bias f4 [64]
0	0xc08be982	-4.3722544
1	0x3fac3222	1.3452799
2	0x41b9a4b9	23.205431
3	0x3f110806	0.5665287
4	0xc084ab6d	-4.145926
5	0xbfc1cd3f	-1.5140761
6	0xc02063e9	-2.506098
7	0xbff11275	-1.8833758
8	0xc0d20c38	-6.5639915
9	0x41cf483e	25.910275
10	0x407f12c0	3.9855194
11	0x3e26ab20	0.16276217
12	0x415db092	13.855608
13	0xbf2f6163	-0.68507975
14	0xbd5c593e	-0.053796045
15	0x41a73bcf	20.904203
16	0xc00ee950	-2.2329903
17	0x3f64cda8	0.89376307
18	0xbddd7cc8	-0.10814816
19	0x3ea38512	0.31937462
20	0x3f168391	0.58794504
21	0xc09c046f	-4.875541
22	0x3fd2f6e8	1.64816
23	0x408c8eab	4.3924155
24	0x41601161	14.004243
25	0xc11e89a6	-9.908606
26	0x3e17814d	0.14795418
27	0xc088a8f3	-4.2706237
28	0x4089ca28	4.3059273
29	0xbcb4f585	-0.02208973
30	0x408659c3	4.1984572
31	0x40f8fd56	7.780925
32	0x3fb739d3	1.4314522
33	0xbfb78f99	-1.4340698
34	0xbe09f15e	-0.1347098
35	0xc09740c4	-4.726656
36	0x40ac67b5	5.3876595
37	0xbf37a2e9	-0.71732956
38	0xbf682584	-0.90682244
39	0xc1bf3c07	-23.90431
40	0x3fd0c2fc	1.6309505
41	0xc04b9a50	-3.1812935
42	0xc04ed072	-3.2314725
43	0xbd281770	-0.041037977
44	0x401fd344	2.4972696
45	0xc07faa40	-3.9947662
46	0x40565b18	3.34931
47	0x4147237a	12.446161
48	0x41a24707	20.284681
49	0x40dd73a2	6.9203653
50	0xbf96a2e1	-1.1768457
51	0xbe39492e	-0.18094322
52	0x40f46dcc	7.638403
53	0x40248f8a	2.571261
54	0x41669fb1	14.413987
55	0x41acb640	21.58899
56	0xc11315a7	-9.192786
57	0xbc9e4a67	-0.019322587
58	0xbda1bc04	-0.07897189
59	0x41819a5e	16.200375
60	0xbde5e664	-0.11225584
61	0xbe0bbf6a	-0.13647237
62	0x40bf07a9	5.969685
63	0x40783bea	3.8786569

fc.3.weight f4 [32, 64]
0	0x3e2bc289	0.16773428
1	0x39168bc9	0.00014357189
2	0xbdaea966	-0.08528404
3	0x3b458841	0.0030141028
4	0xbaf1024a	-0.0018387523
5	0xbbc4674d	-0.0059937597
6	0xbb46ca20	-0.0030332878
7	0x3c38db33	0.01128273
8	0xbe140913	-0.14456587
9	0xbd394c1f	-0.04523861
10	0x3b5806c5	0.003296302
11	0x39228bf5	0.00015501662
12	0x3e18a00a	0.149048
13	0x3b4fc84b	0.0031705077
14	0xbda70825	-0.0815585
15	0xbc215818	-0.009847663
16	0x38aacd32	8.144452e-05
17	0xbbb18109	-0.0054169935
18	0x3c899b9a	0.01679783
19	0xbb9da253	-0.0048106103
20	0xbb24dbc2	-0.00251554
21	0x3b9dede1	0.004819617
22	0x3b090f2e	0.0020913589
23	0x3b09cfe0	0.0021028444
24	0x3cb5f754	0.022212662
25	0xbf789ffe	-0.9711913
26	0x3b026232	0.0019894955
27	0xbc3972f5	-0.011318912
28	0x3ad25766	0.0016047775
29	0xbc696d45	-0.014247243
30	0x3a33dcf7	0.00068612344
31	0x3ae8d325	0.0017763121
32	0xbcf66bdd	-0.03008073
33	0xbaa3d8f6	-0.0012500572
34	0xbda59790	-0.08085549
35	0xbbbf696f	-0.005841426
36	0x3e6f4652	0.23366669
37	0xbb922ca2	-0.004460887
38	0xbab245da	-0.001360114
39	0xbd7f657d	-0.062352646
40	0xbad055ca	-0.0015894708
41	0x3d1d3004	0.03837587
42	0xbfc96b2f	-1.5735835
43	0x3aa6dc3c	0.001273043
44	0xbbbbfe38	-0.0057370923
45	0x3b80fe8a	0.0039365934
46	0xbca3d117	-0.019997163
47	0x3d890280	0.0668993
48	0x3d706e63	0.058699023
49	0x3a935b32	0.0011242388
50	0xc018936c	-2.383998
51	0xbe02289e	-0.12710807
52	0x3ae2a746	0.0017292283
53	0x3a8c2c2b	0.0010694315
54	0x3d2d463e	0.042303316
55	0xbd47f7f0	-0.048820436
56	0x3f18ec0f	0.59735197
57	0x3d8efa19	0.06981296
58	0xbc775477	-0.015095822
59	0x3e172e21	0.1476369
60	0x3b5a259a	0.0033286572
61	0xbdbb320f	-0.09140407
62	0x3ad7be28	0.0016459869
63	0x3f1ca12b	0.6118342
64	0xc058f722	-3.3900838
65	0xc0efe98b	-7.4972587
66	0xbe17655d	-0.14784761
67	0xbce09394	-0.02741412
68	0xbf75b8ec	-0.95985293
69	0xbc83ef63	-0.01610536
70	0x3b4fb347	0.003169255
71	0xbeb2176f	-0.34783503
72	0xc023c868	-2.5591068
73	0xbdbc450e	-0.09192859
74	0xbe97c97a	-0.29645902
75	0xbe3eacba	-0.18620577
76	0xbffb9643	-1.9655231
77	0xc097046b	-4.7192893
78	0xbd3224ca	-0.043492116
79	0xbe8958af	-0.26825473
80	0xbca3185f	-0.019909082
81	0xbda19279	-0.078892656
82	0xbe363045	-0.17791851
83	0x3d015345	0.031573553
84	0xbf563366	-0.8367218
85	0xbdae0548	-0.08497101
86	0xbdf6c61a	-0.120495036
87	0x3e525228	0.20539153
88	0xbea6e8e0	-0.32599545
89	0xbf89a7d3	-1.0754341
90	0x3f253853	0.6453907
91	0xc08f55b2	-4.479211
92	0xc0c24aa9	-6.071614
93	0xbdd2f1ab	-0.10300001
94	0xbcaf1250	-0.021371037
95	0x3e956db9	0.29185274
96	0xbe9dbdd4	-0.3080889
97	0x3d16b883	0.036797058
98	0x3d6b18e5	0.05739679
99	0xbdd6fc3a	-0.10497327
100	0x3daaad2b	0.083338104
101	0xbe0f6a50	-0.14005399
102	0x3eb6ea9d	0.3572587
103	0xc0992be1	-4.7866063
104	0xbde6a371	-0.11261643
105	0x3d031bf0	0.032009065
106	0xbf94436e	-1.1583078
107	0xbf2305bf	-0.6368064
108	0xbe0c6062	-0.13708642
109	0x3d3d991a	0.046288587
110	0xbec757ca	-0.38934165
111	0xbdfacd85	-0.12246231
112	0x3bd1fcb9	0.0064083007
113	0xbee42064	-0.44555962
114	0x3e231afe	0.15928265
115	0xbd1f7932	-0.03893394
116	0xbe6e7ca9	-0.23289742
117	0x3c263084	0.010143403
118	0xc05b2f15	-3.4247487
119	0xbd734d21	-0.059399728
120	0xbeb00bdb	-0.34384045
121	0x3d251382	0.040301807
122	0x3d717e39	0.058958266
123	0xbe7dd4cd	-0.24788208
124	0xc09271d2	-4.576394
125	0xbce357f3	-0.027751898
126	0xbe83f345	-0.25771537
127	0x3d2756a1	0.0408541
128	0xbeade2d4	-0.3396212
129	0x3c8670b7	0.016411169
130	0xc0b30d2a	-5.595357
131	0xbf48030c	-0.7812965
132	0xbf7d61eb	-0.98977536
133	0xbe7175a8	-0.23580039
134	0xbf52392a	-0.82118475
135	0x3dab62e7	0.083684735
136	0xbe36794a	-0.17819706
137	0xbfd51a1e	-1.6648595
138	0x3dcc3d26	0.09972601
139	0xbf05d72a	-0.5228144
140	0x3f60b2c7	0.8777279
141	0xbcff1faf	-0.031143038
142	0x39dd8e84	0.00042258587
143	0xbfafff0a	-1.3749707
144	0xbfdcb2ca	-1.7242062
145	0xbe1cc390	-0.15308976
146	0x3d3fe378	0.04684779
147	0xbd06a945	-0.03287627
148	0xbf5b04bc	-0.855541
149	0xbffe4aa0	-1.9866524
150	0xbee4f676	-0.44719285
151	0xbe0dcf2d	-0.13848563
152	0xc0420084	-3.0312815
153	0xbe131b27	-0.14365827
154	0xbd852280	-0.06500721
155	0xbe6b6870	-0.22989058
156	0xbe5ba5c4	-0.21449953
157	0x3d656103	0.05600072
158	0xbf3071cc	-0.6892364
159	0x3d8f2ef1	0.06991375
160	0xbd0fd99d	-0.03511964
161	0xbd459d3b	-0.04824565
162	0xbd56672c	-0.052344486
163	0xbedf123c	-0.435686
164	0xbed50fc0	-0.4161358
165	0xbd614e20	-0.055006146
166	0xbe27c36f	-0.16383146
167	0xbf1f1476	-0.62140596
168	0xbff1d5df	-1.8893393
169	0xbee0562c	-0.43815744
170	0xbefc9ff7	-0.49340793
171	0xbe49b706	-0.19698724
172	0xbefd88b9	-0.49518374
173	0xbebb0db1	-0.36533883
174	0xc023755e	-2.5540385
175	0xc025131d	-2.5792916
176	0xbffd0c7c	-1.9769435
177	0xbdfb7ce1	-0.12279678
178	0xbd9a0d8f	-0.07522117
179	0x3de5d3f5	0.11222068
180	0xbf5cb088	-0.86206865
181	0xbf144bb0	-0.5792799
182	0xbefde902	-0.49591833
183	0xbffe7975	-1.9880816
184	0xbdbfba42	-0.09361698
185	0x3d9d0123	0.076662324
186	0x3dd8e299	0.10590095
187	0xbf557024	-0.8337424
188	0x3e8309b9	0.25593355
189	0x3da83d4c	0.082148165
190	0xbfcc3244	-1.595284
191	0xbe879fe6	-0.2648918
192	0x3e75e364	0.24012524
193	0xbdb9d11b	-0.09073087
194	0xbc260418	-0.010132812
195	0x3e3b6673	0.183008
196	0x3c5b696f	0.013391837
197	0xbcb41ad0	-0.021985441
198	0xbcc84e6a	-0.024451453
199	0xc0ff1637	-7.971462
200	0xbd9cd5a9	-0.0765794
201	0xbd49a919	-0.04923353
202	0x3deec3df	0.11658453
203	0x3cb08829	0.021549301
204	0xbd8ab5f9	-0.0677299
205	0xbd96aae2	-0.07356812
206	0x3c75442e	0.014969869
207	0xbccec6bf	-0.025241254
208	0xbe21b8cc	-0.1579315
209	0x3e6d7a24	0.23191124
210	0xbde4e288	-0.1117602
211	0xbf721677	-0.9456553
212	0xbe3cf425	-0.18452509
213	0x3e27683b	0.16348355
214	0xbe079562	-0.13240579
215	0xbf2cf229	-0.6755701
216	0x3b5e9279	0.0033961816
217	0xbf2ca7af	-0.67443365
218	0xbf00b674	-0.502784
219	0xbe00d664	-0.12581784
220	0x3e593673	0.21212177
221	0x3d5f133b	0.0544617
222	0x3e6a9012	0.22906521
223	0xbdb03ba4	-0.086051255
224	0xbf86001d	-1.0468785
225	0xbc11f31b	-0.0089080585
226	0xbcbaf8ac	-0.022823654
227	0xbd82c9dc	-0.06386158
228	0xbe91798f	-0.28413054
229	0x3dda8cf5	0.10671417
230	0xbee17ba5	-0.44039646
231	0xbd15ec6e	-0.03660243
232	0x3e40be35	0.18822558
233	0xc054a13e	-3.3223414
234	0xbe181d55	-0.1485494
235	0xbe2671af	-0.16254304
236	0xbd7880d4	-0.060669735
237	0xbec0cb32	-0.37655026
238	0xbedb8c27	-0.42880365
239	0xbcaef80e	-0.021358516
240	0x3c4485af	0.011994763
241	0x3e17cfa4	0.14825302
242	0x3ee61d92	0.44944435
243	0xbdaca35e	-0.08429597
244	0xbe8a0e9e	-0.26964277
245	0x3ca4a73b	0.020099273
246	0x3bd55eac	0.00651153
247	0xbd0a75e1	-0.033803824
248	0xbf3115ee	-0.6917409
249	0xbd15140a	-0.036396064
250	0xbd975cb3	-0.07390728
251	0xbd39b8eb	-0.045342367
252	0xbd310147	-0.04321411
253	0xbd6f9cf2	-0.058499284
254	0x3e4b504e	0.19854853
255	0xbe97ae65	-0.2962524

fc.3.bias f4 [32]
0	0x3f8d2524	1.102696
1	0xc0e03ca1	-7.007401
2	0xc08ed4c3	-4.463472
3	0xbfe35b9d	-1.7762333
4	0x403ee46a	2.9826913
5	0xc1838ba5	-16.443186
6	0xc09fc01f	-4.9922023
7	0x40c99cd2	6.300393
8	0xc1f59cec	-30.701622
9	0x3f162809	0.5865484
10	0xc0ae162c	-5.4402065
11	0x404ba5b6	3.1819892
12	0xc0c08c7f	-6.0171504
13	0xc12dacfa	-10.854731
14	0x403555c8	2.8333607
15	0xbf9ca680	-1.2238312
16	0xbf92e76c	-1.1476874
17	0xc1149c4a	-9.2881565
18	0x3d324e93	0.043531965
19	0xc1676d97	-14.464255
20	0xc0035efe	-2.0526729
21	0xc1142339	-9.258599
22	0xc022c283	-2.543122
23	0xc0b34336	-5.6019545
24	0xc103eadc	-8.244839
25	0xc0ecc200	-7.3986816
26	0xc0efb98f	-7.491401
27	0xc1831c4c	-16.388817
28	0x411edcaa	9.928873
29	0xc20e61ef	-35.59564
30	0xc0550826	-3.3286223
31	0xc0c3e199	-6.121289

fc.4.weight f4 [16, 32]
0	0xbc65116e	-0.013981206
1	0xbf87c1c4	-1.0606008
2	0xbf8ccaf7	-1.099944
3	0x3c8dc5bb	0.0173062
4	0xbb7c9892	-0.0038543087
5	0xbff571c0	-1.9175339
6	0xbc3702cb	-0.0111700995
7	0x3f8fd6f9	1.123748
8	0xc05a063e	-3.406631
9	0x3e2b16e8	0.16707957
10	0xbf550904	-0.8321688
11	0x3dbcded9	0.09222192
12	0xbe0eb9a1	-0.13938
13	0xbfd84d8e	-1.6898668
14	0xc1595177	-13.582389
15	0xbdd8833b	-0.10571905
16	0xbf58563e	-0.84506595
17	0xbfa4222b	-1.2822927
18	0xbea9168c	-0.33025014
19	0xbf459c98	-0.7719207
20	0xbba80a79	-0.0051282016
21	0xbeb4ae5e	-0.35289282
22	0xbd5e29f5	-0.054239232
23	0xbf8238ca	-1.0173581
24	0xbcdffb24	-0.027341433
25	0xbfb52712	-1.4152548
26	0xbfa6245e	-1.2979848
27	0xbcd77f9c	-0.026305966
28	0xc2163b9e	-37.55822
29	0xc01fa274	-2.4942904
30	0xbfab7a77	-1.3396748
31	0xc1073dc2	-8.452578
32	0xbb8fff5d	-0.0043944553
33	0xbb159060	-0.002282165
34	0xbe9a657d	-0.30155554
35	0xb89b6cff	-7.411278e-05
36	0x3dbfb450	0.09360564
37	0xbc87cb34	-0.016576387
38	0x3b13c4d4	0.0022547739
39	0xbcf5d5de	-0.030009206
40	0xbd91e5e4	-0.07123926
41	0x38bf4e9e	9.122233e-05
42	0xbc3f5c73	-0.011679756
43	0x3a7a9a21	0.000955971
44	0x38c4502b	9.360941e-05
45	0x3e2a5e27	0.16637479
46	0x39dce2fa	0.0004213078
47	0x3953c9f5	0.00020197763
48	0x3dc3f152	0.095675126
49	0xb952d3c5	-0.00020106051
50	0x3dbc877c	0.09205529
51	0xbc55afaf	-0.0130423745
52	0xba89da88	-0.0010517398
53	0xbb1d7bd3	-0.0024030104
54	0xb941d35f	-0.00018484656
55	0xba2569cd	-0.0006310016
56	0xbf2c2ae0	-0.6725292
57	0x3a30fe5f	0.00067517714
58	0xbddd5cb1	-0.10808695
59	0x3a7c6738	0.0009628418
60	0xba26206e	-0.000633723
61	0xbfd39dc0	-1.6532516
62	0x36732b76	3.623512e-06
63	0xbbe8b316	-0.007101427
64	0xbbdcce09	-0.0067384285
65	0xbde74ae0	-0.11293578
66	0xbecec77f	-0.40386578
67	0xbf1689a8	-0.58803797
68	0x3d114b1b	0.035472017
69	0xbd42ceda	-0.04756055
70	0xbd8d9bf0	-0.06914508
71	0xbdb43a81	-0.08800221
72	0x3d8e8b32	0.06960143
73	0x3d213f28	0.03936687
74	0xbff57362	-1.9175837
75	0x3d302552	0.04300434
76	0xbcd668d0	-0.026173025
77	0x3d4ea664	0.05045165
78	0xbabaa92a	-0.0014241089
79	0x3d565c07	0.052333858
80	0xbb4e28de	-0.0031457464
81	0x3dc5f0ee	0.09665094
82	0xbddc5f12	-0.10760321
83	0x3d92effa	0.07174678
84	0xbe0d2ba3	-0.13786177
85	0x3d4b5c7d	0.04964875
86	0xbb9a8522	-0.0047155777
87	0x3c44ed5d	0.012019482
88	0x3c069232	0.008213567
89	0xbf112967	-0.567038
90	0x3b5b22ba	0.0033437447
91	0x3d527d35	0.051388938
92	0xbc3ac4fd	-0.011399505
93	0xbd270cbd	-0.040783633
94	0x3dcb7df0	0.0993613
95	0x3d70fc0c	0.05883412
96	0xbf5bf481	-0.8591996
97	0xbf1ad697	-0.6048369
98	0xbaa676be	-0.0012700183
99	0xbfac72c3	-1.3472522
100	0xbf226703	-0.63438433
101	0xc008fa50	-2.1402779
102	0xc0dd560a	-6.916753
103	0x3e0a4013	0.13501005
104	0x3c8f579b	0.017497828
105	0xc0541e08	-3.314333
106	0x3e4578c6	0.19284353
107	0xbe28a9a1	-0.16470958
108	0xbe295ca8	-0.16539252
109	0xbe958303	-0.29201517
110	0xbff3e4bb	-1.9054178
111	0xc03a3219	-2.9093077
112	0xbeca8f8b	-0.3956264
113	0xc03535a5	-2.8313992
114	0x3f04fcf9	0.51948506
115	0xc053b168	-3.307703
116	0xbe97380f	-0.29534957
117	0x3c58c26e	0.013229949
118	0xbf17f4ab	-0.5935771
119	0xbe46d3db	-0.19416754
120	0xc03eb35c	-2.9796972
121	0xbfeb0ec1	-1.8363878
122	0xc043fa31	-3.0621455
123	0xbfabb49b	-1.3414491
124	0xbe56e9a0	-0.20987558
125	0xbe7750a2	-0.24151853
126	0xbdb312dd	-0.08743832
127	0x3e2c9ffb	0.16857903
128	0xbe91b846	-0.28460902
129	0xbddf7437	-0.10910838
130	0xbd9dc649	-0.077038355
131	0xbe312ae9	-0.17301525
132	0xbe0fd65f	-0.1404662
133	0xbe670be6	-0.22563133
134	0xbe8c62ff	-0.27419278
135	0xbe112daa	-0.14177576
136	0xbcc2c313	-0.02377466
137	0xbe533ac5	-0.20627888
138	0x3cd0d53a	0.0254923
139	0xbe297d0e	-0.16551611
140	0xbce12a7f	-0.027486084
141	0xbd776980	-0.060403347
142	0xbdf58165	-0.11987571
143	0xbde374e3	-0.11106279
144	0xbe958543	-0.29203233
145	0xbdcef021	-0.10104395
146	0x3d8e5f85	0.06951813
147	0xbd331bc5	-0.043727655
148	0xbe2841f0	-0.16431403
149	0xbd8e288c	-0.069413275
150	0xbd913fd9	-0.07092256
151	0xbdc74494	-0.09729877
152	0xbe5c2ffb	-0.21502678
153	0xbd413805	-0.047172565
154	0xbcf0481c	-0.02933126
155	0xbd95deec	-0.073179096
156	0xbd2b4837	-0.041816916
157	0xbb6d65b2	-0.0036223945
158	0xbdaa6130	-0.08319318
159	0xbe88162c	-0.26579416
160	0xbe0cbdf4	-0.13744336
161	0x3d1d9a22	0.03847707
162	0xbe356f2d	-0.17718191
163	0xbf40ca43	-0.75308627
164	0x3cf62708	0.030047908
165	0xbf5c2b15	-0.8600324
166	0xbe663377	-0.2248057
167	0xbe039e5d	-0.1285338
168	0x3e0d4706	0.13796625
169	0x3d9bf206	0.07614522
170	0xbdd885dd	-0.105724074
171	0x3e35d9c3	0.17758851
172	0x3c7150e3	0.014728758
173	0xbb5a3d3f	-0.0033300666
174	0x3d8f293a	0.06990285
175	0x3dbf2f6f	0.09335219
176	0xbe6673c0	-0.22505093
177	0x3e18e0ef	0.14929555
178	0x3eb6b492	0.3568464
179	0x3d90a413	0.07062545
180	0xbe26e726	-0.16299114
181	0xbf852908	-1.0403147
182	0xbf009751	-0.5023089
183	0x3c67df2f	0.014152332
184	0xbf8ea8cf	-1.1145266
185	0xbf7aac65	-0.97919303
186	0xbebdb68b	-0.37053332
187	0x3d094622	0.03351415
188	0xbd529907	-0.05141547
189	0xbed76485	-0.42068878
190	0x3e54ade5	0.2076946
191	0x3e1e831b	0.154797
192	0xbe93518f	-0.28773162
193	0xbe27770c	-0.16354007
194	0xbe49fd2c	-0.19725484
195	0xbe8756c0	-0.26433372
196	0xbea70cb8	-0.3262689
197	0xbe69f783	-0.22848324
198	0xbf81c3e4	-1.0137906
199	0x3dcd8016	0.10034196
200	0xbd04ce97	-0.032423582
201	0xbd71825d	-0.058962215
202	0xbd353c40	-0.044246912
203	0xbe879703	-0.264824
204	0xbef5fbe3	-0.48043737
205	0xbd84bc68	-0.06481248
206	0xbee763dd	-0.45193377
207	0xbec2b699	-0.38029936
208	0xc06a1e78	-3.6581097
209	0xbfaaefaf	-1.3354396
210	0x3cf3159b	0.029673388
211	0xbf8bb16a	-1.0913517
212	0xbee5c5bd	-0.44877425
213	0xbe1aeb19	-0.15128745
214	0xbcb195a1	-0.021677794
215	0xbe1d2cf9	-0.15349187
216	0xbe8ac3e6	-0.27102584
217	0xbe2135f0	-0.15743232
218	0xbf429893	-0.7601406
219	0xbe90cd42	-0.282816
220	0xbebe8ebc	-0.37218273
221	0xbe7f7216	-0.24945864
222	0xbd729ce4	-0.059231654
223	0xbe7287d0	-0.23684621
224	0xbd7fbfa1	-0.06243861
225	0xbeb7d3c1	-0.35903743
226	0xbe20b194	-0.1569274
227	0xc002c558	-2.043295
228	0xc04721ba	-3.1114335
229	0xbe6323b7	-0.22181593
230	0x3e2db0d3	0.16961984
231	0x3d6f6f07	0.058455493
232	0xbebe21bd	-0.37135115
233	0xbe726214	-0.23670226
234	0x3e4acd1e	0.19804808
235	0xbe4dbcf0	-0.20091605
236	0xbef0487f	-0.4693031
237	0xbd0febcd	-0.035136987
238	0xc03cc6e2	-2.9496388
239	0x3b1350ed	0.0022478655
240	0xbe962b16	-0.29329747
241	0xbe8bf189	-0.27332714
242	0xbdaa88e6	-0.083268926
243	0xbdce2383	-0.10065367
244	0xbe8921f8	-0.2678373
245	0xbf1728d1	-0.59046656
246	0xbf05290f	-0.52015775
247	0xbe215b82	-0.15757564
248	0xbf12b70a	-0.57310545
249	0xbec6754b	-0.38761362
250	0xbea427f7	-0.3206174
251	0xbdf23be9	-0.11827833
252	0xbe5869de	-0.21134135
253	0xbf17edad	-0.5934704
254	0x3e4328ce	0.19058535
255	0xbe1e0ccd	-0.1543457

fc.4.bias f4 [16]
0	0x3cab54f0	0.020914525
1	0x3d212029	0.03933731
2	0x3fa60000	1.296875
3	0xc09de799	-4.934521
4	0xbdf07dc9	-0.117427416
5	0xc0e840a3	-7.25789
6	0xbd11d533	-0.035603713
7	0x3f432a23	0.7623617
8	0xbfb28dd9	-1.3949538
9	0x40eca6e3	7.395372
10	0x4014039d	2.3127205
11	0x3e5168b0	0.20450091
12	0x40aad3d1	5.3383565
13	0xbf16dfc8	-0.58935213
14	0x4136e080	11.42981
15	0x3e1f7801	0.15573122

fc.5.weight f4 [3, 16]
0	0x3d85b2a5	0.06528214
1	0xb904ade0	-0.00012653274
2	0xb870885c	-5.7347454e-05
3	0x3c884205	0.016633043
4	0x3cbd6816	0.023120921
5	0xba827a80	-0.0009954721
6	0xbdd27ee9	-0.102781124
7	0xba5c18c9	-0.0008396027
8	0xb9ad95bb	-0.0003310869
9	0x3b30a618	0.0026954468
10	0xb8d312d9	-0.00010064775
11	0x3a26fddb	0.0006370225
12	0x397ac39c	0.00023914728
13	0xbc10123c	-0.00879341
14	0x38c422b4	9.352472e-05
15	0xb914331f	-0.00014133424
16	0x39c4bf27	0.00037526453
17	0xbad35f78	-0.0016126474
18	0x3d4a8f13	0.049452852
19	0x3cf58926	0.029972624
20	0xbcb8d61e	-0.022563037
21	0xbd05bf5d	-0.0326532
22	0x3e2b7de1	0.16747238
23	0x3e00dac2	0.1258345
24	0xbcf1deaf	-0.02952513
25	0xbb1a1c95	-0.0023515571
26	0x3e23a30a	0.15980163
27	0x3cb002d5	0.021485725
28	0xbdda88b5	-0.10670606
29	0xbdfd9918	-0.12382716
30	0xb992b998	-0.00027985568
31	0xb959fd91	-0.00020789194
32	0x3991c2f3	0.00027801804
33	0x3d853d15	0.06505791
34	0xb92b2185	-0.00016320318
35	0xbd3cba9b	-0.0460764
36	0x3c63b8af	0.0138990125
37	0x3ad8b4db	0.0016533391
38	0x3e6bd899	0.23031844
39	0x3a76f3c5	0.000942048
40	0x39b4bd2c	0.0003447322
41	0xbe610c1b	-0.21977274
42	0xb92f4d9a	-0.0001671821
43	0x37ba2994	2.219229e-05
44	0xb88fa974	-6.8503345e-05
45	0xbcc56bf3	-0.024099326
46	0x3d939e60	0.07207942
47	0xbd85a31b	-0.065252505

fc.5.bias f4 [3]
0	0x39aa036f	0.00032427485
1	0x3f10d986	0.56581914
2	0x3a0aa660	0.0005289074
