models/final_model/model_epoch_100.pt (torch, 242162 bytes, 12 tensors)

fc.0.weight f4 [256, 60]
000000 a9 69 18 40 72 b1 a7 3d 0b b1 45 3f 5e a8 c5 be
       2.381449 0.08188142 0.7722327 -0.38605016
000010 b2 9c 16 bf 01 27 38 bf 5d 3b 03 be 95 fa 0a be
       -0.5883285 -0.71934515 -0.12815614 -0.13572152
000020 e9 a9 b4 be 6a 71 33 be c1 fb 14 c0 76 36 b9 bf
       -0.3528588 -0.17523733 -2.3278658 -1.4469745
000030 54 e6 3d bf 26 d3 00 bf 3f 11 5c 3f c4 4c 96 3e
       -0.7417958 -0.50322187 0.85963815 0.29355443
000040 1e 2b 02 c0 bb 08 04 bf da f6 a8 be 56 c3 88 bf
       -2.0338817 -0.5157582 -0.33000833 -1.0684612
000050 a4 92 80 bf c9 e6 7c bf 09 44 91 be cd af 1a 3f
       -1.0044751 -0.9878965 -0.2837222 0.604245
000060 65 19 79 bc e6 06 42 3d 48 0c 07 3e e8 15 0a 3c
       -0.015203808 0.04736986 0.13188279 0.008428074
000070 b3 55 aa bc 7c 80 15 3c 2a 60 1c bb 32 4b 21 3c
       -0.020792818 0.009124871 -0.002386103 0.009844588
000080 2e 14 81 bb 09 f4 82 3c 13 99 30 3d c9 7b 0e bb
       -0.003939173 0.015985506 0.043114733 -0.0021741262
000090 f3 af 3b 3d de 89 04 3d 9e fa cf bc f8 6e 4d bd
       0.045822095 0.032358043 -0.025388058 -0.050154656
0000a0 75 87 c9 3d 70 25 27 bc 91 ae 08 bd e8 de e3 bc
       0.098402895 -0.010201797 -0.033369604 -0.02781625
0000b0 ec 64 2c 3d f2 90 a9 bb c5 62 31 bb 06 e8 9f 3d
       0.042088434 -0.0051747495 -0.0027066928 0.07807927
0000c0 d0 a3 56 3d 10 28 23 bc f1 99 73 bc 5d 4e 80 bc
       0.052402318 -0.009958282 -0.014868245 -0.015662367
0000d0 c5 33 2c 3d f6 bb 67 3d f4 59 9b bb 39 26 4d 3c
       0.04204156 0.056575738 -0.004740948 0.01252132
0000e0 fb 76 cd 3d 60 38 35 3a c0 d0 76 3c 70 71 93 bd
       0.10032459 0.00069130026 0.015064418 -0.07199371
0000f0 e1 99 51 3f 7a 49 7c 3f db c7 c2 3f 71 13 27 3f
       0.81875426 0.98549616 1.5217241 0.6526404
000100 dd c2 d3 bf 54 8a 98 bf 51 9b a8 be 13 24 95 3e
       -1.6543843 -1.1917214 -0.32930997 0.29129085
000110 ce 0d 07 3f 32 d8 c1 3e 7c 29 94 3e bd 3b e1 3f
       0.5275544 0.37860256 0.289379 1.7596356
000120 ae be ec 3e 26 67 49 40 db 81 ea 3e 85 17 4b 3f
       0.46239227 3.1469207 0.45802197 0.7933276
000130 27 2c 88 3e 2f 23 aa bf 1b 28 94 bf 94 82 79 bf
       0.26596186 -1.3291987 -1.1574739 -0.9746487
000140 4e b9 f5 be 07 11 55 bf 24 af ed be 4d 35 1f bf
       -0.4799294 -0.83229107 -0.46422684 -0.62190706
000150 b4 b9 4c 3d 04 4e 5c 3e 2c e3 44 3f 5b 6a b2 3e
       0.049981788 0.21514136 0.76909137 0.34846768
000160 88 b4 d9 3e 6a 50 9a 3e 9d 3a ff 3d 22 b2 91 bc
       0.42520547 0.30139476 0.124623515 -0.017785136
000170 22 eb 2a 3e a4 bb 8d 3e 53 a0 8e 3b 17 3f 83 bc
       0.16691259 0.2768222 0.004352608 -0.016021295
000180 ae 6e 1c 3e 0f 3f 91 bc 3b c0 c9 3c 21 86 66 3e
       0.15276596 -0.017730264 0.024627795 0.22512104
000190 46 b0 03 be 44 2e 4c 3e 5f d9 72 be 91 4b 3c 3d
       -0.12860212 0.19939524 -0.23715733 0.045970503
0001a0 cd a9 3e bd 55 b3 12 3d 54 83 b1 bc ce 48 5e 3c
       -0.046548653 0.035815556 -0.021669067 0.013567163
0001b0 01 2f bb 3e be 52 aa bd 67 b1 80 be f7 5b 0c be
       0.365593 -0.08316563 -0.25135347 -0.13706957
0001c0 71 29 0d bd 5b b3 27 be f8 42 84 be 3e ee 2f 3e
       -0.03446335 -0.16377012 -0.25832343 0.17180726
0001d0 50 4a a8 3d 1c 6b b0 3d f8 5d 77 bc f5 f6 45 3e
       0.08217299 0.086141795 -0.0150980875 0.19332488
0001e0 67 a9 f2 3e cf 0f 4e 3f 50 0d 1f 3f 04 e9 31 bf
       0.4739487 0.8049287 0.6212969 -0.6949618
0001f0 d6 94 6a be 70 0b 75 be 5a a7 a0 3d 86 5e 31 bf
       -0.22908339 -0.23930144 0.0784442 -0.69284856
000200 44 81 6c bf 26 d7 64 3f 52 e1 75 3f e8 c4 e6 3f
       -0.92384744 0.8939079 0.96046937 1.8028841
000210 1f 1d e2 3e 3b 73 fd 3f 85 d8 d6 be 1f 22 5b 40
       0.44162843 1.980079 -0.41962066 3.4239576
000220 31 ea 43 be f6 76 d9 bf 95 99 84 bf 4b c7 23 bf
       -0.19132306 -1.6989429 -1.035937 -0.6397597
000230 37 6f 31 3f f7 c5 fd 3e fd ff 04 3f 55 78 06 3e
       0.69310325 0.49565098 0.5195311 0.1313184
000240 2f 2d 76 bc 58 4b 0b bb 55 b9 fd 3d 07 ba 7d 3d
       -0.015025421 -0.0021254625 0.12388865 0.061944988
000250 94 31 30 be 51 41 84 be f8 a2 14 3e 49 b0 b1 3e
       -0.17206413 -0.25831082 0.14515293 0.34704807
000260 16 9c 42 3e b9 14 86 3e 5b 2a 1c be 02 ea 3d 3e
       0.19004855 0.26187685 -0.15250532 0.18546298
000270 a1 54 df 3c 2e 9d 88 3d 9e d7 d6 be e2 07 6a bd
       0.027262034 0.06670605 -0.41961378 -0.057136424
000280 f6 3d 4a 3e 3a 6b 9d 39 93 85 b8 ba c2 75 a5 3d
       0.19750199 0.00030025264 -0.0014077894 0.08079101
000290 20 3e 2e 3e 91 f1 a1 3e e6 b5 f8 bd 21 ae 11 be
       0.17015886 0.31629613 -0.121440694 -0.14226581
0002a0 cd 82 8b 3e 3a 69 01 3f b4 6b ba bd 7a 3f 82 bd
       0.2724823 0.5055119 -0.09102574 -0.063597634
0002b0 46 1c 8c 3d 7f e1 3d bd ce 04 9f be d6 d0 04 3f
       0.0684133 -0.046357628 -0.31058353 0.5188116
0002c0 fd ab 77 3e 9a e3 a6 3d 72 08 5d bd 64 c5 db 3c
       0.24186702 0.0814888 -0.053963132 0.026827522
0002d0 21 ec 9f bf 52 64 4d 40 37 0b fc bf 30 95 c2 be
       -1.2493936 3.209248 -1.9690922 -0.38004446
0002e0 e5 91 59 3f 90 18 2b 3e 54 1a 40 bf 28 a4 62 be
       0.8498824 0.16708589 -0.75040174 -0.22132933
0002f0 78 e1 b7 be 07 fd e5 3e fc 5a 1d 3e e0 c9 d9 3f
       -0.35914207 0.44919607 0.15366739 1.7014732
000300 02 b2 80 3f 5c a6 8d 3f 95 2b cf 3e f8 62 66 bf
       1.0054324 1.1066394 0.40462938 -0.89994764
000310 59 ca e0 3f e1 6e c1 bd bc 87 2b 3e 4e 63 21 3f
       1.7561752 -0.094449766 0.16750997 0.6304215
000320 08 98 07 3f 79 a2 18 be 40 a7 6c be c5 83 84 3f
       0.52966356 -0.14905728 -0.23110676 1.0352713
000330 e3 88 3f 3d b7 df fe 3d c5 82 e3 3d e2 d5 42 3e
       0.046761405 0.12445014 0.11108927 0.19026902
000340 b1 54 f0 3d 10 f9 90 bd 5c 47 15 3f 2c 1e 21 3d
       0.117349036 -0.07078755 0.5831201 0.039335415
000350 33 6d 3f be 2e f9 c7 bc 91 2a e3 bd da 61 d1 3f
       -0.18694 -0.02441081 -0.11092103 1.6357987
000360 f6 57 04 3d c2 7c 85 3e 63 b7 44 3e dc 3b 1a 3d
       0.03231045 0.26071745 0.19210581 0.037654743
000370 87 ed b5 3c e5 6e 10 bb b9 0c a4 bc 07 98 b0 3d
       0.022207988 -0.0022038755 -0.020025598 0.08622747
000380 b0 a8 ee bc 68 e2 f2 bd 24 fc 26 3d 19 cb be bd
       -0.02913317 -0.1185959 0.040767804 -0.093160816
000390 1e b0 d5 bc f0 bc 20 3d 3d 9c 67 3d b2 9f 0a bd
       -0.026084956 0.039242685 0.056545485 -0.033843704
0003a0 db 12 b1 bd 31 ff 4e 3d 49 fd a7 3d db d9 c4 3c
       -0.086461745 0.05053634 0.08202607 0.024029663
0003b0 e3 73 e1 3c 81 0a b4 3c 05 63 ae 3c d5 66 8c bc
       0.02752108 0.021977665 0.02128745 -0.017138878
0003c0 d8 99 ae 3e 84 af 44 c0 e7 dd a9 be a0 ed 9a bf
       0.34101748 -3.0732126 -0.3317711 -1.2103767
0003d0 0c 1d 83 bf f3 cb 52 bf a0 26 26 bf bb 61 6a bf
       -1.0243239 -0.8234245 -0.6490269 -0.91555375
0003e0 44 11 3a 3f f3 9e 14 3f c7 11 0d 3f 0a 15 71 c0
       0.72682595 0.5805504 0.5510525 -3.7669091
0003f0 dd 76 41 40 6c af 18 40 fe cf e2 3f 3f 0f bb bf
       3.0228798 2.385707 1.7719724 -1.4614028

fc.0.bias f4 [256]
000000 f5 ec 6d c0 fa 74 df bf 78 a7 18 c0 1e c8 8d bf
       -3.7175877 -1.7457573 -2.3852215 -1.1076696
000010 c9 8a 25 c0 82 55 81 bf c1 84 8c bf 43 d4 ed bf
       -2.5865958 -1.010422 -1.0978013 -1.8580402
000020 56 5b 5a c0 b5 3a 46 bf 29 53 76 bf 32 c8 6c bf
       -3.4118247 -0.7743333 -0.9622064 -0.92492974
000030 96 47 40 3e fe c0 ef bf 11 05 86 bf 1f af 15 c0
       0.18777308 -1.8730772 -1.0470296 -2.3388135
000040 91 95 cf bf 47 d4 da 3c b0 65 6d c0 46 67 c0 bf
       -1.6217519 0.02671255 -3.7093315 -1.5031517
000050 2b 80 84 3f 2a fe 76 bf b0 fd 1f c0 85 62 e8 bf
       1.0351614 -0.96481574 -2.4998589 -1.8155066
000060 5b df f1 bf d4 f2 b7 bf 5e e1 07 c0 d5 b7 9e bf
       -1.8896288 -1.437098 -2.1231303 -1.2399851
000070 83 59 89 bf f4 42 eb 3f 56 e1 35 c0 00 18 3e c0
       -1.0730442 1.8379807 -2.8418784 -2.9702148
000080 87 ec 5c c0 2f 8c d4 3f 82 5f 89 c0 90 ac 2b c0
       -3.4519365 1.6605281 -4.2929087 -2.6824074
000090 6c 32 98 3e 7a 39 9a c0 72 1d 9e be de 54 cb bf
       0.2972597 -4.819516 -0.3088184 -1.5885274
0000a0 db b6 25 c0 6b 1c 0c c0 7d 6f 0b bc 07 d0 82 40
       -2.5892856 -2.1892345 -0.008510468 4.087894
0000b0 ac 54 ca bf ea 88 f6 bf 2b aa 66 3f 36 e9 d9 bf
       -1.580709 -1.9260533 0.90103406 -1.7024295
0000c0 c1 2f 36 3f 76 b3 cd be ea b2 35 c0 d0 c8 47 c0
       0.71166617 -0.4017598 -2.839045 -3.1216316
0000d0 6d 80 99 c0 19 e3 88 c0 2d 5d ad bf f4 cf 78 c0
       -4.796927 -4.277722 -1.354406 -3.8876925
0000e0 90 ad 26 c0 e8 23 e9 bf a7 a5 d3 be 51 a2 ad 3c
       -2.6043434 -1.8214083 -0.4133732 0.021195563
0000f0 df f6 8d 3f 8f 11 06 c0 4d 6c 61 bf 56 cc 28 c0
       1.1090964 -2.0948217 -0.8805588 -2.6374717
000100 ed 35 f1 be 3d 19 2f c0 4c de 2b c0 25 3c 86 3e
       -0.47111455 -2.7359154 -2.685443 0.26217762
000110 44 bc 1f c0 e1 bc 7e bf a6 ef 9c bf ad c2 53 c0
       -2.4958658 -0.99506956 -1.2260635 -3.308757
000120 2f 96 31 c0 31 4c 35 c0 b8 27 0b c0 1b 52 2e c0
       -2.7747915 -2.8327754 -2.1742992 -2.7237613
000130 f9 d7 03 c0 9b 6c 85 c0 13 18 8e c0 d3 59 26 3f
       -2.060057 -4.1695075 -4.4404387 0.6498081
000140 fd 8d cb bf 6d ae 49 3f 2b 16 5d c0 ca e1 c5 bf
       -1.5902706 0.7878178 -3.454478 -1.545953
000150 10 4a fa bf f7 71 2c c0 78 4e 0c bf 8c 62 3a c0
       -1.9553852 -2.6944559 -0.54807234 -2.9122648
000160 fd 2c dd bf 97 8d 69 c0 6e 89 9f bf f4 8c 8d bf
       -1.7279354 -3.649267 -1.2463815 -1.105864
000170 2a ce 2b c0 46 11 6a 3f bc 82 b8 bf 5d a0 0a bf
       -2.6844583 0.9143261 -1.4414897 -0.54150945
000180 b9 27 90 be 01 91 1d bf b3 15 c0 3f b1 5d 9e c0
       -0.28155306 -0.61549383 1.5006622 -4.948937
000190 5a 59 74 be ce ac 50 c0 02 4e 9a bf 22 95 6c bf
       -0.2386221 -3.2605472 -1.2055056 -0.9241506
0001a0 1a 5a e3 bf ea 38 38 c0 c4 df 3d c0 ea 02 0f c0
       -1.7761872 -2.8784738 -2.9667826 -2.2345529
0001b0 03 f4 40 c0 9c 33 f0 bf 7e 82 13 c0 97 ba c2 bf
       -3.0148933 -1.876575 -2.3048396 -1.5213193
0001c0 b9 59 8c 3e 85 90 c0 bf bf fc 40 c0 4e c5 03 3f
       0.27412203 -1.5044104 -3.0154264 0.5147294
0001d0 9d dd 4b bf 99 da a2 bf 2e d9 fc 3c f6 4e 34 bf
       -0.7963503 -1.2722961 0.030865278 -0.70432985
0001e0 74 25 8b 3e 2a 8f 11 be 99 2c 31 c0 5c c2 33 c0
       0.27177012 -0.14214769 -2.768347 -2.8087378
0001f0 8f 4d 6b c0 6f 8a b2 bf ce 35 20 c0 5e c1 30 c0
       -3.6766088 -1.3948497 -2.503284 -2.7618022
000200 cd 76 cc bf 1c 5a 10 40 40 e0 4d 3f a6 cd 3e c0
       -1.5973755 2.2554998 0.80420303 -2.9813018
000210 ed 07 01 c0 82 35 d9 bf 83 8c 4b c0 38 53 1c c0
       -2.0161088 -1.6969454 -3.1804512 -2.4425793
000220 50 38 29 3a c7 93 3a 40 85 14 d3 bf 4e 7a af bf
       0.00064552296 2.9152696 -1.6490637 -1.37092
000230 50 02 90 bd a0 b0 a9 bf d7 a0 05 c0 32 1f 10 be
       -0.07031691 -1.3257027 -2.087942 -0.140744
000240 f0 c1 0f 3f 0f d5 7b 40 3c b6 d0 bf 25 b2 14 c0
       0.561553 3.934879 -1.6305614 -2.323373
000250 e1 d6 95 bf 44 64 ce bf 13 13 ab bf c3 b7 9d bf
       -1.1706201 -1.6124349 -1.3365196 -1.2321705
000260 ad c3 7c bf b6 fe d5 bf d1 2b 19 c0 c3 e5 1a c0
       -0.9873608 -1.6718357 -2.3932993 -2.4202735
000270 2c 6f 13 be f7 e7 8c c0 76 8d f8 bf 37 80 f3 3f
       -0.14397877 -4.403316 -1.941817 1.9023503
000280 7d 22 9c 3f f3 19 21 bf 34 da 6f 3f b8 04 c5 be
       1.2198025 -0.6293022 0.93692327 -0.38480163
000290 70 67 05 c0 d3 50 31 bf 98 9c fe bf 4f 1b 8d be
       -2.0844383 -0.6926395 -1.9891539 -0.27559897
0002a0 23 ae 01 c0 43 b0 d4 bf fe 42 9c be 05 8d 49 c0
       -2.0262535 -1.6616291 -0.3051986 -3.1492321
0002b0 9b 46 0e c0 7c 7b d2 3d 14 8f 56 c0 48 12 59 bf
       -2.2230594 0.10277459 -3.3524828 -0.8479352
0002c0 ae d8 e8 be 56 de c8 bf 14 f3 6b be 64 f9 8c 3e
       -0.45477813 -1.5692852 -0.23041946 0.2753402
0002d0 39 43 97 be 1a c0 e7 bf ec d3 5c c0 b5 c4 4e c0
       -0.29543474 -1.81055 -3.4504347 -3.230756
0002e0 90 d0 b4 be 7b ae 32 3e 53 3c 85 3e cb 31 20 c0
       -0.3531537 0.17449372 0.26022586 -2.5030391
0002f0 2e 17 1b c0 bf 51 0d 3e 90 85 a7 bf 1a 7e 35 c0
       -2.4232898 0.13800715 -1.3087635 -2.8358216
000300 cd 27 63 be bd 68 d4 bf 24 3a db 3e ac 46 ba c0
       -0.22183152 -1.6594464 0.42817795 -5.821127
000310 73 14 b4 3f 2a c6 87 bf cd fa 01 c0 1f 7f 1d c0
       1.4068741 -1.060735 -2.0309327 -2.4608839
000320 36 b6 68 c0 8c 71 35 c0 de 45 3f bf a7 64 bb bf
       -3.6361213 -2.8350554 -0.74715984 -1.4640092
000330 a2 8c bc bf df 1a 54 bf 3e be 59 be 6e 07 68 c0
       -1.4730418 -0.828535 -0.21263978 -3.6254535
000340 c4 14 e6 be 8c 62 1d 40 07 4b 14 3d 68 3a f8 bf
       -0.44937718 2.4591398 0.036204364 -1.9392824
000350 72 a3 0e bf dd 93 13 40 12 6e 87 c0 1b cf 10 3e
       -0.5571815 2.3058999 -4.2321863 0.14141504
000360 18 38 50 3e bf d5 f0 bd 41 bb cf 3f f2 a2 30 c0
       0.20333898 -0.11759519 1.622902 -2.7599454
000370 e2 c8 4e bf 96 3f 45 c0 6b 9b 0b bf a6 7e 83 c0
       -0.8077527 -3.082006 -0.54534024 -4.10921
000380 37 13 fa bf 43 cf df be b2 0b d2 3e 2b f6 89 c0
       -1.9537114 -0.43712816 0.41024548 -4.3113
000390 9e bc 1c 3f 41 2c 56 3f da ea df bf 85 3c 9c bf
       0.61225307 0.83661276 -1.7493546 -1.2205969
0003a0 82 fb 0d c0 19 01 4c bf a9 de 02 be 03 a7 07 c0
       -2.2184758 -0.79689175 -0.1278025 -2.1195686
0003b0 dd 43 13 bf 5d 13 85 bf d1 ce 39 bf a2 23 27 c0
       -0.57525426 -1.0396534 -0.725812 -2.6115499
0003c0 0b 3d c3 bf 3a 40 10 c0 1c a2 e9 bf ab 52 45 c0
       -1.5253004 -2.25392 -1.8252597 -3.0831707
0003d0 d3 7c ab be 9b 52 ca be 16 52 92 c0 76 ba 70 c0
       -0.3349367 -0.39516148 -4.5725203 -3.7613807
0003e0 6d 60 bd bf 34 10 8b 40 81 eb e1 bf 38 4b 0f 3e
       -1.4795052 4.345728 -1.7649995 0.13993537
0003f0 37 c1 2c bf d7 c7 4d c0 8c 57 83 c0 12 f5 70 c0
       -0.6748232 -3.2153223 -4.104437 -3.764958

fc.1.weight f4 [128, 256]
000000 ac 15 d9 3c 55 55 2f bd 49 77 5c bc 97 27 3b bb
       0.026499592 -0.04280599 -0.013456174 -0.0028557533
000010 4a bc 92 bd 67 87 a2 bd a4 53 4a bd 49 90 89 bd
       -0.071648195 -0.07935982 -0.049396172 -0.06716973
000020 3a 6a 8a bd 80 ac 1d 3d ef 22 7d bc fb b1 b3 bd
       -0.06758542 0.038494587 -0.015450223 -0.087741815
000030 82 9d d9 3c 51 85 05 3d 2a c6 45 bc 46 0b 3d 3d
       0.026564363 0.032597844 -0.012071172 0.04615333
000040 38 bd 15 3b a8 54 a0 bc 2b 54 db bc b0 b5 8b bc
       0.002284838 -0.019571617 -0.026773533 -0.017054409
000050 37 ff 7b 3c bd 3d 85 bc c3 df 1d bd a1 16 d8 3b
       0.015380672 -0.01626479 -0.038543474 0.0065944945
000060 49 44 60 bd 14 f6 4a bd c4 1a b4 bd d5 9d 36 bd
       -0.05475262 -0.049551085 -0.08794168 -0.044584114
000070 57 ae 05 bd 57 b2 86 bc 20 73 e3 bc 13 0b 5a bd
       -0.032636967 -0.016442461 -0.027764857 -0.053233217
000080 98 8b 1f bd 11 5f 81 bd dd 9f 43 3d b5 46 f4 bc
       -0.038951486 -0.063169606 0.04775988 -0.029818872
000090 f3 dc d3 3c dc 0b de bc 4e df 6f bd 01 fc 26 3d
       0.025862193 -0.027105264 -0.05856257 0.040767673
0000a0 ef d7 af bd 86 e0 81 bd 82 2f 0d bd ce 72 ba 3b
       -0.08586108 -0.063416526 -0.034469135 0.0056899553
0000b0 cc 47 70 bb 71 4e f6 3c 16 fa 2e 3d 7f 81 51 bd
       -0.0036663888 0.0300667 0.04271897 -0.051148888
0000c0 37 c8 34 bd 30 33 92 3b 14 9b 79 bd 19 f6 5c 3d
       -0.044136252 0.0044616684 -0.06093891 0.053945635
0000d0 f1 cd 8e bd 88 96 37 bd ef c4 ca 3b a3 e4 8e bc
       -0.06972874 -0.044821292 0.006188027 -0.017443007
0000e0 1b 9d 74 3d 0f 92 62 bd 06 ce 97 bd fa 65 98 bd
       0.05972014 -0.055315074 -0.07412343 -0.074413255
0000f0 50 5f 39 3d 0e 9c 99 bc ce 4f 42 bc d7 47 d1 3c
       0.045256913 -0.01875117 -0.011859847 0.025546951
000100 95 10 82 bd e9 c5 80 3c d8 4e 4d bd 15 4b b4 bd
       -0.06350819 0.01571937 -0.05012402 -0.08803383
000110 3f 79 9f bd bf ff fa bc ad 41 c4 bc 10 c8 1a bc
       -0.07786798 -0.030639527 -0.023957098 -0.009447113
000120 88 21 9c bd 03 55 f0 bb 36 17 aa bc 13 bf 78 3c
       -0.07623583 -0.007334353 -0.020763021 0.015182274
000130 82 42 e5 bc 58 2d a8 bc c1 68 32 bd ac 41 a3 bd
       -0.027985815 -0.020529434 -0.043556932 -0.0797151
000140 bf 46 38 3d 35 31 71 bd 37 9e 84 ba c5 da fc bc
       0.044989344 -0.058884818 -0.0010117952 -0.030866036
000150 9f b3 89 bc 70 c7 8b bb e2 a2 0a bd de 4a 9e 3b
       -0.016809283 -0.004265718 -0.033846743 0.004830702
000160 26 06 c5 bc b7 45 12 3c eb 53 98 bc fa 10 64 bd
       -0.024050783 0.008927754 -0.018594703 -0.055680253
000170 be c1 32 3d df ed f3 3b 20 49 94 bc 95 d4 a9 bc
       0.0436418 0.007444128 -0.018101275 -0.02073125
000180 cb 1a be bb f4 fe 90 bd 7f d2 85 bd 87 21 c0 3c
       -0.005801534 -0.070798784 -0.065342896 0.023453487
000190 de a3 86 bc c1 58 58 bb c4 16 7d bb 60 a2 93 bd
       -0.01643556 -0.0033011886 -0.0038618306 -0.07208705
0001a0 60 07 bf bd 86 b9 05 3d aa 89 11 3d 0e b5 a9 bd
       -0.093275785 0.032647632 0.035531677 -0.082864866
0001b0 fe da 7e bd 2b 3b 86 3c 16 1c 2b bc 5c 75 33 3d
       -0.062220566 0.016385635 -0.010443708 0.043813094
0001c0 d8 c4 1e 3c fd de 88 3c 81 d1 e9 bc 14 ba 03 bd
       0.009690486 0.016707892 -0.028542282 -0.03215988
0001d0 c5 fb ca ba e1 df 81 3c 45 d7 02 bd dc 63 12 bd
       -0.001548641 0.015853824 -0.03194358 -0.035739765
0001e0 9e 97 96 bd 6b c8 19 bc d9 29 ec 3a 5b fe ac bc
       -0.073531374 -0.009386162 0.0018017843 -0.02111738
0001f0 bd e9 b8 bc 81 77 ba bc 58 43 f0 3c c6 31 95 bb
       -0.022572393 -0.022762062 0.029328987 -0.0045530526
000200 bb d6 0c bb f4 ae 54 bd 87 ad 32 3c c4 21 62 3c
       -0.0021490294 -0.05192466 0.01090563 0.013801996
000210 1b 87 a5 bd 33 8f 5d bd 35 b6 13 bc cd 08 c4 3c
       -0.0808241 -0.054091644 -0.0090156095 0.023929978
000220 f9 7b b9 3c c6 ba f3 bc 67 cf 4f 3d 16 12 c5 bd
       0.022642123 -0.029752146 0.050734904 -0.0962259
000230 86 3a 3a 3c 00 4e 7c bc 09 1f 0b bd c9 c8 9f bd
       0.011366492 -0.015399456 -0.033965144 -0.078019686
000240 c0 51 8c bd 33 0e b2 bd 71 23 18 bd 13 35 ad bc
       -0.0685153 -0.086941145 -0.037143175 -0.021143472
000250 0b 2b 47 bd 60 c3 9a bd 5c c6 08 3d b1 46 78 bd
       -0.048625033 -0.07556796 0.033392295 -0.06061429
000260 70 e1 59 bc 1d 9c 88 3b 5c 56 6d bd d4 a5 0e bb
       -0.013298377 0.004169001 -0.057943687 -0.0021766322
000270 e0 2a ef b9 ee 5b 49 bb 62 28 29 b9 42 0a 6c bd
       -0.00045617577 -0.003072496 -0.0001613214 -0.05762697
000280 50 db dc 3c f5 c7 92 bd 61 32 14 bd d5 4c 96 bc
       0.026960045 -0.07167045 -0.036180858 -0.018347183
000290 ab c9 1a bd e5 e9 ee 3c 8e d4 85 bd 7d 87 fd 3c
       -0.03778998 0.029164264 -0.06534682 0.030948395
0002a0 36 f9 01 bd aa 98 0a bb 78 41 9c bd de 55 7f 3a
       -0.031731807 -0.0021148124 -0.07629675 0.0009740273
0002b0 14 6f a0 3c 5d 66 8b bd 01 57 07 bc 11 35 b7 bb
       0.019584216 -0.068066336 -0.008260489 -0.005591043
0002c0 35 7c 20 3d 27 f9 99 3c 71 3e 93 bd 5d d1 90 bd
       0.039180953 0.018795563 -0.07189644 -0.07071183
0002d0 ed 79 2b bd d6 cc ec bc af c8 a0 3b 22 bf a5 3b
       -0.041864324 -0.028906267 0.004906736 0.005058185
0002e0 58 a1 a2 bd 2a b8 59 bd 2a f6 55 bc 23 81 a9 bd
       -0.0794093 -0.05315415 -0.013059178 -0.08276584
0002f0 a4 58 4d bd 2b 5c b6 bc d0 55 05 bd 41 4f c4 3c
       -0.050133362 -0.022260746 -0.03255254 0.023963572
000300 5f 32 9f bd 1e 28 38 bd 18 53 c2 bd 6c cc a9 bc
       -0.077732794 -0.044960134 -0.09488505 -0.020727359
000310 d6 68 16 3d 56 37 b2 3c 05 16 b8 bc 2f 6d 81 bd
       0.036721073 0.021754902 -0.022471437 -0.06319653
000320 5c 95 7d bd 45 78 54 bd bb 26 2e bc e5 bc f4 3c
       -0.06191002 -0.05187251 -0.010629351 0.029875228
000330 f9 01 a8 bd ad cb 10 bc 1c 3b 08 bd 9f 5b a4 bd
       -0.08203501 -0.008837623 -0.033259496 -0.08025288
000340 7a 8c 99 bd d2 24 f2 3c 86 67 60 bc 57 30 91 3c
       -0.07497497 0.029558573 -0.013696557 0.017723246
000350 5f c7 ab 3c b2 a5 05 bd 38 9d a7 bc 91 7f 76 bd
       0.020969091 -0.032628722 -0.02046071 -0.06018025
000360 7a fe 63 bd 81 3f 1d 3b d1 cf 7d bd c1 7b 6d bd
       -0.05566261 0.002399415 -0.061965767 -0.05797935
000370 87 f2 21 bd ac 81 a5 bd 59 ac e7 bb 9b dc 2c 3c
       -0.039537933 -0.080813736 -0.007070106 0.010550643
000380 70 a0 63 bd bc c4 35 bc 89 85 36 bd fb e7 43 3b
       -0.055572927 -0.011094268 -0.044560943 0.002989291
000390 99 79 92 bc 27 b0 10 bd f0 b6 2d bd 9f 83 38 bd
       -0.017880248 -0.035324242 -0.04241079 -0.0450474
0003a0 4c ab d7 bc c5 6d 8a bd 91 54 4b bc 72 1a 65 3c
       -0.026326798 -0.06759218 -0.012410299 0.013983356
0003b0 22 bb a6 3c 89 e2 9a bd 97 ec e0 bd 68 d7 a5 bc
       0.020352904 -0.075627394 -0.10982626 -0.020244315
0003c0 3f 21 a2 3c d2 af 18 3d 3b 37 a6 bd 71 c0 1d bd
       0.019791244 0.03727705 -0.08116003 -0.038513605
0003d0 96 68 1a bd c9 29 02 39 0d ff 8a bc b2 31 05 bd
       -0.037697397 0.00012413332 -0.01696732 -0.032518096
0003e0 2e 3e a7 bd 00 33 05 ba 94 f2 36 bd 33 43 a9 bd
       -0.08166157 -0.0005081147 -0.044664934 -0.0826477
0003f0 c1 aa 5c bc 38 72 25 bd f0 d5 79 bd 24 a0 c5 bc
       -0.013468445 -0.04039213 -0.060995042 -0.024124213

fc.1.bias f4 [128]
000000 05 7c a8 3b aa 5c f8 be 4e ca 78 3f 19 47 b9 3f
       0.0051417374 -0.48508197 0.9718369 1.4474822
000010 d0 fb 43 3c ec b7 dd 3e d0 b3 a9 bd 22 ae 9b 3f
       0.011961892 0.43304384 -0.0828625 1.2162516
000020 28 44 90 bd db 2f 6f 40 e7 eb 37 40 03 78 ae bf
       -0.0704425 3.7372959 2.8737733 -1.3630375
000030 a2 8c d9 3c 72 17 41 40 32 a1 8f bf 3e 00 04 c0
       0.026556317 3.017056 -1.1221068 -2.0625148
000040 f8 2a b8 40 43 cd 14 40 38 0b 8a 3b 3e b5 23 bd
       5.755245 2.3250282 0.004212763 -0.039967768
000050 84 2d 63 3f 9c 97 35 bf 50 40 d6 bf 61 02 06 40
       0.88741326 -0.7093446 -1.6738377 2.0938952
000060 fe bf a5 3f 74 95 50 c0 4f f9 0e 3e 91 0b 89 bd
       1.2949216 -3.259122 0.13962291 -0.06691659
000070 ee e2 70 3f 24 13 57 3f 38 6b 2b bf ca 86 a2 3f
       0.9409627 0.8401358 -0.6696048 1.2697384
000080 88 7a 6e c0 85 aa fd bc 93 47 04 3f 74 fb bb 3e
       -3.7262287 -0.0309651 0.51671714 0.3671528
000090 ff 8f 72 3f e1 0e ed 3f 97 57 b6 3e ae 28 70 3f
       0.9475097 1.8520166 0.356137 0.9381207
0000a0 a0 da cd be f1 90 0d c0 6c e5 41 40 12 a8 95 bd
       -0.4020586 -2.2119715 3.0296278 -0.073074475
0000b0 8c 00 04 40 c1 7a 95 bd 12 a6 1c 3f 6f 91 94 40
       2.0625334 -0.07298804 0.61190903 4.642753
0000c0 67 f9 a8 bd 63 b9 71 bf c5 c5 81 3f eb 6b 96 bd
       -0.08250695 -0.944235 1.013848 -0.073448025
0000d0 e2 c3 9d bf c7 fb 89 bc 6d 85 82 bd 6a ec e9 be
       -1.2325404 -0.01684369 -0.06373105 -0.45688182
0000e0 21 de da bf 69 07 14 40 2f 65 a5 bc d9 31 87 3f
       -1.7099038 2.3129523 -0.02018985 1.0562087
0000f0 f2 35 bd 3a c2 3f c7 bf 66 1a ab 3f 17 25 65 3f
       0.0014435633 -1.5566332 1.3367431 0.8950972
000100 ec db 9b 3f 9d 44 5c bc 34 d5 6e bd 45 c8 a7 bf
       1.217649 -0.013444093 -0.058308795 -1.3107992
000110 2c 11 48 40 02 2a 2b 3c 91 c8 33 40 c6 82 b7 bd
       3.126048 0.010447027 2.8091166 -0.0896049
000120 78 60 ee bf 1a 99 2b bd 47 a6 ca 3f b3 aa 0b be
       -1.862319 -0.041894056 1.5831994 -0.13639335
000130 52 90 a0 bd f7 db 5b 3c 41 62 3f 3e 70 dc ad 3f
       -0.07840027 0.013419143 0.18689825 1.3582897
000140 de 0a 8c be 2d 45 07 40 0c 8b 90 3d fc e4 47 40
       -0.2735204 2.1135972 0.07057771 3.123351
000150 3c 62 69 bd a1 46 27 3f 36 ed 97 bd f1 fd f0 3f
       -0.05697845 0.65342146 -0.07418291 1.8827497
000160 a5 c2 55 3c 76 a5 ea be a1 7a e4 3f ae 76 b6 be
       0.013046895 -0.45829362 1.7849923 -0.3563742
000170 7c 4e f8 3f 50 78 93 3d 7e a3 b2 3f bf 6a 84 c0
       1.9398952 0.07200682 1.3956144 -4.1380305
000180 d4 77 42 3e c6 e7 a1 bd 4a ea b6 bd 3e 6d cb 3f
       0.18991023 -0.079055354 -0.08931406 1.5892713
000190 39 6c 30 40 98 fa a4 3e 95 e1 bb 3f 57 35 e0 3d
       2.7566054 0.32222438 1.4678217 0.10947674
0001a0 8b b0 87 40 7e 5f d9 3e 7e af a3 3f 94 48 54 bd
       4.2403007 0.42455667 1.2787931 -0.05182703
0001b0 ce 59 0c bd 5b 46 54 bd f5 21 0b 40 9a b7 95 bd
       -0.034265332 -0.05182491 2.1739476 -0.0731041
0001c0 2c cf 08 40 ee 74 43 40 f3 87 d9 3c 33 a8 30 bc
       2.1376448 3.0540118 0.026554083 -0.010782289
0001d0 11 5e 23 bf 49 18 68 3c 45 fc 09 c0 fb 54 bf 3f
       -0.6381541 0.014165946 -2.1560223 1.4947809
0001e0 e3 0b 8f 3f 2d b5 34 40 2d 16 d4 bc dc 46 8c 3f
       1.1175503 2.823558 -0.02588948 1.0959125
0001f0 b9 57 a9 bf 20 9e 84 bd 27 4d 10 be cb 32 be 3f
       -1.3229896 -0.064754725 -0.14091931 1.4859251

fc.2.weight f4 [64, 128]
000000 c7 f7 e1 3c 28 f3 91 bd e3 64 cd bd 8b 09 1c c0
       0.02758397 -0.071264565 -0.10029008 -2.4380825
000010 da ba 79 bd f6 7f b6 be 82 a9 09 3d d8 86 22 be
       -0.06096921 -0.356445 0.03360892 -0.15871751
000020 80 03 e5 bc 53 6c ed 3f b7 f8 7a 3f c3 98 59 bf
       -0.02795577 1.8548683 0.9803576 -0.8499872
000030 df ff b3 bd f9 ec 46 3f c6 d2 f3 3e b3 9e 08 3e
       -0.08789038 0.7770534 0.47621745 0.13341789
000040 26 b0 9f be f0 32 c5 bc 18 e7 74 3c 91 5f 49 3d
       -0.31189078 -0.02407214 0.014947675 0.049163405
000050 9d 37 5c be 33 4a 76 bf f2 41 35 3d 5f 89 1e be
       -0.2150559 -0.9620697 0.044252343 -0.1548209
000060 58 40 06 c0 96 ee 16 3f 8a 2e a3 3f 1e 86 66 3e
       -2.0976772 0.58957803 1.2748578 0.22512099
000070 1d 42 db 3d 9b bc 13 3f 42 e3 00 bf 5c 56 1e 3f
       0.107059695 0.57709664 -0.5034677 0.61850524
000080 41 da 8f be e7 20 b9 3c 44 cf 38 bf f7 bb bd bf
       -0.28096202 0.022598697 -0.7219126 -1.4822987
000090 fa b7 03 3f 3b f1 33 3f 0e ec 45 c0 d0 4f 3c bf
       0.514526 0.70289963 -3.0925326 -0.73559284
0000a0 85 5a 9e 3e 5a 81 71 3f 14 fd 37 3e e8 a2 09 3d
       0.30928436 0.94338 0.17967635 0.033602625
0000b0 f0 79 6d 3e 05 ff 53 3c 4b 47 22 3f bf d0 d3 be
       0.23191047 0.012939219 0.63390034 -0.41370198
0000c0 4f c8 a4 3e 9e 3e 83 be e2 34 9f 3d a9 29 d0 bb
       0.32184073 -0.2563371 0.077737585 -0.0063526225
0000d0 1d 34 9a bf 58 a7 0c bd aa 68 c7 3d 6d 31 05 3f
       -1.2047154 -0.03433928 0.0973676 0.5202854
0000e0 2f 3e fb 3e f8 84 f1 bf db 35 39 bd 1d aa 5a bf
       0.4907088 -1.8868704 -0.045217376 -0.8541582
0000f0 93 dd 92 3c d9 58 88 be 86 34 0b bf 1c 89 17 3f
       0.01792792 -0.26630285 -0.5437702 0.5919359
000100 2a 38 57 bf 29 7e be 3c 95 10 82 bd 6c 27 81 bf
       -0.84070075 0.023253517 -0.06350819 -1.0090156
000110 15 47 4c bf 8f 88 48 3d 78 df 2d c0 ad f4 b0 bd
       -0.7979596 0.048958357 -2.7167645 -0.08640418
000120 10 47 a3 bd 53 3e 99 bc ef 59 13 c0 b0 e7 40 3f
       -0.079725385 -0.018706476 -2.302364 0.7535353
000130 36 e4 1a bd b3 76 a1 3d 29 1b f4 bf ed 3c 0e bf
       -0.037815295 0.07883968 -1.9070789 -0.55561715
000140 f4 9d 27 c0 f6 07 1e c0 77 8f b1 3e c1 29 c6 bd
       -2.6190157 -2.469236 0.34679767 -0.09675933
000150 56 0f 2e 3e cb 04 67 3e a5 5f a2 bd d2 c6 cb bf
       0.16998038 0.22560422 -0.07928399 -1.592005
000160 45 47 d4 bd b3 17 df bf 54 25 81 be 27 7b 5e be
       -0.10365156 -1.7429107 -0.25223792 -0.21726666
000170 61 10 3f bf 61 89 e5 3e 49 fd 83 3e 09 db 81 bf
       -0.7463437 0.44831374 0.2577918 -1.0144969
000180 e4 f0 e7 bc 19 fb 69 3e 63 db 5d bd 9f ad ff be
       -0.028313108 0.22849692 -0.0541643 -0.4993715
000190 13 d9 14 bf e8 fb 0c bf f7 9d 96 3e 82 7d 34 bf
       -0.5814373 -0.5507188 0.29417393 -0.7050401
0001a0 00 43 bd be 35 57 04 bf 18 b9 ac 3c d3 85 a8 bc
       -0.3696518 -0.5169557 0.021084353 -0.020571625
0001b0 8f 0f d9 3b a8 26 19 3d c1 00 b3 bf 23 c1 db 3b
       0.006624169 0.03739038 -1.3984605 0.0067063733
0001c0 af 25 33 c0 1a a3 c3 be 59 99 90 3d d4 10 8d 3c
       -2.799175 -0.38210374 0.07060499 0.017219938
0001d0 c2 94 11 c0 f5 be 04 3d e1 22 76 3f e3 f4 6c 3e
       -2.2747045 0.032408673 0.9614697 0.23140292
0001e0 2e c7 88 bf 44 b9 4c 3f a8 cb 9c 3d be d8 31 3f
       -1.0685785 0.7997019 0.07656032 0.6947135
0001f0 e8 c9 1c bf 3a c4 d2 bc bb 8f b9 3d 5e 9f 07 bf
       -0.61245584 -0.025728334 0.090606175 -0.5297755
000200 dd e4 39 3d 1d 27 4c bf d2 53 14 be cd 86 01 3f
       0.045384277 -0.7974718 -0.144851 0.50596315
000210 01 f6 5d bd ce 3f e6 be c8 bf 17 bd d3 4d 8c bf
       -0.054189686 -0.44970554 -0.03704813 -1.096125
000220 67 12 fd 3c ee f2 13 3f a1 55 56 bf f3 7b 0a bf
       0.030892564 0.57792556 -0.8372441 -0.5409538
000230 eb 4f 55 3d fb 0e cf 3c 14 51 bd be 6e 26 e9 bd
       0.05207817 0.025275698 -0.3697592 -0.11384283
000240 85 b5 2b 3e 4e d7 80 bf 2e 80 7d 3d 0a 6d 50 3d
       0.16768463 -1.0065706 0.06188982 0.050885238
000250 64 45 6a bf 64 f6 9d 3c 99 82 10 3f 1b 91 91 bf
       -0.9151213 0.019282527 0.56449276 -1.1372408
000260 49 ec f7 bd 9b 35 99 be f0 80 fa bd 3e 19 85 3e
       -0.12105615 -0.2992371 -0.12231624 0.2599582
000270 53 40 d6 3d 36 e7 13 3f 21 15 9d c0 b3 f8 18 bf
       0.104614876 0.57774675 -4.908829 -0.59754485
000280 c1 ef a1 3a 08 40 84 bd 07 70 4d be 74 6d 2e c0
       0.0012354777 -0.064575255 -0.20062266 -2.7254305
000290 ab de df 3e 58 7c ce 3e 1a 1c 2d 3e e0 2e 8a bd
       0.4372457 0.40329242 0.16905251 -0.06747222
0002a0 20 1a 98 bf 94 89 bc be 11 bf 0b 3f b8 ef 57 bd
       -1.1882973 -0.36823714 0.5458842 -0.052718848
0002b0 12 62 f2 3d e5 d0 1b bd 3b 72 97 bd b7 c6 02 bf
       0.11835112 -0.038041014 -0.073948346 -0.51084465
0002c0 05 50 68 3d ac d7 b9 be c7 84 77 bd 89 71 27 3d
       0.056716938 -0.36297357 -0.06042936 0.04087976
0002d0 71 57 a0 3e e8 1b c6 3c b4 83 03 bd 2c c1 80 be
       0.31316712 0.024183229 -0.032108024 -0.25147378
0002e0 ba 4d 96 bd 59 03 c1 3c 0b 28 8d bb 88 96 a0 bb
       -0.07339044 0.023561167 -0.004307752 -0.004900757
0002f0 75 29 88 3c f5 f0 e8 bd bf bd 7f bf 38 98 e1 bc
       0.01662133 -0.11374084 -0.99898905 -0.027538404
000300 a7 0e f7 3e 27 9d 1d bd 5e 1b 6d 3d 67 cd a7 be
       0.48253366 -0.03847995 0.057887428 -0.32773897
000310 4b 3b 14 bd 5e 9a e0 3d 8d ad 02 3d 0f bd fd bc
       -0.03618936 0.10966943 0.031903792 -0.03097394
000320 7b 6d 88 bd 63 b3 58 bc de 8a 84 bf ad 9a 64 3f
       -0.06661507 -0.013226363 -1.0354879 0.89298517
000330 29 c4 8d 3c 21 7a 34 bd ab 6f 75 be bc ef 92 bf
       0.01730545 -0.044061784 -0.23968379 -1.1479411
000340 43 77 9a 3d fe 06 66 3f 84 c6 8a be ce 1b 65 3e
       0.075422786 0.8985442 -0.2710458 0.22373888
000350 66 54 a3 bb ce 89 44 bd 67 b1 98 3d 38 4c fb 3e
       -0.0049844263 -0.047982983 0.07455712 0.49081588
000360 d3 33 c8 bc 3b 0c 81 be f3 75 3e 3d f2 32 24 3f
       -0.024438774 -0.25204644 0.046499204 0.64140236
000370 ab f0 d1 be a9 21 86 3d 26 e5 d3 3e 7e 45 60 be
       -0.41003928 0.06549389 0.41385764 -0.21901509
000380 74 cd e0 bd 4c e8 8f 3e e4 75 01 3d 9a 50 ca 3e
       -0.10976687 0.28106916 0.03160657 0.3951462
000390 84 8b 12 bf b6 d0 d4 3d 45 b9 9f 3e 99 20 d1 be
       -0.57244134 0.10391371 0.31196037 -0.40845183
0003a0 c3 57 7c be cd a1 7c be 18 53 da be 66 0f 2b bc
       -0.24642853 -0.24671097 -0.4264152 -0.010440683
0003b0 a9 82 e3 bc a3 eb 14 bd 6e b3 a7 3e 8c 85 89 3c
       -0.027772265 -0.036357533 0.3275408 0.016787313
0003c0 f0 e9 0d 3f c4 03 b1 be 91 ad c3 3d 72 98 14 bd
       0.55435085 -0.34573185 0.095545895 -0.036278196
0003d0 78 b3 ee 3e ef a0 64 bd 23 83 d9 be d9 8a cb be
       0.466213 -0.05581754 -0.42482862 -0.3975437
0003e0 af 00 44 3c cc 1a 2a 3e bb b7 a2 3d b6 69 27 3d
       0.011963054 0.16611785 0.079452 0.0408723
0003f0 a7 31 74 be ea 40 b8 3c ad 2f 02 bd 0a de 21 3f
       -0.23847066 0.022491891 -0.03178375 0.6322943

fc.2.bias f4 [64]
000000 90 aa bb bf 13 6e fc 3e 0c 69 eb 40 75 80 45 3f
       -1.4661427 0.4930273 7.356573 0.77149135
000010 ef bd d7 bf 58 ab 45 3a c0 d0 5f be cc 10 0d bf
       -1.6854838 0.0007540486 -0.21856976 -0.55103755
000020 02 6d 32 c0 ae 0b e2 40 90 4c cc 3f 2e 2f bd 3e
       -2.7879033 7.0639257 1.5960865 0.36950058
000030 9a 03 94 40 76 70 b4 be 3e 59 5c bd d2 d9 a3 40
       4.6254396 -0.3524205 -0.053796045 5.1203394
000040 71 42 0f bf fb 57 1e 3f c8 7c dd bd 64 00 b6 be
       -0.55960757 0.61853 -0.10814816 -0.35547173
000050 d6 2b 99 bd 55 a7 24 c0 b7 9d a1 3e 2b d9 ec 3f
       -0.07479064 -2.5727131 0.3156564 1.8503774
000060 6a 2f d8 40 20 3e 77 c0 24 cc 57 3e 26 7a be be
       6.755788 -3.8631668 0.21073967 -0.37202567
000070 16 8b d7 3f b9 1c 9e bc 1d 5a ec 3f ea d6 52 40
       1.6839321 -0.019300805 1.8465 3.2943673
000080 48 bc 04 bf 89 56 3f bf 5e f1 09 be d7 cf c4 bf
       -0.51849794 -0.7474142 -0.1347098 -1.5375928
000090 02 52 96 3f d8 1c 9b 3e 6a 2b 55 3e 07 20 1a c1
       1.1743777 0.30295444 0.20817342 -9.632819
0000a0 88 8b 22 3f c7 3b ed bf 69 43 aa bf c8 8e 40 3e
       0.6349416 -1.8533868 -1.3301822 0.18804467
0000b0 68 c1 b8 3f b1 e6 b3 bf bc 65 b7 3f cb 66 53 40
       1.4434023 -1.4054776 1.4327922 3.303149
0000c0 81 f9 da 40 d5 9b 09 40 5e 43 8c be 81 5a 09 be
       6.842957 2.1501362 -0.27395147 -0.13413431
0000d0 12 57 2a 40 91 30 a9 3f a5 a9 ae 40 35 8d df 40
       2.6615644 1.3217946 5.4582086 6.985987
0000e0 02 33 87 c0 67 4a 9e bc 04 bc a1 bd f9 3d a0 40
       -4.2249765 -0.019322587 -0.07897189 5.007565
0000f0 50 d6 16 40 6a bf 0b be d1 1a 48 40 15 6d a0 3e
       2.3568306 -0.13647237 3.1266367 0.31333223

fc.3.weight f4 [32, 64]
000000 04 08 82 3e aa b4 cf 3c ea 5f a5 bd d4 1a 62 37
       0.2539674 0.025354702 -0.08074935 1.3476896e-05
000010 0d 48 2d bc f0 a0 20 bc be 7f a3 ba 7a 82 28 ba
       -0.01057626 -0.0098039955 -0.0012473983 -0.0006428134
000020 0f ac 9b be 54 93 d0 bc d0 50 e2 3b 0a 47 c3 3b
       -0.30404708 -0.025460877 0.0069066063 0.0059593963
000030 3c 36 98 3d 6f 9a c2 3a 25 08 a7 bd 2a b8 0d bd
       0.074322194 0.001484705 -0.0815585 -0.03459946
000040 8f df 81 ba 82 c2 c3 38 9a 9b 89 3c f4 3b 84 bb
       -0.0009908545 9.3345545e-05 0.01679783 -0.0040354673
000050 c7 83 0c bc 95 6d 0d 3b fa 90 fd b9 85 97 85 ba
       -0.00857634 0.0021580209 -0.00048363936 -0.0010192251
000060 4f d4 e9 3c 03 7d cf be 9c 82 07 bc 40 89 64 3c
       0.02854362 -0.40525064 -0.008270886 0.013948739
000070 3b 46 98 3a 45 6d 69 bc bb d0 9f 3a 15 ca a5 3b
       0.001161761 -0.014247243 0.0012192944 0.0050594904
000080 c0 92 fc bd 42 b5 85 39 90 97 a5 bd 45 97 06 bc
       -0.12332678 0.00025502784 -0.08085549 -0.008214776
000090 4f 56 2c 3e 43 69 83 b8 39 5d 17 bb c3 0a 1b be
       0.16829799 -6.266173e-05 -0.0023096337 -0.15140824
0000a0 50 08 f2 3a ab 0c a5 bd cf 16 18 be 30 7f 94 b9
       0.0018465612 -0.08059057 -0.14852451 -0.00028323522
0000b0 a1 3a fa bb 41 c9 e6 3b 1a 6d 3a bd 92 c0 43 3d
       -0.0076363836 0.0070430343 -0.045514204 0.04779107
0000c0 40 88 ab 3d 7d ed f8 b9 01 c3 bf bd f1 98 76 bd
       0.08375597 -0.0004747919 -0.09363366 -0.06020445
0000d0 9a f4 b6 3b c7 f0 af 3a 52 11 ee 3d 89 59 1c bd
       0.005583358 0.0013423198 0.11624397 -0.038171325
0000e0 ab f3 93 3e 19 fa 8e 3d 77 54 77 bc 60 62 51 3e
       0.2889684 0.06981296 -0.015095822 0.20447683
0000f0 56 0d ae ba 0f 32 bb bd 1f da b4 39 41 9e 86 3e
       -0.0013279121 -0.09140407 0.00034494788 0.26292613
000100 17 ac 3d c0 da 67 02 bf c7 3f 52 3c 66 f5 23 bc
       -2.9636285 -0.50939715 0.0128325885 -0.010007238
000110 13 a5 f4 be a6 e9 d6 bd 97 c6 8a bd be 5e 36 3e
       -0.47782192 -0.10493784 -0.06776159 0.17809579
000120 c8 ea 0a c0 c2 a3 fb bb 5d c8 96 c0 33 81 85 be
       -2.17058 -0.0076794336 -4.7119584 -0.26075134
000130 63 02 c7 be 1a d9 c0 bd ca 24 32 bd 26 27 b9 3d
       -0.38869008 -0.09416409 -0.043492116 0.0904067
000140 54 93 82 bb 2f 76 6e be 45 30 36 be 62 e9 23 3c
       -0.003984848 -0.23287271 -0.17791851 0.010004373
000150 27 80 1f bf 4a fd 42 3d 34 1d 2d bf 8b a1 99 3d
       -0.6230492 0.047604837 -0.67622685 0.07501515
000160 15 f7 ef bc 7b a3 0c bf 56 4b 6e 3f 71 7b a4 bf
       -0.029292623 -0.5493695 0.93083704 -1.2850171
000170 98 a6 44 c0 ab f1 d2 bd ad 67 14 3e 00 1b 91 3e
       -3.072668 -0.10300001 0.14492674 0.28340912
000180 61 15 6b bc db 0c 80 bd e5 18 6b 3d 1e 9d 4f 3b
       -0.014348359 -0.06252452 0.05739679 0.0031679343
000190 e3 cc fb bd 05 1a ab be f9 6e ff 3d 2f a4 0d c0
       -0.122949384 -0.3341829 0.12472338 -2.213146
0001a0 bb 73 bb 3d cf d8 74 bc 76 ea 8d bf e4 f6 06 bf
       0.09152933 -0.014944269 -1.1087177 -0.52720475
0001b0 a8 eb c0 bd e4 61 8b be 52 1c 2e bf d1 31 43 be
       -0.09419948 -0.27223122 -0.68011963 -0.19061972
0001c0 4d 3e d5 bd 91 5d 78 be 1c 49 8d 3e 32 79 1f bd
       -0.104122736 -0.24254443 0.2759484 -0.03893394
0001d0 0e fc 2f be af 32 53 bd 55 79 1d c0 b8 a3 e9 3d
       -0.17185995 -0.051562008 -2.4605305 0.1140818
0001e0 e0 cf b3 be 82 13 25 3d 39 7e 71 3d 8f ae 74 be
       -0.35119534 0.040301807 0.058958266 -0.23894714
0001f0 c7 24 b7 bf f3 57 e3 bc 3c 03 3b be 06 da 31 3d
       -1.4308099 -0.027751898 -0.18262953 0.043420814
000200 37 80 30 3e 3b 6f 1c bd b0 7c 7e c0 3e 5b 46 be
       0.1723641 -0.038192015 -3.9763603 -0.19370744
000210 39 05 0a bf c4 c7 1c bd ca a4 a2 be ec 99 9d 3a
       -0.5391422 -0.03827645 -0.3176635 0.0012024022
000220 78 b3 89 be 6e aa c0 bf ad 22 cd 3e a6 00 56 3e
       -0.26894736 -1.5052011 0.40065518 0.20898685
000230 b9 b6 9e 3e af 1f ff bc 84 8e dd 39 9e 9f 90 be
       0.3099878 -0.031143038 0.00042258587 -0.28246778
000240 8a b1 b2 bf 90 c3 1c be 78 e3 3f 3d 45 a9 06 bd
       -1.3960431 -0.15308976 0.04684779 -0.03287627
000250 1c e9 41 bf c7 1d da bf 7c a4 e9 be 59 58 dd bd
       -0.7574632 -1.7040337 -0.45633304 -0.108078666
000260 2b b8 cc be 45 de 97 be 93 1d 85 bd 18 64 2e bc
       -0.3998426 -0.29661766 -0.064997815 -0.010643981
000270 ef 0e b6 3d 03 61 65 3d 63 ee 1c bf da 91 b3 bc
       0.08889567 0.05600072 -0.6130125 -0.021920133
000280 9d d9 0f bd 74 49 1a bf 2c 67 56 bd d9 f1 30 be
       -0.03511964 -0.6026833 -0.052344486 -0.17279758
000290 58 83 c3 be 71 d7 a7 3e 0a ed a5 bd b0 6c 22 bf
       -0.38186145 0.32781556 -0.08101852 -0.63447094
0002a0 83 a9 dd bf 35 15 d0 be 20 e5 c0 be 4a 33 98 be
       -1.7317356 -0.4064118 -0.37674809 -0.2972663
0002b0 77 0a 9a 3c 52 40 91 be 5e 75 23 c0 37 90 d6 bf
       0.018803818 -0.28369385 -2.5540385 -1.6762761
0002c0 25 0e 76 c0 a2 a4 ed 3e 59 ac d5 bd f5 d3 e5 3d
       -3.8446133 0.46414667 -0.10433263 0.11222068
0002d0 0f eb 2c bf b0 4b 14 bf 7b 51 20 3d 43 83 ab bf
       -0.6754617 -0.5792799 0.039140206 -1.3399433
0002e0 5d 4f 7e bd 23 01 9d 3d 99 e2 d8 3d d7 4b a3 be
       -0.062087405 0.076662324 0.10590095 -0.318938
0002f0 51 4f a7 3d 4c 3d a8 3d 76 59 c8 bf e6 9f 87 be
       0.08169425 0.082148165 -1.5652301 -0.2648918
000300 ab cb 48 3e b8 81 08 be 24 07 8a bb c8 30 82 3e
       0.19608943 -0.13330734 -0.004212277 0.25427842
000310 3f e1 d1 3d 81 e8 d9 bd 2d f0 d3 3b fe ce 72 bf
       0.102480404 -0.1064005 0.00646784 -0.94847095
000320 81 97 3e bd 8b 71 83 bd 9d 73 46 3e bc 9c 00 39
       -0.046531204 -0.06418141 0.1938004 0.0001226542
000330 6a a9 be bd 11 0f 3a be 2e 44 75 3c 78 43 a7 ba
       -0.09309657 -0.1816981 0.014969869 -0.0012761196
000340 71 ae 39 be 10 f4 b1 3e 88 e2 e4 bd 17 01 c6 bf
       -0.1813295 0.34756517 -0.1117602 -1.5469083
000350 82 7a 98 be 14 18 6c 3e b5 12 2e be 49 ad 44 bf
       -0.29780966 0.2305606 -0.16999324 -0.7682691
000360 0b bd 86 3c b4 71 93 be dc b9 5c bf 7c 61 98 3d
       0.016447565 -0.28797686 -0.862211 0.07440469
000370 64 43 a1 3e 3b 13 5f 3d ed ff a6 3e 1c 00 52 bd
       0.31496727 0.0544617 0.3261713 -0.051269636
000380 d0 f3 8f be bd fd e0 bb ac f8 ba bc c7 d7 c5 bd
       -0.28115702 -0.0068661855 -0.022823654 -0.09660297
000390 66 24 4e bf 2c bf 50 3e 8f 4c 3b bf 94 ca 13 bc
       -0.8052429 0.20385426 -0.73163694 -0.009020466
0003a0 dd 58 80 3e f9 d1 ef bf 7b 4e 3b c0 05 b8 2b be
       0.25067797 -1.8735954 -2.926665 -0.16769417
0003b0 de 25 bc bd 77 f1 1e bf ba b6 40 bf 68 f0 1b bd
       -0.0918691 -0.62087196 -0.7527882 -0.038071066
0003c0 f2 66 8b 3c 76 3d 27 3e 95 c9 8a 3e 5e a3 ac bd
       0.017016862 0.16332039 0.2710692 -0.08429597
0003d0 e1 b4 ca be a0 04 7a 3b 68 ed 29 bd 13 45 07 3c
       -0.39591125 0.003814973 -0.041486174 0.008256215
0003e0 d9 f6 ee be 0a 14 15 bd b3 5c 97 bd 75 cd 52 bd
       -0.46672705 -0.036396064 -0.07390728 -0.05146547
0003f0 1a f5 6b 3c f2 9c 6f bd f9 21 9a 3e e8 44 01 be
       0.0144016985 -0.058499284 0.30104044 -0.12623942

fc.3.bias f4 [32]
000000 0d 10 ff 3e 75 31 57 c0 72 27 a4 bf e7 10 8a bf
       0.49816933 -3.3623936 -1.2824538 -1.0786408
000010 e1 25 8b 3f ec 8e cc c0 8e c7 88 3f 58 ad 1c 40
       1.0870935 -6.3924465 1.0685899 2.44808
000020 dc 35 18 c1 8e 77 58 bf 0c 74 87 bf 8e 2c 15 be
       -9.513149 -0.84557426 -1.058229 -0.14567778
000030 e9 c7 a1 bf e5 79 87 c0 83 07 e9 3f de 58 9f 3c
       -1.2639133 -4.2336297 1.8205417 0.019451555
000040 1d 0f b1 be bf 3e 16 bf a2 39 ca be 36 72 8e 3f
       -0.34581843 -0.5868949 -0.39497095 1.1128604
000050 fd b1 07 bd 36 2e aa bf f5 41 bd bf 63 2b 25 c0
       -0.033128727 -1.3295352 -1.4785753 -2.580773
000060 ac e1 89 bf af e6 4d c0 42 7b 52 c0 87 27 b1 c0
       -1.0771995 -3.2172048 -3.288773 -5.536075
000070 ec b3 2b 40 a6 20 09 c1 1f 74 f5 bf 5d d7 c3 bf
       2.6828566 -8.570471 -1.9176062 -1.5300099

fc.4.weight f4 [16, 32]
000000 01 da cc ba 34 a0 30 be 66 0d 61 bf 1e 2b ca 3c
       -0.0015628935 -0.17248613 -0.8791107 0.024678763
000010 2e bd 3c 3c ad b5 28 c0 8e 89 ad 3c 6c b9 2a 40
       0.011519713 -2.6360886 0.021183755 2.6675673
000020 93 e4 00 c0 03 d3 ae 3e 4f 04 94 be 30 40 31 3e
       -2.013951 0.34145364 -0.28909537 0.17309642
000030 3d 32 8d be ba 28 ef bf 41 47 0f c1 fc fe 80 bd
       -0.2757739 -1.8684304 -8.954896 -0.062986344
000040 1d 53 d9 bd e7 14 28 be 03 39 ad bb 26 c6 e4 bc
       -0.10611556 -0.16414224 -0.0052863373 -0.027926516
000050 a5 a8 26 bc c5 90 88 bf fd 55 ab 3b f7 0a 03 c0
       -0.010172044 -1.066918 0.0052287565 -2.0475442
000060 6e d3 0f be 99 1e 22 bf 00 06 fc bf ac 81 0b 3e
       -0.14045498 -0.6332794 -1.9689331 0.13623685
000070 35 db 2e c1 54 5e 2b c0 68 00 03 c0 d4 4c eb bf
       -10.928517 -2.6776323 -2.0468998 -1.8382821
000080 9b 1a fb 3b 9a a2 70 bb 22 6d 90 bc 26 48 1c b9
       0.0076630837 -0.0036718012 -0.017630164 -0.00014904197
000090 17 95 0c 3e 42 16 2d bd a3 e9 da 39 00 c1 3a bd
       0.13728748 -0.042257555 0.00041754273 -0.045594215
0000a0 72 99 5c be db 4e 3c ba bf fd 1d bd 66 6d 39 3b
       -0.2154291 -0.0007183381 -0.03857207 0.0028293966
0000b0 17 b2 bc 38 12 af 28 bd 9f d1 30 3b 03 fa 30 ba
       8.9977104e-05 -0.041182585 0.0026980413 -0.0006751122
0000c0 f9 d8 c6 3d f4 1d 9d ba 62 ec 34 3d e0 a8 ff bc
       0.09709353 -0.0011987076 0.044170745 -0.031208456
0000d0 f7 20 cf ba 5d 1b 57 3b 87 fc ec ba 63 37 1c 3b
       -0.0015802671 0.0032822706 -0.001808063 0.0023836724
0000e0 b6 d6 ae bc 81 b4 f6 bb 56 40 23 be 2b b7 8b bc
       -0.021342617 -0.007528842 -0.15942511 -0.017055115
0000f0 f0 56 19 bb d7 87 2e bc 41 27 fc 3a f4 12 a8 bc
       -0.0023397766 -0.010652504 0.0019237773 -0.02051685
000100 63 e7 cd bc 4f 16 3a 3a a1 56 43 be 5b d6 18 bf
       -0.025134748 0.0007098661 -0.19076015 -0.5970208
000110 c0 4a 0d 3d b3 73 24 bc d9 c2 27 bd 27 45 17 bd
       0.034495115 -0.0100373505 -0.040957306 -0.036931183
000120 de 17 47 3d bb 39 3b 3c ce 93 c9 bc 9a 1b 71 bc
       0.048606746 0.011427338 -0.024606612 -0.014716053
000130 98 b5 18 bd d9 e4 48 bd 1f ef b6 bc 59 0d 5c 3c
       -0.037282556 -0.04904637 -0.022330819 0.013430917
000140 df f9 64 ba c7 40 8c 3d c8 79 20 be 9a 8c 95 bc
       -0.00087347435 0.06848293 -0.15671456 -0.01825552
000150 8f fd fc bd e7 54 3a 3c 2e 7a 87 bc f3 05 65 3d
       -0.1235305 0.011372781 -0.016537752 0.055913877
000160 0a ed 03 bb 1b fc 4a bd 35 d3 8a bd bb a7 cf bb
       -0.00201303 -0.049556833 -0.06778566 -0.0063371337
000170 21 5d cf 3c f0 eb 11 bd 43 af b2 3d 04 03 13 3d
       0.025312962 -0.0356254 0.08724835 0.035891548
000180 15 e7 ed be 06 60 a8 be be 76 a6 ba 0b b1 cb bc
       -0.46465364 -0.3288576 -0.0012700183 -0.024864694
000190 7a 18 6d bd b5 f3 dd be ad 4c cc c0 13 40 0a 3e
       -0.05788467 -0.43349996 -6.38436 0.13501005
0001a0 24 4a ce 3e ec 68 36 c0 c6 78 45 3e 93 3e 8a 3e
       0.4029094 -2.850154 0.19284353 0.27000865
0001b0 de 26 d1 3d e7 29 ad 3d ce d0 66 bd 65 2b dd bf
       0.102124915 0.08455258 -0.056351475 -1.7278868
0001c0 4a 03 d2 ba d2 ba 33 c0 82 51 43 3d ec aa 3f c0
       -0.0016022709 -2.8082776 0.047685154 -2.9948072
0001d0 49 ca 21 3c 9f 03 d0 3d 74 3b 1f be 1f f3 a2 3e
       0.009874889 0.10156941 -0.15550023 0.31826112
0001e0 51 df 77 c0 ca d7 13 c0 e5 16 af bf ef f0 a3 bf
       -3.8730052 -2.3100457 -1.3678862 -1.2807902
0001f0 28 66 7a ba 12 1e af be dd 12 b3 bd 9f 79 e0 3e
       -0.00095519656 -0.3420263 -0.08743832 0.4384279
000200 3c c5 73 be 37 74 df bd 49 c6 9d bd e9 2a 31 be
       -0.23805708 -0.10910838 -0.077038355 -0.17301525
000210 4a 75 4a bd e6 0b 67 be af 87 47 be aa 2d 11 be
       -0.04942826 -0.22563133 -0.19485353 -0.14177576
000220 0a d2 02 3c c5 3a 53 be 3a d5 d0 3c bf e2 75 bd
       0.0079846475 -0.20627888 0.0254923 -0.060030695
000230 7f 2a e1 bc 80 69 77 bd 85 9e b5 bd 3e 17 00 be
       -0.027486084 -0.060403347 -0.08868126 -0.12508866
000240 df 8b 4b be 21 f0 ce bd 48 4d cf 3d c5 1b 33 bd
       -0.19877575 -0.10104395 0.10122162 -0.043727655
000250 b5 47 7e be 0d 69 ee bd d9 3f 91 bd cd 34 c7 bd
       -0.24832042 -0.116411306 -0.07092256 -0.09726868
000260 be b4 2b bd 05 38 41 bd 5f 7a e3 bc 09 8c 04 bd
       -0.041920416 -0.047172565 -0.027768312 -0.03236011
000270 4f 74 c6 bd 42 21 8a 3b 30 61 aa bd 2c 16 88 be
       -0.09690153 0.0042153904 -0.08319318 -0.26579416
000280 a5 ba 65 bd ce b6 3c be ff eb 8d bd b0 d4 52 c0
       -0.0560862 -0.1842911 -0.06929778 -3.2942314
000290 a8 d1 0a bc cd dc ef bd 06 60 7b be d8 03 da bd
       -0.0084728375 -0.11712036 -0.24548349 -0.106452644
0002a0 5b b4 83 3e 59 04 06 3e 69 7c bd 3e a7 15 aa 3d
       0.25723538 0.13087596 0.3700898 0.08304911
0002b0 a8 b0 cf bd f8 db 7c be d5 ea 35 c0 4f 39 50 3d
       -0.101411164 -0.24693286 -2.842458 0.050835904
0002c0 37 e9 1a bc c9 06 9c 3e 8d ad 33 3e 0d d9 21 be
       -0.009455017 0.30473927 0.17546673 -0.15805455
0002d0 f1 7b 0b bf 70 95 50 3d f7 58 43 be 8d 57 a4 3e
       -0.54485995 0.050923765 -0.19076906 0.32098046
0002e0 db ab 3c bf 0b 83 20 bf 93 72 5f be a2 7e 86 3d
       -0.7369973 -0.62699956 -0.2182105 0.06567122
0002f0 57 e9 17 bd 2c e9 24 3d 3b ce f2 3e 22 06 84 3e
       -0.037087765 0.040261433 0.47422966 0.2578593
000300 7d 29 eb be 69 97 a1 bb dd 54 66 be 24 a2 12 be
       -0.4593009 -0.0049313796 -0.2249331 -0.14319664
000310 30 fb b1 be 34 29 6a be f5 58 2c bf 29 13 07 3e
       -0.34761953 -0.2286728 -0.6732324 0.13190903
000320 ac 42 8f 3d fb ba 90 3c 40 3c 35 bd d1 42 72 be
       0.069951385 0.017667284 -0.044246912 -0.23658301
000330 31 bf e5 be 36 04 08 bd 80 5f 16 bf b5 dd cd be
       -0.4487243 -0.03320714 -0.5873947 -0.40208212
000340 b9 32 6a c0 af ef aa bf 9b 15 f3 3c 4b c7 3f bf
       -3.6593459 -1.3354396 0.029673388 -0.7491347
000350 fd 9b 1b bf 95 7b 93 3c fb 08 1a bd 59 da 84 be
       -0.60784894 0.018003264 -0.03760622 -0.25947836
000360 8a 65 ef be 98 26 3d be 16 97 40 bf 42 cd 90 be
       -0.46757156 -0.18471754 -0.7523054 -0.282816
000370 29 ae 7a be fa 92 42 be e4 9c 72 bd 80 1b 52 be
       -0.244805 -0.1900138 -0.059231654 -0.20518303
000380 5c 76 4b be 4c b1 82 be 94 b1 20 be 3c db 0f be
       -0.1986937 -0.25525892 -0.1569274 -0.14048475
000390 a7 26 40 be b7 23 63 be 6f ae 2b bc 69 f7 27 3e
       -0.18764745 -0.22181593 -0.0104786 0.16402973
0003a0 2d e9 01 bc 61 80 31 be 3d 69 0d 3e ce 15 87 be
       -0.007929129 -0.17334129 0.13809676 -0.26383823
0003b0 50 3f 5f be 6b fe f7 3d bf 0c 45 be 4a 19 63 be
       -0.21801496 0.12109073 -0.19243143 -0.22177616
0003c0 61 52 12 bd 08 be 48 bd e6 88 aa bd dc fa 7a bd
       -0.035723094 -0.049009353 -0.083268926 -0.061274394
0003d0 9b ea 13 be 77 48 98 bd dc aa bd bd 50 da fa 3c
       -0.14444964 -0.074356966 -0.092611045 0.030621678
0003e0 74 d2 6e be d1 b9 79 be 06 ef 84 bc 2e 52 b3 bd
       -0.23322469 -0.2438729 -0.016227257 -0.08755909
0003f0 14 db 65 be 6a cd e0 3c 84 c9 69 bd 67 56 c1 bd
       -0.22446853 0.027441699 -0.057076946 -0.09440308

fc.4.bias f4 [16]
000000 ac 10 df 3c 30 3f c7 3b 02 d0 6f 3f ea 18 3b c0
       0.02722963 0.0060805306 0.9367677 -2.9233956
000010 2d b7 4b be 78 ed f9 bf 82 b8 a9 3f ab 33 16 bf
       -0.19894095 -1.9525595 1.3259432 -0.5867259
000020 f3 b6 2b bf 26 a5 8c 40 19 92 81 3f bb 8d 90 bf
       -0.67076033 4.3951597 1.012271 -1.1293253
000030 07 9e f4 3f 32 70 76 be 0a e8 84 40 65 dd 3e 3e
       1.9110726 -0.24066237 4.153325 0.18639143

fc.5.weight f4 [3, 16]
000000 53 d1 a8 3d 35 6e af b8 27 82 63 b9 4a e8 a2 3a
       0.082430504 -8.365178e-05 -0.00021696893 0.0012428847
000010 15 1f 60 3d b7 b0 c8 b9 ca fc 91 bb 4f 3f 90 bd
       0.054717142 -0.00038278635 -0.0044551836 -0.07043325
000020 b5 4d 35 38 46 3a f8 38 ee 24 12 b9 8c 05 6c 38
       4.3226133e-05 0.00011836416 -0.00013937402 5.627195e-05
000030 fd 5e 90 b9 24 97 4f ba 0d e3 09 b7 3e db d4 b8
       -0.00027536592 -0.0007918945 -8.218701e-06 -0.00010149785
000040 f9 d8 d3 38 31 f3 6e b9 9c 7d 58 3e 24 99 28 b9
       0.00010101678 -0.00022788045 0.21141666 -0.00016078778
000050 cf cd 9d bc f0 f6 05 bd 68 52 5f 3c 15 58 01 3e
       -0.019263176 -0.0327062 0.013630487 0.12631257
000060 60 c5 4c bd 2b 1b 52 b9 6b 55 8f 3e 69 ed 70 3d
       -0.04999292 -0.00020037282 0.27994856 0.058820162
000070 bd 48 72 be e6 b4 bf bd a1 92 9e 3a 69 8f b1 b9
       -0.2366056 -0.093606755 0.0012098142 -0.0003386692
000080 40 46 0a b9 be c2 c9 3d 96 dc db 39 41 92 84 bd
       -0.00013186876 0.09851597 0.00041935284 -0.06473208
000090 08 6c 3c 3d 20 fd 2e 3a c1 ad ed 3e ac 7f 30 3c
       0.046001464 0.0006675292 0.46421626 0.010772627
0000a0 7f 24 73 ba 38 d6 37 be d0 96 eb b9 a4 d9 12 3a
       -0.00092751527 -0.17952812 -0.00044935057 0.0005601889
0000b0 42 05 28 38 83 31 34 bc 34 e6 3f 3e 10 0a ed bd
       4.0059218e-05 -0.010998133 0.1874016 -0.11574185

fc.5.bias f4 [3]
000000 8b 6f a9 39 5d de 04 3f 02 17 c1 3c
       0.00032317298 0.519018 0.023570541
