models/final_model/model_epoch_300.pt (torch, 242162 bytes, 12 tensors)

fc.0.weight f4 [256, 60]
000000 5a a9 58 40 f7 a9 d9 bd 2b 3f a6 3f 33 1f 5c bf
       3.3853364 -0.10628121 1.2988027 -0.85985106
000010 93 fb 84 bf 62 99 2d bf c7 39 06 be c4 bc 3c be
       -1.0389274 -0.6781217 -0.13107978 -0.18431383
000020 cd 04 2a bf f9 9f bc be 16 04 7b c0 b4 f5 0f c0
       -0.66413575 -0.368408 -3.9221244 -2.2493715
000030 c6 6d e4 be a7 d7 0c bf 30 4d 9f 3e 79 4d 96 3f
       -0.44615 -0.5501656 0.31113577 1.1742393
000040 af d4 59 c0 41 46 43 bf 73 e5 90 be 8c 5b cf bf
       -3.4036062 -0.76279074 -0.28300056 -1.6199813
000050 17 70 bd bf 43 21 c0 bf ec e8 a2 be 45 20 65 3f
       -1.4799832 -1.5010151 -0.3181833 0.89502364
000060 fb 1e 7e 3d 41 5a b8 3d a2 14 d5 3d c1 1c 9a bc
       0.062041264 0.090015896 0.10404326 -0.018812539
000070 10 97 b4 bd 58 d6 07 3e c7 71 2b 3e 19 c5 63 3e
       -0.088178754 0.1326536 0.16742621 0.22243156
000080 63 b6 b2 3d 28 0b 9e 3d eb 84 40 bd 42 ae 51 bc
       0.08726194 0.07716972 -0.04700176 -0.012797894
000090 58 56 0d 3e fc b9 64 3c 5c c9 bb bd bd d6 2b 3c
       0.13802469 0.013960358 -0.09169266 0.010488209
0000a0 f6 b2 90 bb 4f d3 bb bd 97 74 bc 3a 7d 9e 8f bd
       -0.004415865 -0.09171163 0.0014378008 -0.07012651
0000b0 5d d3 07 bc e0 bd cc bb 87 fa 3f 3d 99 02 4e bd
       -0.008290139 -0.006248221 0.04686978 -0.050295446
0000c0 49 7a ee bc 31 d3 53 bd f0 da 0f be a0 37 a8 3c
       -0.029111044 -0.05171508 -0.14048362 0.020534337
0000d0 15 f1 f8 3b 7a af 34 bc ad 85 58 bd fd 43 87 bd
       0.0075970986 -0.011028165 -0.05286186 -0.066047646
0000e0 27 bd f2 ba a7 d4 f4 3c 7e 9a 30 bd c5 ca 23 bb
       -0.0018519507 0.029886557 -0.043116085 -0.0024992686
0000f0 e3 2d bf 3f 14 de cf 3f 44 7b 2e 40 8c 95 c3 3f
       1.4935879 1.6239648 2.7262735 1.5280013
000100 3c 1e 54 c0 39 a0 0b c0 33 e5 8c be b4 3f 72 3f
       -3.3143454 -2.1816542 -0.27518615 0.94628453
000110 9d 76 95 3f 7e a8 0e 3f 33 89 15 be 39 a3 4e 40
       1.1676823 0.5572585 -0.14603119 3.2287123
000120 ed 00 b7 3f 2a 5b ac 40 87 80 58 3f e0 11 f7 3f
       1.4297158 5.3861284 0.8457112 1.930233
000130 95 de 87 3e b6 f2 1c c0 a0 34 f6 bf fb 8e ed bf
       0.26537004 -2.452314 -1.923481 -1.8559259
000140 89 6f 5e bf de ec cd bf 9b 4a 88 be 08 11 6f bf
       -0.8688894 -1.6087911 -0.2661942 -0.9338536
000150 a0 98 16 3d e2 51 d4 3e 3b 95 67 3f 05 52 e8 3e
       0.03676665 0.41468722 0.9046208 0.45375076
000160 71 44 d1 3e 5e a2 ce 3e b7 e8 93 3e 51 11 b5 3e
       0.4087253 0.4035825 0.28888485 0.35364774
000170 03 05 c0 3e 67 fe ea 3e 21 87 37 3e 0d b4 e7 bc
       0.37503824 0.4589722 0.17922641 -0.028284097
000180 e3 28 77 bc 64 21 b9 bd b3 52 1c 3e 9f 73 a3 3e
       -0.015085432 -0.09039572 0.15265922 0.3192415
000190 a5 32 d1 bd 99 64 91 3e 4c 6e 7a be 8f 00 b6 3d
       -0.10214738 0.28397062 -0.24456137 0.08886825
0001a0 65 d0 c0 3d b7 f7 ca bd 74 15 5c 3e 54 c2 e3 3d
       0.09414748 -0.09910529 0.21492559 0.111210495
0001b0 35 16 2b 3e 38 93 0b 3d 5f 15 5c bc 8d 8f 39 3d
       0.1670769 0.034075946 -0.01343283 0.045302916
0001c0 c8 a2 07 3d 43 2c 9e 3e cf 01 8a 3e d3 4a 99 3e
       0.033114225 0.30893144 0.26954505 0.299399
0001d0 54 dd b5 bd f4 51 e5 3c 54 d9 8b 3d c1 ef a7 3d
       -0.088801056 0.02799318 0.068285614 0.08200026
0001e0 0a 56 4d 3f 4f f7 87 3f 0d 2d 38 3f e3 e1 69 bf
       0.8020941 1.0622348 0.7194374 -0.913603
0001f0 f8 1c e9 3e 6b 4d 70 bf 3b 1a 2c bf 0f 82 c7 bf
       0.45529914 -0.9386813 -0.67227525 -1.5586566
000200 f3 9a 4e bf e2 4a ed 3f f7 ea f9 3f bf 49 3e 40
       -0.80705184 1.8538477 1.952483 2.973251
000210 95 11 44 3e ab 30 5b 40 43 37 0f be d7 19 9d 40
       0.19147332 3.4248455 -0.13985924 4.9094043
000220 69 85 18 bf f5 26 24 c0 eb 13 e9 bf 44 a4 98 bf
       -0.5957857 -2.5648777 -1.8209203 -1.192513
000230 c7 84 8e 3f 0e 2a 5c ba 86 70 03 3f dc 39 46 3e
       1.113427 -0.00083986006 0.5134357 0.19358009
000240 07 37 e0 bd 4c 93 c6 3d b4 a4 e2 bd 6b 43 86 bc
       -0.10947996 0.096960634 -0.11066571 -0.01638957
000250 42 7f bd 3e a2 f1 f9 be 67 79 8d 3d e6 c7 e8 3e
       0.37011153 -0.48817164 0.06907921 0.4546501
000260 21 67 04 3f a6 d0 53 3e b8 34 1c 3d d1 96 92 3d
       0.5171986 0.20685062 0.038136214 0.07157672
000270 65 4f 34 be cd 15 cf bd 61 ca 67 bf 85 72 b2 bd
       -0.17608412 -0.1011158 -0.9054318 -0.08713249
000280 69 ea 57 3d cf d8 c9 bd 76 5d cd bc 49 2e 2a 3e
       0.052713785 -0.09855806 -0.02506898 0.16619219
000290 97 59 97 3f c2 fc 40 3f d4 96 54 be e7 fd 75 3d
       1.1824216 0.7538568 -0.20760661 0.060056593
0002a0 72 bf a5 3e cf ca 05 be ca 5b 13 be 45 a4 6c be
       0.32372624 -0.13065647 -0.14390483 -0.23109539
0002b0 8c 64 52 be 3a 80 5d be 67 ba e8 be 7a 6f 2a 3f
       -0.20546168 -0.21630946 -0.45454714 0.6657635
0002c0 41 5c 1b 3d d4 08 6f be 24 79 fc bd a7 f4 e3 bd
       0.037929777 -0.23343211 -0.12327793 -0.11130648
0002d0 35 1e 04 c0 f1 b6 a2 40 d7 02 44 c0 77 f6 64 bd
       -2.0643437 5.0848317 -3.0626733 -0.05589911
0002e0 dc 5c 8e 3f 70 64 14 3f 8d 27 c7 bf c2 47 66 3e
       1.1122088 0.57965755 -1.5558945 0.22488311
0002f0 e6 5d 3d 3e dd 6c a9 3f 03 c5 04 3e 10 6d 36 40
       0.1849285 1.3236347 0.12965779 2.8504066
000300 42 a3 e9 3f 58 ee e1 3f 08 d9 be bd 2a e5 e3 bf
       1.8252947 1.7650862 -0.09318739 -1.780431
000310 40 a3 61 40 41 e2 71 be 77 ce fb 3e 63 d9 28 3f
       3.525589 -0.23621465 0.49180958 0.65956706
000320 92 95 66 3e 7f 7f ee bc 7c 50 e1 3c 32 b0 e6 3f
       0.22517994 -0.02911353 0.027504198 1.802252
000330 b5 a3 88 3c fe 8f d8 3d 15 c9 d9 3d a1 09 42 3e
       0.016679624 0.10574339 0.106340565 0.18948986
000340 27 1d b8 3e fb ef fe 3d a6 f6 6d 3f c4 03 3d 3e
       0.3595974 0.124481164 0.9295448 0.18458468
000350 a2 bd d7 bd d3 a9 cb 3c 5b 99 96 3b a9 94 c2 3f
       -0.105342165 0.024861252 0.004595918 1.5201617
000360 ae c7 7d 3c 47 45 11 3e 04 59 48 3e 41 b0 12 3d
       0.015489502 0.14186583 0.19565207 0.03581262
000370 d3 c8 bc bd a3 37 97 bd be 6d 44 bd 3f 2c fd 3d
       -0.09217992 -0.07383659 -0.04795622 0.12361955
000380 aa a4 59 bc 3e 46 4e bd 91 28 d6 3d bb e8 43 3d
       -0.013283888 -0.050359957 0.10456956 0.04782937
000390 f6 99 64 bc 79 6c 8c 3d d1 0d 04 bd 40 32 22 bd
       -0.013952723 0.06856627 -0.03223974 -0.039598703
0003a0 cc c8 43 bd 3b dc 26 3c 02 ad f6 3d 4e b2 52 bc
       -0.047798917 0.010184343 0.12044717 -0.012859894
0003b0 e5 13 9c 3d 01 67 29 3d 93 e2 cc 3a 51 32 a0 bb
       0.07620982 0.041357998 0.0015631489 -0.0048888107
0003c0 9c d1 2f bf 18 bb ae c0 3b 4c fa bd 52 90 bd bf
       -0.68679214 -5.4603386 -0.12221571 -1.4809668
0003d0 29 b7 c2 bf f8 a1 a6 bf bb 5c 46 bf 40 c0 a0 bf
       -1.5212146 -1.3018179 -0.77485245 -1.255867
0003e0 37 d2 8f 3f e0 3e 4b 3f 64 a7 45 3f a4 16 a4 c0
       1.1236027 0.79392815 0.7720854 -5.1277637
0003f0 ca a9 93 40 1b 87 9f 40 bb 52 0f 40 b1 df 18 c0
       4.614476 4.9852424 2.2394245 -2.388653

fc.0.bias f4 [256]
000000 94 af b3 c0 2c 71 56 c0 18 77 80 c0 ed d9 e0 bf
       -5.615183 -3.3506575 -4.014538 -1.7566506
000010 f9 b9 77 c0 e4 dd 0a c0 d1 f5 08 c0 88 ac 18 c0
       -3.8707259 -2.1697931 -2.1400034 -2.3855305
000020 2f 76 a2 c0 9e 1b 9f bf 8c 2b f0 bf 22 75 a4 bf
       -5.0769267 -1.2430303 -1.876329 -1.2848246
000030 b5 55 df 3d 4e 45 66 c0 09 48 f4 bf fb 22 7c c0
       0.10905019 -3.59798 -1.9084483 -3.939635
000040 5d e7 40 c0 0d 5c 15 3f 25 d3 c1 c0 f4 e2 12 c0
       -3.0141213 0.58343583 -6.0570245 -2.2951021
000050 34 8d af 3f da e1 dc bf a2 8e 99 c0 b0 72 79 c0
       1.3714967 -1.7256424 -4.798661 -3.897625
000060 53 24 46 c0 fb cd 1c c0 c8 86 a4 c0 7b 68 e5 bf
       -3.095967 -2.450072 -5.141453 -1.792251
000070 ad 3f 09 c0 a0 cb 1b 40 13 3c 77 c0 56 06 ba c0
       -2.1445115 2.4343033 -3.8630416 -5.8132734
000080 c7 d7 ab c0 d0 fb 34 40 b7 d5 eb c0 2b 81 94 c0
       -5.37009 2.8278694 -7.369838 -4.6407676
000090 ae 4c ae 3e d9 bf 03 c1 70 d1 06 bd 25 d1 39 c0
       0.34042877 -8.234338 -0.03291458 -2.9033902
0000a0 16 bb 90 c0 77 6e 76 c0 b9 7d 6f be be e2 d9 40
       -4.5228376 -3.8504922 -0.23387803 6.8089285
0000b0 37 0b 26 c0 2e 23 2c c0 2f 3d 93 3f c4 5b 63 c0
       -2.5944345 -2.6896472 1.1503047 -3.552476
0000c0 ef 4e 3c 3e 53 c9 46 bf 17 8b a9 c0 32 ce a3 c0
       0.18389486 -0.77650946 -5.2982287 -5.1189203
0000d0 1c 86 20 c1 23 d4 f1 c0 4c f1 13 c0 eb 6e c2 c0
       -10.032742 -7.5571456 -2.3116026 -6.07604
0000e0 cc f8 8a c0 85 de 84 c0 18 d5 ff bf ad 7f 01 3e
       -4.3428707 -4.152163 -1.9986906 0.1264636
0000f0 d9 6c a0 3f e7 0c 79 c0 0e c1 aa bf b3 a5 b3 c0
       1.2533218 -3.8914125 -1.3340166 -5.613977
000100 c0 af 19 bf 27 68 6f c0 51 e5 8f c0 4c 34 e7 3d
       -0.600338 -3.740732 -4.4967427 0.11289272
000110 28 b0 84 c0 f0 67 95 bf 3d 59 0d c0 36 98 b0 c0
       -4.1465034 -1.1672344 -2.2085717 -5.5185804
000120 ae 46 93 c0 df 8b ba c0 bf d3 5f c0 29 3e 99 c0
       -4.602378 -5.829574 -3.497299 -4.788838
000130 63 fc 6b c0 8a d1 d3 c0 fe e9 ff c0 d3 5f 40 3f
       -3.6872795 -6.6193285 -7.9973135 0.75146216
000140 2b ec 29 c0 80 d9 b7 bb 1c 91 e0 c0 eb 21 1f c0
       -2.6550395 -0.005610645 -7.0177135 -2.4864452
000150 bc 2e 5c c0 f6 d7 9e c0 03 cf 18 bf e7 29 85 c0
       -3.4403524 -4.9638624 -0.59690875 -4.161365
000160 46 15 36 c0 80 33 d1 c0 61 c7 ce bf b5 48 e3 bf
       -2.8450484 -6.5375366 -1.6154596 -1.7756563
000170 b3 03 7e c0 d8 13 ed 3f 25 8a 74 c0 c0 25 60 bf
       -3.9689758 1.8521681 -3.8209317 -0.875576
000180 15 67 67 bf 3f 6d 83 bf 12 9b 20 40 2e 14 e8 c0
       -0.90391666 -1.0267714 2.5094647 -7.2524633
000190 5a ac 11 bf 2e d3 b7 c0 06 44 fa bf 57 f8 b0 bf
       -0.5690361 -5.744529 -1.9552009 -1.3825787
0001a0 4b a0 12 c0 0c e4 a1 c0 76 f8 96 c0 b4 e8 41 c0
       -2.2910335 -5.0590878 -4.7178297 -3.029828
0001b0 69 79 ac c0 b3 a9 40 c0 43 57 85 c0 5e 2f 1f c0
       -5.3898206 -3.0103576 -4.166902 -2.487266
0001c0 8a 9c 9e bc 79 48 e4 bf ce 1b 9c c0 e2 28 9f bf
       -0.019361753 -1.7834617 -4.878394 -1.2434351
0001d0 64 bb 8d bf 6f db ee bf 39 63 d3 3e 38 12 0a bf
       -1.1072812 -1.8660716 0.41286638 -0.5393405
0001e0 73 76 89 3e d6 b3 38 bf 6d 55 8d c0 a8 8d ce c0
       0.26848182 -0.7214941 -4.416678 -6.454792
0001f0 97 73 c2 c0 1c 87 2e c0 bf 8d 88 c0 89 16 87 c0
       -6.07661 -2.7269964 -4.267303 -4.221501
000200 ba 2b 0e c0 35 8a 5f 40 25 b1 da 3f 3b 8a 89 c0
       -2.2214189 3.4928105 1.708531 -4.298124
000210 fb 57 79 c0 87 84 8d c0 15 00 b1 c0 43 51 92 c0
       -3.895995 -4.4224277 -5.53126 -4.5724196
000220 e8 88 d5 be 90 ef ac 40 9d 9e 43 c0 a0 7c ec bf
       -0.41706014 5.4042435 -3.056556 -1.8475533
000230 58 46 0f 3f dd be 16 c0 19 d1 43 c0 eb da 24 bd
       0.5596671 -2.3553994 -3.0596373 -0.04024784
000240 7a 91 0a 3f a5 a4 d0 40 e6 3f 29 c0 02 38 48 c0
       0.5412823 6.520098 -2.644525 -3.1284184
000250 51 c6 13 c0 4b 7b 2b c0 a2 10 1b c0 84 e0 3b c0
       -2.3089793 -2.6794002 -2.4228902 -2.9355783
000260 5f 25 1a c0 16 68 38 c0 7b da 8e c0 ff 46 84 c0
       -2.408531 -2.881353 -4.46417 -4.1336665
000270 16 d6 6b be 8c e6 e1 c0 4f c5 84 c0 35 72 59 40
       -0.23030886 -7.059393 -4.1490855 3.3975956
000280 88 f3 09 40 a8 3f 7b bf 93 ad 9d 3f ff db 08 bf
       2.155489 -0.98144007 1.2318596 -0.5346069
000290 16 b4 8c c0 d9 19 7b bf 20 7a 60 c0 94 f1 84 bf
       -4.396983 -0.98086315 -3.507454 -1.0386224
0002a0 35 63 41 c0 ff 98 16 c0 fb ac 73 3d 1e 06 a5 c0
       -3.02168 -2.3530881 0.05949114 -5.1569967
0002b0 db 98 3d c0 bb 15 95 bd 2b 4d b0 c0 6e fd 37 c0
       -2.9624546 -0.072795354 -5.50942 -2.8748431
0002c0 74 5c 69 bf a0 f9 38 c0 e9 d4 f4 be 8e 13 89 be
       -0.911567 -2.890236 -0.47818688 -0.26772732
0002d0 77 89 43 3e e9 f2 31 c0 88 65 b3 c0 bd be a7 c0
       0.19095407 -2.780451 -5.606144 -5.2420335
0002e0 97 b8 f4 be 6e 66 8d 3e 32 1a 02 3f ae a4 96 c0
       -0.4779708 0.2761721 0.5082122 -4.7076025
0002f0 89 67 83 c0 d6 c8 8c 3e 76 ed 28 c0 44 89 77 c0
       -4.1063886 0.27496976 -2.6394935 -3.867753
000300 47 d3 0e bf ce ec 3d c0 d6 14 87 3f 91 26 12 c1
       -0.55791134 -2.9675784 1.0553234 -9.134416
000310 bc f0 1b 40 fb 6d eb bf 6f 8d 86 c0 06 0d 84 c0
       2.4365683 -1.8392938 -4.204765 -4.12659
000320 76 28 b0 c0 e8 ac 92 c0 13 df a8 bf 88 03 2d c0
       -5.504939 -4.5836067 -1.3193077 -2.7033405
000330 da 75 29 c0 85 6e ae bf da cc a7 bc 8e 90 d7 c0
       -2.647818 -1.3627478 -0.020483423 -6.736396
000340 d7 8c 14 bf 3c 49 81 40 9d f5 e2 be 4c a7 7e c0
       -0.58027405 4.0401897 -0.44328013 -3.978961
000350 d9 4c 6d bf bd 73 56 40 17 f6 02 c1 b6 73 e0 be
       -0.92695385 3.350814 -8.185081 -0.4383828
000360 ce 6d 77 be 1e 49 6e bf 22 4a 40 40 94 82 8e c0
       -0.24162981 -0.9308032 3.0045247 -4.4534397
000370 28 9b aa bf c2 a8 c7 c0 0d 13 0b bf 74 13 d7 c0
       -1.33286 -6.2393503 -0.54325944 -6.7211246
000380 c6 d3 5d c0 cf 12 57 c0 2c 1e 8b 3f 58 6f db c0
       -3.4660506 -3.360523 1.0868583 -6.857342
000390 c5 4f 45 3f ef 48 90 3f 5a 54 1a c0 8e f0 34 c0
       0.77074844 1.1272258 -2.4113984 -2.8271823
0003a0 85 a3 7e c0 ff 05 76 bf 8a d4 1d 3c 01 1b 65 c0
       -3.9787304 -0.961029 0.009633193 -3.5797732
0003b0 3e e9 3c bf 23 8c 06 c0 b3 0c d8 bf 99 20 98 c0
       -0.737934 -2.1023033 -1.6878875 -4.753979
0003c0 db 5f 13 c0 46 02 8d c0 43 8d 4f c0 6b 8e 9a c0
       -2.3027256 -4.4065275 -3.242997 -4.829885
0003d0 8d ea 15 bf 1d 49 a4 be aa d4 0a c1 03 a2 d0 c0
       -0.5856102 -0.3208703 -8.67692 -6.519777
0003e0 e4 fb 0d c0 77 79 f5 40 fe a3 47 c0 a3 14 89 bf
       -2.2184992 7.6710773 -3.1193843 -1.0709423
0003f0 5d d1 af bf 26 dd b3 c0 e6 09 dd c0 18 c2 bd c0
       -1.3735768 -5.6207457 -6.9074583 -5.929943

fc.1.weight f4 [128, 256]
000000 ac 15 d9 3c 55 55 2f bd 49 77 5c bc 97 27 3b bb
       0.026499592 -0.04280599 -0.013456174 -0.0028557533
000010 4a bc 92 bd 67 87 a2 bd a4 53 4a bd 49 90 89 bd
       -0.071648195 -0.07935982 -0.049396172 -0.06716973
000020 3a 6a 8a bd 80 ac 1d 3d ef 22 7d bc fb b1 b3 bd
       -0.06758542 0.038494587 -0.015450223 -0.087741815
000030 82 9d d9 3c 51 85 05 3d 2a c6 45 bc 46 0b 3d 3d
       0.026564363 0.032597844 -0.012071172 0.04615333
000040 38 bd 15 3b a8 54 a0 bc 2b 54 db bc b0 b5 8b bc
       0.002284838 -0.019571617 -0.026773533 -0.017054409
000050 37 ff 7b 3c bd 3d 85 bc c3 df 1d bd a1 16 d8 3b
       0.015380672 -0.01626479 -0.038543474 0.0065944945
000060 49 44 60 bd 14 f6 4a bd c4 1a b4 bd d5 9d 36 bd
       -0.05475262 -0.049551085 -0.08794168 -0.044584114
000070 57 ae 05 bd 57 b2 86 bc 20 73 e3 bc 13 0b 5a bd
       -0.032636967 -0.016442461 -0.027764857 -0.053233217
000080 98 8b 1f bd 11 5f 81 bd dd 9f 43 3d b5 46 f4 bc
       -0.038951486 -0.063169606 0.04775988 -0.029818872
000090 f3 dc d3 3c dc 0b de bc 4e df 6f bd 01 fc 26 3d
       0.025862193 -0.027105264 -0.05856257 0.040767673
0000a0 ef d7 af bd 86 e0 81 bd 82 2f 0d bd ce 72 ba 3b
       -0.08586108 -0.063416526 -0.034469135 0.0056899553
0000b0 cc 47 70 bb 71 4e f6 3c 16 fa 2e 3d 7f 81 51 bd
       -0.0036663888 0.0300667 0.04271897 -0.051148888
0000c0 37 c8 34 bd 30 33 92 3b 14 9b 79 bd 19 f6 5c 3d
       -0.044136252 0.0044616684 -0.06093891 0.053945635
0000d0 f1 cd 8e bd 88 96 37 bd ef c4 ca 3b a3 e4 8e bc
       -0.06972874 -0.044821292 0.006188027 -0.017443007
0000e0 1b 9d 74 3d 0f 92 62 bd 06 ce 97 bd fa 65 98 bd
       0.05972014 -0.055315074 -0.07412343 -0.074413255
0000f0 50 5f 39 3d 0e 9c 99 bc ce 4f 42 bc d7 47 d1 3c
       0.045256913 -0.01875117 -0.011859847 0.025546951
000100 95 10 82 bd e9 c5 80 3c d8 4e 4d bd 15 4b b4 bd
       -0.06350819 0.01571937 -0.05012402 -0.08803383
000110 3f 79 9f bd bf ff fa bc ad 41 c4 bc 10 c8 1a bc
       -0.07786798 -0.030639527 -0.023957098 -0.009447113
000120 88 21 9c bd 03 55 f0 bb 36 17 aa bc 13 bf 78 3c
       -0.07623583 -0.007334353 -0.020763021 0.015182274
000130 82 42 e5 bc 58 2d a8 bc c1 68 32 bd ac 41 a3 bd
       -0.027985815 -0.020529434 -0.043556932 -0.0797151
000140 bf 46 38 3d 35 31 71 bd 37 9e 84 ba c5 da fc bc
       0.044989344 -0.058884818 -0.0010117952 -0.030866036
000150 9f b3 89 bc 70 c7 8b bb e2 a2 0a bd de 4a 9e 3b
       -0.016809283 -0.004265718 -0.033846743 0.004830702
000160 26 06 c5 bc b7 45 12 3c eb 53 98 bc fa 10 64 bd
       -0.024050783 0.008927754 -0.018594703 -0.055680253
000170 be c1 32 3d df ed f3 3b 20 49 94 bc 95 d4 a9 bc
       0.0436418 0.007444128 -0.018101275 -0.02073125
000180 cb 1a be bb f4 fe 90 bd 7f d2 85 bd 87 21 c0 3c
       -0.005801534 -0.070798784 -0.065342896 0.023453487
000190 de a3 86 bc c1 58 58 bb c4 16 7d bb 60 a2 93 bd
       -0.01643556 -0.0033011886 -0.0038618306 -0.07208705
0001a0 60 07 bf bd 86 b9 05 3d aa 89 11 3d 0e b5 a9 bd
       -0.093275785 0.032647632 0.035531677 -0.082864866
0001b0 fe da 7e bd 2b 3b 86 3c 16 1c 2b bc 5c 75 33 3d
       -0.062220566 0.016385635 -0.010443708 0.043813094
0001c0 d8 c4 1e 3c fd de 88 3c 81 d1 e9 bc 14 ba 03 bd
       0.009690486 0.016707892 -0.028542282 -0.03215988
0001d0 c5 fb ca ba e1 df 81 3c 45 d7 02 bd dc 63 12 bd
       -0.001548641 0.015853824 -0.03194358 -0.035739765
0001e0 9e 97 96 bd 6b c8 19 bc d9 29 ec 3a 5b fe ac bc
       -0.073531374 -0.009386162 0.0018017843 -0.02111738
0001f0 bd e9 b8 bc 81 77 ba bc 58 43 f0 3c c6 31 95 bb
       -0.022572393 -0.022762062 0.029328987 -0.0045530526
000200 bb d6 0c bb f4 ae 54 bd 87 ad 32 3c c4 21 62 3c
       -0.0021490294 -0.05192466 0.01090563 0.013801996
000210 1b 87 a5 bd 33 8f 5d bd 35 b6 13 bc cd 08 c4 3c
       -0.0808241 -0.054091644 -0.0090156095 0.023929978
000220 f9 7b b9 3c c6 ba f3 bc 67 cf 4f 3d 16 12 c5 bd
       0.022642123 -0.029752146 0.050734904 -0.0962259
000230 86 3a 3a 3c 00 4e 7c bc 09 1f 0b bd c9 c8 9f bd
       0.011366492 -0.015399456 -0.033965144 -0.078019686
000240 c0 51 8c bd 33 0e b2 bd 71 23 18 bd 13 35 ad bc
       -0.0685153 -0.086941145 -0.037143175 -0.021143472
000250 0b 2b 47 bd 60 c3 9a bd 5c c6 08 3d b1 46 78 bd
       -0.048625033 -0.07556796 0.033392295 -0.06061429
000260 70 e1 59 bc 1d 9c 88 3b 5c 56 6d bd d4 a5 0e bb
       -0.013298377 0.004169001 -0.057943687 -0.0021766322
000270 e0 2a ef b9 ee 5b 49 bb 62 28 29 b9 42 0a 6c bd
       -0.00045617577 -0.003072496 -0.0001613214 -0.05762697
000280 50 db dc 3c f5 c7 92 bd 61 32 14 bd d5 4c 96 bc
       0.026960045 -0.07167045 -0.036180858 -0.018347183
000290 ab c9 1a bd e5 e9 ee 3c 8e d4 85 bd 7d 87 fd 3c
       -0.03778998 0.029164264 -0.06534682 0.030948395
0002a0 36 f9 01 bd aa 98 0a bb 78 41 9c bd de 55 7f 3a
       -0.031731807 -0.0021148124 -0.07629675 0.0009740273
0002b0 14 6f a0 3c 5d 66 8b bd 01 57 07 bc 11 35 b7 bb
       0.019584216 -0.068066336 -0.008260489 -0.005591043
0002c0 35 7c 20 3d 27 f9 99 3c 71 3e 93 bd 5d d1 90 bd
       0.039180953 0.018795563 -0.07189644 -0.07071183
0002d0 ed 79 2b bd d6 cc ec bc af c8 a0 3b 22 bf a5 3b
       -0.041864324 -0.028906267 0.004906736 0.005058185
0002e0 58 a1 a2 bd 2a b8 59 bd 2a f6 55 bc 23 81 a9 bd
       -0.0794093 -0.05315415 -0.013059178 -0.08276584
0002f0 a4 58 4d bd 2b 5c b6 bc d0 55 05 bd 41 4f c4 3c
       -0.050133362 -0.022260746 -0.03255254 0.023963572
000300 5f 32 9f bd 1e 28 38 bd 18 53 c2 bd 6c cc a9 bc
       -0.077732794 -0.044960134 -0.09488505 -0.020727359
000310 d6 68 16 3d 56 37 b2 3c 05 16 b8 bc 2f 6d 81 bd
       0.036721073 0.021754902 -0.022471437 -0.06319653
000320 5c 95 7d bd 45 78 54 bd bb 26 2e bc e5 bc f4 3c
       -0.06191002 -0.05187251 -0.010629351 0.029875228
000330 f9 01 a8 bd ad cb 10 bc 1c 3b 08 bd 9f 5b a4 bd
       -0.08203501 -0.008837623 -0.033259496 -0.08025288
000340 7a 8c 99 bd d2 24 f2 3c 86 67 60 bc 57 30 91 3c
       -0.07497497 0.029558573 -0.013696557 0.017723246
000350 5f c7 ab 3c b2 a5 05 bd 38 9d a7 bc 91 7f 76 bd
       0.020969091 -0.032628722 -0.02046071 -0.06018025
000360 7a fe 63 bd 81 3f 1d 3b d1 cf 7d bd c1 7b 6d bd
       -0.05566261 0.002399415 -0.061965767 -0.05797935
000370 87 f2 21 bd ac 81 a5 bd 59 ac e7 bb 9b dc 2c 3c
       -0.039537933 -0.080813736 -0.007070106 0.010550643
000380 70 a0 63 bd bc c4 35 bc 89 85 36 bd fb e7 43 3b
       -0.055572927 -0.011094268 -0.044560943 0.002989291
000390 99 79 92 bc 27 b0 10 bd f0 b6 2d bd 9f 83 38 bd
       -0.017880248 -0.035324242 -0.04241079 -0.0450474
0003a0 4c ab d7 bc c5 6d 8a bd 91 54 4b bc 72 1a 65 3c
       -0.026326798 -0.06759218 -0.012410299 0.013983356
0003b0 22 bb a6 3c 89 e2 9a bd 97 ec e0 bd 68 d7 a5 bc
       0.020352904 -0.075627394 -0.10982626 -0.020244315
0003c0 3f 21 a2 3c d2 af 18 3d 3b 37 a6 bd 71 c0 1d bd
       0.019791244 0.03727705 -0.08116003 -0.038513605
0003d0 96 68 1a bd c9 29 02 39 0d ff 8a bc b2 31 05 bd
       -0.037697397 0.00012413332 -0.01696732 -0.032518096
0003e0 2e 3e a7 bd 00 33 05 ba 94 f2 36 bd 33 43 a9 bd
       -0.08166157 -0.0005081147 -0.044664934 -0.0826477
0003f0 c1 aa 5c bc 38 72 25 bd f0 d5 79 bd 24 a0 c5 bc
       -0.013468445 -0.04039213 -0.060995042 -0.024124213

fc.1.bias f4 [128]
000000 05 7c a8 3b b9 ef 8a bf c8 3e fa 3f 97 0b 10 40
       0.0051417374 -1.0854408 1.9550409 2.2507074
000010 d0 fb 43 3c fe f6 99 3e d0 b3 a9 bd f2 c4 b5 3f
       0.011961892 0.30071253 -0.0828625 1.4200728
000020 28 44 90 bd 68 4d bc 40 e3 0e 93 40 84 6e 17 c0
       -0.0704425 5.884449 4.595567 -2.3661203
000030 a2 8c d9 3c 98 38 a0 40 52 cf 20 c0 01 6f 43 c0
       0.026556317 5.0069084 -2.5126538 -3.0536501
000040 66 b4 49 41 35 c2 57 40 38 0b 8a 3b 3e b5 23 bd
       12.606543 3.3712285 0.004212763 -0.039967768
000050 e6 eb 57 3e ce c1 e9 bf 26 87 8b c0 64 24 8d 40
       0.21086082 -1.826227 -4.3602476 4.410692
000060 f3 65 20 40 c3 3a b6 c0 44 8d 06 bf 97 b9 7c be
       2.5062225 -5.694673 -0.52559304 -0.24680172
000070 7d 33 09 3f fd 08 90 3f 38 7a c4 bf 08 7d 09 40
       0.5359419 1.1252743 -1.5349798 2.1482563
000080 8d 9a e8 c0 65 9e 0c bd bf 6b f7 3f 80 4e 3a 3f
       -7.268866 -0.034330744 1.9329756 0.7277603
000090 63 0a dd 3e ed 9c 4a 40 0b 05 06 3f 78 08 12 40
       0.43171987 3.165828 0.52351445 2.281767
0000a0 1e 71 64 bf 12 94 83 c0 53 74 a1 40 12 a8 95 bd
       -0.89235103 -4.111825 5.0454497 -0.073074475
0000b0 29 77 51 40 da f3 a2 bd d6 2a 94 3f 2c b8 13 41
       3.272898 -0.07956667 1.1575572 9.232464
0000c0 2a 02 4c bf 50 b1 e1 bf f3 f8 0c 40 eb 6b 96 bd
       -0.796908 -1.7632236 2.2026947 -0.073448025
0000d0 f2 18 57 c0 c7 fb 89 bc 6d 85 82 bd 84 9c 35 bf
       -3.3608975 -0.01684369 -0.06373105 -0.7094195
0000e0 98 e0 4b c0 77 e2 80 40 2f 65 a5 bc e6 0f 22 40
       -3.185583 4.0276446 -0.02018985 2.5322204
0000f0 f2 35 bd 3a 9a ca 53 c0 d8 ec 47 40 8d 8a ea be
       0.0014435633 -3.3092408 3.1238308 -0.4580883
000100 3c e9 93 3f 9d 44 5c bc 48 f9 80 bd fe f7 34 c0
       1.1555552 -0.013444093 -0.062975466 -2.8276362
000110 e1 c6 c3 40 02 2a 2b 3c c0 d0 a4 40 c6 82 b7 bd
       6.118027 0.010447027 5.150482 -0.0896049
000120 b1 f8 6b c0 1a 99 2b bd 94 72 91 3f 04 db 43 bf
       -3.687054 -0.041894056 1.1363091 -0.76506066
000130 52 90 a0 bd f7 db 5b 3c 7b c5 0c 3f e7 b5 f2 3f
       -0.07840027 0.013419143 0.5498883 1.8961762
000140 9c ee 9a bf ee 4c 5c 40 c1 02 51 3f d7 9d b5 40
       -1.2104068 3.4421954 0.8164483 5.6755176
000150 95 4b 4a 3e 4b e3 52 be 36 ed 97 bd 23 07 41 40
       0.19755395 -0.20594518 -0.07418291 3.0160606
000160 a5 c2 55 3c 81 dd 0c c0 bc bd 43 40 52 31 c8 bf
       0.013046895 -2.2010195 3.0584555 -1.5640051
000170 41 b1 71 40 91 8b ea 3a 57 27 14 40 be b7 07 c1
       3.7764437 0.0017894377 2.314901 -8.482359
000180 26 dc b6 3f a6 b2 5d bf 4a ea b6 bd 87 0d 23 40
       1.4285934 -0.8660072 -0.08931406 2.5477006
000190 92 43 a5 40 2b f7 43 3f fa a9 e0 3f 17 83 0f bf
       5.1644983 0.76549023 1.7551873 -0.560594
0001a0 2f 11 c2 40 a7 46 b1 3e a4 6d d6 3f 94 48 54 bd
       6.0645976 0.34624216 1.675221 -0.05182703
0001b0 ce 59 0c bd 5b 46 54 bd bb 79 6f 40 ba 6e 99 bd
       -0.034265332 -0.05182491 3.7418048 -0.074918225
0001c0 76 6f 8a 40 04 49 c2 40 f3 87 d9 3c 33 a8 30 bc
       4.326106 6.071413 0.026554083 -0.010782289
0001d0 a4 39 0c bf 49 18 68 3c 64 86 67 c0 2f 18 1e 40
       -0.5477545 0.014165946 -3.6175776 2.470226
0001e0 30 16 a6 3f cd 32 a2 40 2d 16 d4 bc bf 83 99 3f
       1.2975521 5.0687013 -0.02588948 1.1993331
0001f0 03 83 30 c0 20 9e 84 bd 27 4d 10 be 0f 86 c5 3f
       -2.7579963 -0.064754725 -0.14091931 1.5431536

fc.2.weight f4 [64, 128]
000000 c7 f7 e1 3c a8 6e 1a bf 25 7b 6a 3d ef d4 c1 c0
       0.02758397 -0.603251 0.057246346 -6.057243
000010 da ba 79 bd b1 c4 70 bf 82 a9 09 3d ad 98 3f 3e
       -0.06096921 -0.9405013 0.03360892 0.18710585
000020 80 03 e5 bc 6a 8a 42 40 d8 da 2e 3f d1 ac 80 bf
       -0.02795577 3.0396981 0.6830268 -1.0052739
000030 df ff b3 bd 9f 93 c5 3e 16 6d 6f 3e 4f 50 96 3e
       -0.08789038 0.38589188 0.23381457 0.29358146
000040 fc c4 58 bf 73 f5 29 be 18 e7 74 3c 91 5f 49 3d
       -0.84675574 -0.16597538 0.014947675 0.049163405
000050 1d d0 9a bf ab e2 da bf dd d4 a6 3d ee 79 1c bf
       -1.2094761 -1.7100424 0.08146069 -0.6112355
000060 d4 15 be bf 06 7d 08 3f 3f 98 d9 3f e0 76 39 bf
       -1.4850411 0.5331577 1.6999587 -0.72447014
000070 48 41 c4 3e fd d3 f2 3e b7 6d 93 bb bc 74 6f 3f
       0.38331056 0.4742736 -0.004499163 0.935375
000080 d5 73 c3 be e7 20 b9 3c 47 9f 2d be fd ca 97 c0
       -0.3817431 0.022598697 -0.1695529 -4.743529
000090 87 29 fa 3e fc 0b 54 3f 8a 74 a2 c0 2b ca 1c c0
       0.48859808 0.82830787 -5.076726 -2.4498394
0000a0 6b 70 37 3e 31 da ce 3f f8 7e c9 3e e8 a2 09 3d
       0.17913978 1.6160337 0.39354682 0.033602625
0000b0 0b 5b 8a 3e 05 ff 53 3c 0b ca 7c 3f a9 c6 01 c0
       0.27022585 0.012939219 0.98745793 -2.0277503
0000c0 0c 9b 8b 3f 47 98 a7 3d 8c 4c 4c 3f a9 29 d0 bb
       1.0906692 0.081833415 0.798043 -0.0063526225
0000d0 db db e7 bf 58 a7 0c bd aa 68 c7 3d 85 80 97 3f
       -1.811397 -0.03433928 0.0973676 1.1836096
0000e0 fb 5c 1c 3f 5c 35 8c c0 db 35 39 bd 28 cf f4 bf
       0.61079377 -4.3815136 -0.045217376 -1.9125719
0000f0 93 dd 92 3c c8 04 1b bf ab dd d0 be 16 d2 9c 3f
       0.01792792 -0.6055417 -0.4079412 1.2251613
000100 6e 8e 33 bf 29 7e be 3c 95 10 82 bd 66 94 e1 bf
       -0.70139205 0.023253517 -0.06350819 -1.7623413
000110 6a 52 a3 bf 8f 88 48 3d 10 c1 7e c0 ad f4 b0 bd
       -1.2759526 0.048958357 -3.9805336 -0.08640418
000120 32 47 99 bd 53 3e 99 bc 84 ae d6 c0 b9 5f f3 3f
       -0.074842826 -0.018706476 -6.708803 1.9013587
000130 36 e4 1a bd b3 76 a1 3d 1b e0 1c c0 58 f1 dd be
       -0.037815295 0.07883968 -2.4511783 -0.43348193
000140 45 dd a7 c0 d6 17 f5 bf 65 b1 25 3f b7 6b 1b bf
       -5.2457604 -1.9147899 0.6472381 -0.60711235
000150 23 3f 5b 3e ad 97 5b 3f a5 5f a2 bd ab b0 9d bf
       0.21410803 0.85778314 -0.07928399 -1.231954
000160 45 47 d4 bd 3c 77 d3 bf 62 89 7b c0 53 07 38 c0
       -0.10365156 -1.6520762 -3.9302602 -2.875447
000170 9d e6 4f bf af 43 19 3e 79 a3 79 be 5e 27 d3 bf
       -0.8121126 0.14967225 -0.24378766 -1.6496389
000180 90 4b f1 bc 88 48 22 3f 63 db 5d bd d3 6a 8e bf
       -0.029454976 0.63391924 -0.0541643 -1.112635
000190 77 ea 83 3e bc 78 8a c0 8d fd b9 3e f9 15 89 bf
       0.2576482 -4.327238 0.36326256 -1.070983
0001a0 3c 9c 28 bf 24 47 67 bf 83 f4 34 bf d3 85 a8 bc
       -0.65863395 -0.90342927 -0.70685595 -0.020571625
0001b0 8f 0f d9 3b a8 26 19 3d 1f 6e 78 bf 23 c1 db 3b
       0.006624169 0.03739038 -0.9704303 0.0067063733
0001c0 b9 90 63 c0 a6 12 da be 59 99 90 3d d4 10 8d 3c
       -3.5557082 -0.42592353 0.07060499 0.017219938
0001d0 f7 64 68 c0 f5 be 04 3d 69 a0 4b 3f 2f c7 9b 3e
       -3.6311624 0.032408673 0.7954164 0.30425403
0001e0 5c bb 9e bf 7a 11 2b 3f a8 cb 9c 3d b6 b9 63 3f
       -1.2400928 0.6682354 0.07656032 0.8895525
0001f0 e8 42 26 bf 3a c4 d2 bc bb 8f b9 3d 9d 4b 35 3f
       -0.6494584 -0.025728334 0.090606175 0.708185
000200 dd e4 39 3d 88 d9 aa bf d1 7f e5 3c f3 6f 95 3f
       0.045384277 -1.3347635 0.02801505 1.1674789
000210 01 f6 5d bd de 10 d4 bd c8 bf 17 bd b3 dc cc bf
       -0.054189686 -0.1035478 -0.03704813 -1.6004852
000220 67 12 fd 3c 82 dd 3a 3f e5 3f a0 bf dc a4 5c bf
       0.030892564 0.72994244 -1.2519499 -0.86189055
000230 eb 4f 55 3d 57 6b c9 bf e6 96 cd be 1c ab 5b be
       0.05207817 -1.5735883 -0.4015419 -0.21451992
000240 03 be 0e 3e 07 84 c9 bf 2e 80 7d 3d 0a 6d 50 3d
       0.13939671 -1.5743417 0.06188982 0.050885238
000250 f2 7d 0b c0 50 08 38 be 18 8d 9d 3f 3c c1 7f bf
       -2.179562 -0.17971921 1.2308683 -0.9990423
000260 cd 4c 37 3e e5 ce 6e be ca 7c 85 bf 1e 4a d4 3d
       0.17900391 -0.23321112 -1.0428708 0.10365699
000270 08 7e b3 3e 60 aa f0 be 65 d3 1e c1 a5 dc 18 c0
       0.35057092 -0.47004986 -9.92661 -2.388467
000280 13 f6 66 be 08 40 84 bd d1 e6 f5 be 2b 80 ba c0
       -0.22554807 -0.064575255 -0.4802766 -5.8281455
000290 db 14 4a 3f 17 08 ee 3e 04 c1 49 be e2 d9 14 bf
       0.7893807 0.46490547 -0.19702536 -0.5814496
0002a0 e0 c9 40 c0 02 91 3e bf 82 84 1b 3f b8 ef 57 bd
       -3.0123215 -0.74440014 0.60749066 -0.052718848
0002b0 0e cf 3d 3e 20 d1 1b bd 98 da d3 be e9 60 86 bf
       0.18536016 -0.038041234 -0.4137771 -1.0498325
0002c0 df 7e 73 3e ce c3 52 3b ce 88 e2 be 89 71 27 3d
       0.23778866 0.0032160166 -0.44245 0.04087976
0002d0 c8 36 ee 3e e8 1b c6 3c b4 83 03 bd c1 88 b2 be
       0.4652617 0.024183229 -0.032108024 -0.3486996
0002e0 fd 3e e8 3d 4e 20 33 be 0b 28 8d bb 37 7f 71 3f
       0.11340139 -0.17492792 -0.004307752 0.9433474
0002f0 75 29 88 3c bc ac f9 bd 9f 0a 84 bf 67 ae eb be
       0.01662133 -0.121911496 -1.0315741 -0.46031496
000300 77 da aa 3e 27 9d 1d bd 5e 1b 6d 3d cd 4d 8e be
       0.333698 -0.03847995 0.057887428 -0.27793732
000310 3b 4b bc 3d 5e 9a e0 3d fe a4 a5 3e 0f bd fd bc
       0.091940366 0.10966943 0.32352442 -0.03097394
000320 4f b9 d5 bd 63 b3 58 bc 14 4e b3 bf 3a 67 c9 3f
       -0.104357354 -0.013226363 -1.4008203 1.5734627
000330 29 c4 8d 3c 21 7a 34 bd a1 41 e0 3d 33 9a 22 c0
       0.01730545 -0.044061784 0.10950018 -2.5406616
000340 72 4d 82 bb e4 de c8 3f a4 4d 20 bf 21 81 a7 3e
       -0.0039765174 1.5693021 -0.6261847 0.32715705
000350 3e e3 9e 3d b8 e1 73 3d 67 b1 98 3d b5 e8 2d 3f
       0.07758187 0.059541434 0.07455712 0.6793321
000360 d3 33 c8 bc 64 a9 3f bf 47 bb e3 bd 27 03 60 3e
       -0.024438774 -0.74867845 -0.11119705 0.21876203
000370 30 c5 57 bf 0c 0d 7f 3e 23 a4 b2 3e f2 65 3a be
       -0.8428526 0.2490732 0.3489085 -0.18202952
000380 df 3f 8d be 3b 3f 9c 3f e4 75 01 3d 48 13 57 3f
       -0.27587792 1.2206796 0.03160657 0.84013796
000390 70 c9 02 bf fc 0b bf 3f 44 0a 89 3f 53 9f 51 bf
       -0.5108862 1.4925532 1.0706258 -0.81883734
0003a0 8a ce 7b bd da e9 5e bf e4 3f a2 be 66 0f 2b bc
       -0.061476268 -0.8707558 -0.3168937 -0.010440683
0003b0 a9 82 e3 bc a3 eb 14 bd d3 f6 20 3f c8 7a 89 3c
       -0.027772265 -0.036357533 0.62876624 0.01678218
0003c0 1f 72 a3 3e 07 61 f9 be 91 ad c3 3d 72 98 14 bd
       0.31923005 -0.48706838 0.095545895 -0.036278196
0003d0 9c 63 b4 3f ef a0 64 bd 52 48 88 bf a6 ee 4d be
       1.4092898 -0.05581754 -1.064707 -0.20110568
0003e0 99 4b 1b be 0d b4 d3 3e bb b7 a2 3d 9c e8 17 3f
       -0.15165557 0.41348305 0.079452 0.5933931
0003f0 66 37 ec be ea 40 b8 3c ad 2f 02 bd f1 a1 fc 3e
       -0.46136016 0.022491891 -0.03178375 0.493423

fc.2.bias f4 [64]
000000 11 c5 79 c0 63 84 99 3f 90 bc 91 41 d0 70 39 3f
       -3.902653 1.1993526 18.217072 0.72437763
000010 51 81 6f c0 14 b3 c0 bf ad 6a aa bf bc e5 9b bf
       -3.7422678 -1.505465 -1.3313805 -1.2179484
000020 fd f2 b6 c0 6f 8d a2 41 70 d5 5b 40 00 e0 a4 3e
       -5.7171617 20.31906 3.4349022 0.32202148
000030 a3 2c 2a 41 b6 04 27 bf 3e 59 5c bd dd 70 75 41
       10.635898 -0.65241563 -0.053796045 15.3400545
000040 ec a4 f0 bf 01 fd 3c 3f c8 7c dd bd d5 b9 01 bf
       -1.880033 0.73823553 -0.10814816 -0.5067418
000050 2a 75 c2 3e 99 73 89 c0 6e 46 82 3f cb 09 5e 40
       0.37980014 -4.295361 1.0177743 3.4693477
000060 c8 ce 36 41 ca f8 fd c0 7f a5 b2 3d 07 6b 39 c0
       11.425484 -7.9366198 0.08722972 -2.8971574
000070 7f 48 70 40 85 f5 b4 bc 66 01 7b 40 20 42 d1 40
       3.7544248 -0.02208973 3.9219604 6.539322
000080 59 d4 99 3f fb be bb bf 5e f1 09 be b0 2b 86 c0
       1.2017928 -1.4667658 -0.1347098 -4.192833
000090 d8 cb 92 40 fe 18 16 bf bc 7d d0 be ed 5f 9f c1
       4.5873833 -0.58631885 -0.40720928 -19.921839
0000a0 ad 75 e1 3f 18 ad 37 c0 b2 2d 11 c0 97 ae c9 be
       1.7614037 -2.8699398 -2.268414 -0.39391014
0000b0 ba 26 06 40 ef 29 42 c0 8b e5 10 40 b0 47 1e 41
       2.0961137 -3.0338094 2.2640102 9.892502
0000c0 74 43 85 41 f5 27 b7 40 6e a9 53 bf 2e 49 39 be
       16.657936 5.7236276 -0.82680404 -0.18094322
0000d0 8b f7 bb 40 6f 25 0a 40 92 7b 48 41 ab fa 87 41
       5.8739676 2.1585348 12.530169 16.997396
0000e0 c7 ba ea c0 67 4a 9e bc 04 bc a1 bd 69 f3 50 41
       -7.3353 -0.019322587 -0.07897189 13.059426
0000f0 98 c8 71 3f 6a bf 0b be 66 84 ab 40 c5 86 a4 3f
       0.94446707 -0.13647237 5.359912 1.2853628

fc.3.weight f4 [32, 64]
000000 48 2a 56 3e 73 2a 18 ba bc 34 4a bc 22 d5 d5 3a
       0.20914567 -0.0005804665 -0.012341674 0.0016314129
000010 16 38 65 bb bf 19 ce ba e8 8a 1b bb ad 73 1c 3d
       -0.0034976057 -0.0015724226 -0.0023733918 0.038196255
000020 7a 69 84 bd dd b0 4f 3b 47 21 b7 ba b9 fe 0f 3b
       -0.064654306 0.0031691112 -0.0013971709 0.0021971895
000030 70 df 07 3e e0 f3 b1 3b 25 08 a7 bd d4 8e 1d 3b
       0.13268828 0.0054306835 -0.0815585 0.002404143
000040 c9 c1 3d 3a 4e 72 3c bb 9a 9b 89 3c ed b1 ab 3d
       0.0007238654 -0.0028754654 0.01679783 0.08383546
000050 b6 87 c7 3a ae d2 b7 ba 24 8a 9e 3b 3e 85 e8 ba
       0.001522294 -0.001402458 0.004838245 -0.0017739905
000060 a5 90 df 3c 31 5c 52 bf b0 3c 36 3b 86 69 53 3c
       0.027290652 -0.8217192 0.0027807169 0.012903577
000070 9e f7 81 3a 45 6d 69 bc 25 dd eb 3a 4c d9 3f 3b
       0.0009915715 -0.014247243 0.0017994983 0.0029273806
000080 1d 56 6b bd 4f f4 7f 3c 90 97 a5 bd ae 09 9a 3b
       -0.05745517 0.015622213 -0.08085549 0.004700861
000090 1d 1f 41 3e c6 ce 01 bc 50 75 38 bb 4d c7 68 bd
       0.18859525 -0.007922834 -0.0028146096 -0.056830693
0000a0 fa d3 83 3a c7 84 05 be e8 54 81 be eb 9d b1 3a
       0.0010057681 -0.13038932 -0.2526009 0.0013551092
0000b0 a1 db 35 bb eb c7 37 3a 1e 82 ad 3c 77 37 92 3d
       -0.0027749317 0.0007010686 0.021180209 0.07139485
0000c0 ae db 8d 3d 4a 53 20 3b be e7 89 bf 9e 28 02 be
       0.06926666 0.0024463707 -1.0773847 -0.12710807
0000d0 58 7a d1 3a 2d a1 ae 39 1b a1 3e 3d 5f a6 3e bb
       0.0015981896 0.00033307952 0.04654036 -0.0029090864
0000e0 99 e6 cd 3e 19 fa 8e 3d 77 54 77 bc 6e 6a 1b 3e
       0.40214995 0.06981296 -0.015095822 0.15177318
0000f0 0a b9 ad 3a 0f 32 bb bd 14 38 b8 39 5a 21 d4 3e
       0.0013253998 -0.09140407 0.00035136996 0.41431695
000100 a1 30 56 c0 26 d3 a2 c0 88 9f 06 3d 8b c6 3a 3d
       -3.346718 -5.088275 0.032866985 0.0455995
000110 27 90 cb be c4 6d 10 bd 03 55 6e bd d2 83 42 be
       -0.39758417 -0.03526093 -0.058186542 -0.18995598
000120 ed 08 1c bf cb 93 83 be af 30 19 bf c0 41 a6 bd
       -0.6095112 -0.25698695 -0.5983991 -0.081180096
000130 c1 2b 28 be 96 93 b8 bf ca 24 32 bd 4b d5 93 bf
       -0.16422941 -1.442004 -0.043492116 -1.1549467
000140 b4 36 87 bd 93 72 90 be 45 30 36 be 18 20 51 bd
       -0.06602231 -0.28212413 -0.17791851 -0.051055998
000150 29 a7 5a bf 29 73 77 3b 42 c4 e2 be 58 82 6b 3d
       -0.85411316 0.003775785 -0.44290358 0.057497352
000160 7b 0b f3 bc 25 57 3d bf e7 d7 21 3f ca 5e 85 c0
       -0.02966856 -0.73961097 0.63220066 -4.167821
000170 02 e2 a3 c0 ab f1 d2 bd 65 59 57 3d 5c 30 7c 3e
       -5.121339 -0.10300001 0.052575488 0.24627823
000180 b0 23 15 be 4a c5 8e bd e5 18 6b 3d bd 00 93 3c
       -0.14564395 -0.06971224 0.05739679 0.017944688
000190 44 90 f2 3d fb 2c 27 be 81 6f 78 3e 2d 08 8b c0
       0.11843923 -0.16325752 0.24261285 -4.344748
0001a0 5c 40 4f ba f6 e3 4a 3d c4 31 93 bf 59 70 01 bf
       -0.00079060136 0.049533807 -1.1499562 -0.50562054
0001b0 d9 2e cd 3c c6 25 12 3d 8a d1 5b bf 10 a4 dd bd
       0.025046753 0.035680555 -0.85866606 -0.10822308
0001c0 70 7f 76 3b f7 d2 7a be 38 0b 03 3e 32 79 1f bd
       0.003761258 -0.24494539 0.12797248 -0.03893394
0001d0 c6 a1 46 be 16 fb 14 be ec e8 26 c0 9f e8 17 3d
       -0.19397649 -0.14548907 -2.6079664 0.03708708
0001e0 3a 0c c5 be 82 13 25 3d 39 7e 71 3d 74 de 69 be
       -0.3848589 0.040301807 0.058958266 -0.22838765
0001f0 88 28 10 c0 f3 57 e3 bc 8f 38 8b be 4d b6 c8 bf
       -2.2524738 -0.027751898 -0.27191588 -1.5680634
000200 d4 e2 ad be 69 34 65 be b9 3b b2 c0 21 e6 3f bf
       -0.3396212 -0.22383274 -5.5697904 -0.74960524
000210 eb 61 7d bf 41 21 e6 be 0e 7a bd be e7 62 ab 3d
       -0.98977536 -0.44947246 -0.37007183 0.083684735
000220 3a 59 6d be 04 38 d1 bf 26 3d cc 3d 2a d7 05 bf
       -0.23178568 -1.634522 0.09972601 -0.5228144
000230 2b 6c 0a 3f af 1f ff bc 84 8e dd 39 d7 09 b7 bf
       0.540713 -0.031143038 0.00042258587 -1.4299878
000240 ca b2 dc bf 90 c3 1c be 78 e3 3f 3d 45 a9 06 bd
       -1.7242062 -0.15308976 0.04684779 -0.03287627
000250 4e e7 52 bf a0 4a fe bf aa 99 74 be 2d cf 0d be
       -0.8238419 -1.9866524 -0.23886743 -0.13848563
000260 84 00 42 c0 27 1b 13 be 80 22 85 bd 70 68 6b be
       -3.0312815 -0.14365827 -0.06500721 -0.22989058
000270 63 20 3b be 03 61 65 3d cc 71 30 bf f1 2e 8f 3d
       -0.18274073 0.05600072 -0.6892364 0.06991375
000280 9d d9 0f bd ee f6 16 bd 2c 67 56 bd b2 3d 0d bf
       -0.03511964 -0.036856584 -0.052344486 -0.55172265
000290 26 4e e5 be f4 42 06 3c 6f c3 27 be d0 35 27 bf
       -0.44786185 0.008194674 -0.16383146 -0.65316486
0002a0 df d5 f1 bf 2c 56 e0 be a6 24 dc be 46 c5 28 be
       -1.8893393 -0.43815744 -0.4299671 -0.16481504
0002b0 ea ef 67 be b1 0d bb be 5e 75 23 c0 fe 08 33 c0
       -0.22650114 -0.36533883 -2.5540385 -2.7974238
0002c0 d3 fb e0 bf e1 7c fb bd 8f 0d 9a bd f5 d3 e5 3d
       -1.7576851 -0.12279678 -0.07522117 0.11222068
0002d0 88 b0 5c bf b0 4b 14 bf e0 52 e9 be 61 08 fb bf
       -0.86206865 -0.5792799 -0.4557104 -1.9611932
0002e0 34 52 00 be 23 01 9d 3d 99 e2 d8 3d f6 76 24 bf
       -0.12531358 0.076662324 0.10590095 -0.6424402
0002f0 b6 c3 c9 ba 4c 3d a8 3d 44 32 cc bf e6 9f 87 be
       -0.0015393409 0.082148165 -1.595284 -0.2648918
000300 7f ba 6d 3e 6c 81 ed bd 37 bf 25 3b 6f fb 40 3e
       0.23215674 -0.11596951 0.0025290975 0.18845914
000310 aa ba 07 3d 51 89 18 bc 0b 12 84 3b be 4d a5 c0
       0.033137 -0.0093100825 0.004030471 -5.16574
000320 5b 44 0c be 20 66 52 bd 85 67 06 3e f1 08 2f 3c
       -0.1369795 -0.051366925 0.13125427 0.010683284
000330 c8 a5 78 bc 49 be 89 bd 2e 44 75 3c 6f a0 c8 3b
       -0.015176244 -0.06725747 0.014969869 0.006122641
000340 85 46 34 be e7 d8 76 3e 88 e2 e4 bd 9a a5 35 bf
       -0.17605026 0.24106179 -0.1117602 -0.7095581
000350 20 31 5f be 74 8c fb 3d 29 ac 02 be 85 4a 1c bf
       -0.21796083 0.12282649 -0.12760986 -0.6105121
000360 8e 40 33 3a 1b b3 d9 be e9 a2 f3 be d8 5d 8c be
       0.00068379275 -0.4251946 -0.47585228 -0.27415347
000370 40 ea 4a 3e 3b 13 5f 3d 3d b7 76 3e 2a 3d 08 be
       0.19815922 0.0544617 0.24093337 -0.13304582
000380 9f 9e 09 bf 6f ba 17 bb ac f8 ba bc 75 30 35 bd
       -0.5375766 -0.0023151895 -0.022823654 -0.044235665
000390 c9 89 c4 be 53 c7 b6 3d 32 c0 f3 be 37 ea 20 bd
       -0.38386372 0.08924737 -0.4760757 -0.039285865
0003a0 12 dc 3f 3e f2 7c 4e c0 c0 34 8a bf 4a 3e 21 be
       0.18736294 -3.226376 -1.0797348 -0.15746418
0003b0 5f 54 27 bd b4 9a d5 be 05 1f 0c bf 6c ba ab bb
       -0.040851947 -0.41719592 -0.5473483 -0.005240729
0003c0 66 36 b1 3b a2 01 19 3e 50 cd 90 3e 5e a3 ac bd
       0.005408096 0.14942029 0.2828164 -0.08429597
0003d0 ad 4c 91 be f6 3f 97 3c fb ad e4 bc c3 dd 0c bc
       -0.2837881 0.018463116 -0.027914992 -0.008597794
0003e0 2b 1c 1d bf 0a 14 15 bd b3 5c 97 bd 2c fd 6f bd
       -0.61371106 -0.036396064 -0.07390728 -0.058591053
0003f0 ca 92 a0 bd f2 9c 6f bd 52 6a 5f 3e 66 ef 9a bd
       -0.07840498 -0.058499284 0.21817902 -0.07565193

fc.3.bias f4 [32]
000000 99 e0 7d 3f 4f 4f b6 c0 44 93 79 c0 be 50 ba bf
       0.99170834 -5.697181 -3.8996134 -1.455589
000010 2c e3 1c 40 f1 fc 51 c1 16 10 91 3f 92 21 ae 40
       2.4513655 -13.124253 1.1333034 5.441598
000020 c3 ea c4 c1 92 77 4f be 62 9c 97 c0 d5 af 01 40
       -24.61463 -0.20260456 -4.7378397 2.026357
000030 c2 63 ba c0 8d fb 10 c1 14 21 4c 40 6b ff a5 bf
       -5.8246775 -9.061414 3.189519 -1.2968572
000040 6a c5 a7 3d 64 cb 0e c1 1b 35 45 3e a7 c8 ee c0
       0.081919506 -8.924656 0.1925854 -7.4619937
000050 16 4c 6d bf ec ad ef c0 4e 0c 23 c0 43 2c 92 c0
       -0.9269422 -7.4899807 -2.547626 -4.567903
000060 88 db b1 c0 7d f5 bf c0 5d 46 eb c0 6d 68 55 c1
       -5.5580482 -5.998717 -7.3523393 -13.337995
000070 d5 93 fb 40 84 f2 c5 c1 63 66 30 c0 03 da 8c c0
       7.861796 -24.743416 -2.7562492 -4.4016128

fc.4.weight f4 [16, 32]
000000 06 50 05 bc 3c 14 4c be f7 ca 8c bf 27 fa 71 3c
       -0.008136755 -0.19929594 -1.099944 0.014769114
000010 55 18 0a bc ca f8 f0 bf 87 66 e0 3b 83 4f a8 3f
       -0.008428653 -1.8825924 0.0068481597 1.3149265
000020 f1 3c 18 c0 6f b6 44 3e a6 2a 75 bf 86 c5 be 3d
       -2.3787196 0.19210218 -0.957682 0.09315018
000030 86 5e ed bd d3 10 b9 bf 40 9e 2c c1 3e 59 ab bd
       -0.115902945 -1.4458259 -10.788635 -0.08366631
000040 86 42 c3 bd 24 76 1b bf e2 82 99 be c2 6f 58 bf
       -0.09534173 -0.60727143 -0.29982668 -0.8454553
000050 03 76 35 bc e3 65 32 c0 b3 b8 29 be 42 08 a9 bf
       -0.0110754995 -2.7874687 -0.16574363 -1.3205645
000060 65 2d 0f bd 63 7f ef bf b1 53 a6 bf 56 cc 87 bb
       -0.0349554 -1.871075 -1.299429 -0.004144232
000070 af d4 ef c1 29 55 06 c0 3b 81 bb bf 87 48 e2 c0
       -29.97885 -2.0989478 -1.4648813 -7.0713534
000080 36 9a 45 bb d0 59 aa bb 25 ad ab be 90 52 c0 38
       -0.0030151731 -0.0051986948 -0.33530536 9.170652e-05
000090 7a 23 d8 3d 30 fc 70 bc 73 49 20 3b 9e b5 7d bd
       0.105536416 -0.014708564 0.0024457842 -0.06194078
0000a0 9a fa ab bd 87 ac 0e ba f4 a5 13 bc 4b b0 b3 3a
       -0.08397408 -0.00054425787 -0.009011734 0.0013709156
0000b0 07 0c 9f b9 0d 9b 83 3a ab 78 19 3a a8 0f 7a 39
       -0.00030335804 0.0010040716 0.0005854468 0.0002384769
0000c0 1e 79 3a 3d 7a 70 e2 ba e4 c1 10 3e 99 2c 76 bc
       0.045525663 -0.0017275952 0.14136463 -0.015025281
0000d0 72 7b 23 b6 e1 7c 5a 3a c9 97 80 ba 21 02 b9 39
       -2.4360747e-06 0.00083346484 -0.000981086 0.00035287536
0000e0 42 27 a3 bc 77 d9 bb 37 12 e1 fc bd 80 b2 78 bb
       -0.01991618 2.2393402e-05 -0.12347616 -0.0037948191
0000f0 42 e1 50 ba b5 ca 44 be 55 e3 71 ba 74 d1 0e bc
       -0.00079681363 -0.19217952 -0.00092272955 -0.00871693
000100 46 4c 6b bc de cc 52 bd 28 93 a7 be 60 5d 39 bf
       -0.014361447 -0.051464908 -0.3272946 -0.72408104
000110 3b 83 08 3d 48 b8 de bc 3f 3f 05 bd 3c cb cb bd
       0.033328276 -0.027187482 -0.03253102 -0.09950873
000120 f4 1f 20 3d 55 07 e7 3b 43 94 9f be 00 8e cb 3b
       0.039092973 0.0070504346 -0.31167802 0.006211996
000130 0e ce 00 bd 88 70 71 3c 6d b5 aa bc 2e 2c 85 3c
       -0.03144651 0.014736302 -0.020838464 0.016256418
000140 48 67 1b bc b6 41 9b 3d ca d4 14 be 67 a0 6f 3c
       -0.009485073 0.07580893 -0.14534298 0.014625645
000150 bf fd e0 bd fb 5d 7c 3c 69 ff 66 bc 56 d6 c5 3c
       -0.10985898 0.015403266 -0.01409898 0.024150055
000160 1e 97 56 bc 0c e0 35 be f6 eb ad bc 94 16 19 3c
       -0.013097553 -0.17761248 -0.021230679 0.009343762
000170 13 ed 70 3c 0f 4c 78 3c 8c 2c 8f 3d 34 be 0d 3d
       0.01470496 0.0151548525 0.069909185 0.03460522
000180 81 f4 5b bf 97 d6 1a bf be 76 a6 ba c3 72 ac bf
       -0.8591996 -0.6048369 -0.0012700183 -1.3472522
000190 03 67 22 bf 50 fa 08 c0 0a 56 dd c0 13 40 0a 3e
       -0.63438433 -2.1402779 -6.916753 0.13501005
0001a0 9b 57 8f 3c 08 1e 54 c0 c6 78 45 3e a1 a9 28 be
       0.017497828 -3.314333 0.19284353 -0.16470958
0001b0 a8 5c 29 be 03 83 95 be bb e4 f3 bf 19 32 3a c0
       -0.16539252 -0.29201517 -1.9054178 -2.9093077
0001c0 a3 9a ba be a5 35 35 c0 e7 09 0d 3f 68 b1 53 c0
       -0.36446103 -2.8313992 0.55093235 -3.307703
0001d0 22 4e 87 be 6e c2 58 3c ab f4 17 bf f0 07 27 be
       -0.26426798 0.013229949 -0.5935771 -0.16311622
0001e0 5c b3 3e c0 c1 0e eb bf 31 fa 43 c0 9b b4 ab bf
       -2.9796972 -1.8363878 -3.0621455 -1.3414491
0001f0 a0 e9 56 be a2 50 77 be dd 12 b3 bd fb 9f 2c 3e
       -0.20987558 -0.24151853 -0.08743832 0.16857903
000200 46 b8 91 be 37 74 df bd 49 c6 9d bd e9 2a 31 be
       -0.28460902 -0.10910838 -0.077038355 -0.17301525
000210 5f d6 0f be e6 0b 67 be ff 62 8c be aa 2d 11 be
       -0.1404662 -0.22563133 -0.27419278 -0.14177576
000220 13 c3 c2 bc c5 3a 53 be 3a d5 d0 3c 3d 63 09 be
       -0.02377466 -0.20627888 0.0254923 -0.13416763
000230 7f 2a e1 bc 80 69 77 bd 65 81 f5 bd e3 74 e3 bd
       -0.027486084 -0.060403347 -0.11987571 -0.11106279
000240 86 5d 85 be 21 f0 ce bd f2 56 cf 3d c5 1b 33 bd
       -0.26047915 -0.10104395 0.101240054 -0.043727655
000250 ad 68 08 be 8c 28 8e bd d9 3f 91 bd e8 2d 87 bd
       -0.1332118 -0.069413275 -0.07092256 -0.06600553
000260 fb 2f 5c be 05 38 41 bd 1c 48 f0 bc ec de 95 bd
       -0.21502678 -0.047172565 -0.02933126 -0.073179096
000270 79 b2 25 bc b2 65 6d bb 30 61 aa bd 2c 16 88 be
       -0.010113352 -0.0036223945 -0.08319318 -0.26579416
000280 1c ae 81 bd de 27 20 3d 30 54 8b bd a5 92 96 bf
       -0.06332037 0.03910052 -0.06803167 -1.1763502
000290 47 dc bc 3d 6e 77 e6 3d 25 6f 9e bd ca 07 9d bd
       0.09221702 0.11253248 -0.07736043 -0.07667501
0002a0 e9 e6 fc 3d f1 d4 e7 3d d2 9f d8 bd 37 1d 79 3d
       0.1234873 0.11319912 -0.10577358 0.060818877
0002b0 ef 3d 3b bd d2 0b 8c 3d f0 7b 4e bb 48 44 81 3d
       -0.04571336 0.06838192 -0.0031506978 0.06311852
0002c0 27 fd 8a bd f5 31 77 3e ba 52 10 3e ec d8 30 3b
       -0.06786566 0.24140151 0.14094058 0.0026984764
0002d0 9c 1d 86 be 8c 99 00 c0 2e 14 85 be aa ed 53 3d
       -0.26194465 -2.0093718 -0.25991958 0.051740326
0002e0 aa 7f ce bf c5 49 89 bf 31 02 b4 be 9d 6a da 3c
       -1.613271 -1.0725638 -0.35157922 0.026662165
0002f0 71 88 10 bd b4 e3 04 be 33 0e 90 3e fb a3 3f 3e
       -0.03528637 -0.12977487 0.28135833 0.18714897
000300 09 3d 93 be 0c 77 27 be 2c fd 49 be c0 56 87 be
       -0.28757504 -0.16354007 -0.19725484 -0.26433372
000310 b7 fe a6 be 83 f7 69 be e4 c3 81 bf a6 2b cd 3d
       -0.32616207 -0.22848324 -1.0137906 0.10018091
000320 97 ce 04 bd 5d 82 71 bd 40 3c 35 bd 03 97 87 be
       -0.032423582 -0.058962215 -0.044246912 -0.264824
000330 e3 fb f5 be 68 bc 84 bd dd 63 e7 be 99 b6 c2 be
       -0.48043737 -0.06481248 -0.45193377 -0.38029936
000340 78 1e 6a c0 af ef aa bf 9b 15 f3 3c 6a b1 8b bf
       -3.6581097 -1.3354396 0.029673388 -1.0913517
000350 0a 8f f5 be 19 eb 1a be a1 95 b1 bc f9 2c 1d be
       -0.47960693 -0.15128745 -0.021677794 -0.15349187
000360 e6 c3 8a be f0 35 21 be 93 98 42 bf 42 cd 90 be
       -0.27102584 -0.15743232 -0.7601406 -0.282816
000370 bc 8e be be 16 72 7f be e4 9c 72 bd d0 87 72 be
       -0.37218273 -0.24945864 -0.059231654 -0.23684621
000380 fd e4 02 bd 99 f6 a2 be 94 b1 20 be 9f ae e1 bf
       -0.03195666 -0.31828764 -0.1569274 -1.7631415
000390 3f 3f 3a c0 b7 23 63 be 10 90 5b 3e c1 7a 48 3e
       -2.9101102 -0.22181593 0.21441674 0.19578077
0003a0 5f 9f 8d be 24 b6 88 be 1e cd 4a 3e 05 3c d6 be
       -0.27660653 -0.26701462 0.19804808 -0.41842666
0003b0 c5 7b 48 be cd eb 0f bd 5e c4 25 c0 5b 57 87 3c
       -0.19578464 -0.035136987 -2.5901103 0.016521147
0003c0 2c 9d cd bc c5 fa 58 be e6 88 aa bd 83 23 ce bd
       -0.02509936 -0.21189411 -0.083268926 -0.10065367
0003d0 d4 9d 2d bf 13 30 2d bf 48 2d 0d bf 02 ce 20 bd
       -0.6781895 -0.6765148 -0.5514722 -0.039258964
0003e0 6d da 2d bf 4b da 49 bd a8 c2 c4 be e9 3b f2 bd
       -0.67911416 -0.049280446 -0.3842976 -0.11827833
0003f0 e3 52 31 bf 16 85 8c be 9d e6 ba 3b b4 29 01 be
       -0.692671 -0.27445287 0.005703761 -0.12613565

fc.4.bias f4 [16]
000000 48 f3 0b 3e d6 47 a7 bc b1 cd cc 3f 74 2b 9d c0
       0.13667023 -0.020419996 1.6000272 -4.9115543
000010 9d 3f b0 bd 7e d6 c2 c0 21 de 10 bd b5 ba 8d bf
       -0.08605883 -6.088683 -0.03536809 -1.1072603
000020 5c 51 ca bf e2 5d 11 41 2a c3 fa 3f 2d 5e cb bd
       -1.5806079 9.085421 1.9590809 -0.09930072
000030 54 4d 8c 40 c8 df 16 bf b8 ab 25 41 a1 b3 14 3e
       4.3844395 -0.58935213 10.3544235 0.14521648

fc.5.weight f4 [3, 16]
000000 66 bd 83 3d 7c 12 0c b9 04 35 1b b9 ef 8f 77 bc
       0.06432609 -0.00013358326 -0.00014801702 -0.01511
000010 b5 fa f1 bb 9c 85 30 b9 06 92 56 bd bd df 9f 39
       -0.007384623 -0.00016834441 -0.052385353 0.0003049354
000020 0d f9 ef 38 7d 43 cb 3a fd 6a fa b8 1c 78 10 3a
       0.000114427974 0.0015507784 -0.00011940857 0.0005511062
000030 a1 61 4e b9 3c 12 10 bc b9 63 1b ba 43 fa 00 39
       -0.0001968206 -0.00879341 -0.00059276406 0.00012300261
000040 33 97 00 b9 22 85 56 ba 11 43 c5 3d 95 0d e8 ba
       -0.00012263357 -0.00081832905 0.096319325 -0.0017704243
000050 70 5e 59 bd 9a fd 03 bd d4 18 5f 3e bc 86 21 3e
       -0.05306858 -0.032224275 0.21786815 0.15774053
000060 b9 ab 1e bd 26 5b 1a ba 87 a9 14 3e be 42 dd 3c
       -0.038737986 -0.0005888216 0.14517795 0.027009364
000070 51 28 02 be 18 99 fd bd 02 5d 8a 3a 73 9d 18 ba
       -0.12710692 -0.12382716 0.0010556283 -0.00058218016
000080 ed e2 7f 39 cd 0f 8f 3d a6 7f 84 39 a5 d6 6a bc
       0.00024403232 0.06985436 0.00025272107 -0.014333402
000090 74 0a 88 bc b8 c9 06 ba 8a cb 77 3e 6c 76 af ba
       -0.016606547 -0.0005141753 0.24198738 -0.0013386733
0000a0 c1 80 f7 39 10 27 b2 bd 57 e7 67 b8 b3 bc 4a b9
       0.0004720744 -0.08698857 -5.5290144e-05 -0.00019334517
0000b0 74 77 48 b9 f3 6b c5 bc 3d 1d 9c 3d 28 ea 92 bd
       -0.00019117986 -0.024099326 0.07622764 -0.07173568

fc.5.bias f4 [3]
000000 33 0b 8f 39 79 dc 0f 3f 0e ff 3d 3a
       0.0002728343 0.5619579 0.0007247784
