models/omni-road/model_epoch_190.pt (torch, 242162 bytes, 12 tensors)

fc.0.weight f4 [256, 60]
4.597814 -1.286265 -2.235942 -1.8846977 0.39252552 -0.099134 -0.3179274 1.0432497
-0.8688291 -0.3937115 -0.71979594 -0.92617357 2.5479264 1.8222989 1.0235498 -4.2515726
-2.043651 -0.071143836 0.5171013 0.5869172 -0.69651616 -0.39186203 -0.20999487 -0.43311262
0.027485518 0.11948548 0.032632906 0.07514545 1.6947478 0.39997178 0.49244085 -0.018808365
0.025703501 -0.13156003 -0.10687379 -0.12649801 -0.0031661775 0.08189551 -0.10005944 0.09406778
-0.05357104 0.18075982 0.13281204 -0.041556332 -0.046513543 -0.100052156 -0.030095514 0.016161716
-0.031591926 -0.18128887 -0.14708836 -0.015805898 0.033781476 -0.10242097 -0.0323549 -0.022183992
-0.0007465705 0.0043923617 -0.033855144 0.016090352 2.0704925 2.0711784 0.32412392 -0.87608534
-0.04385822 -0.16396333 -0.83009106 -1.5187991 -0.80557704 -0.82255673 1.2605263 2.3712552
-0.36341524 3.257054 -1.1905358 2.9779692 -3.7967868 1.1200398 0.12831904 -0.839768
-0.99882686 0.30841672 -0.99480563 -0.20648776 -0.00090539706 0.04344548 -0.15537912 -0.52279097
0.1197773 -0.003108887 0.13772997 -0.24004121 -0.030630738 -0.1293805 -0.01352118 0.13548438
-0.0454773 0.024088023 -0.0549994 0.036810912 0.59585136 0.15592827 -0.029158946 0.037896927
-0.047831755 0.12200582 -0.25164592 -0.18049505 0.28358164 0.009466257 0.058129642 0.037004538
0.18799278 0.01806449 0.28632256 0.5266653 0.111617364 -0.18515678 -0.086550474 -0.035434283
-1.191362 -5.762806 0.13924979 0.28569365 0.3616222 0.23738635 0.60404325 0.66000897
-1.2344273 -0.88240427 1.4683684 -2.6830926 -0.29000494 -0.11071237 0.21387711 -1.7526397
0.6523585 0.87359625 0.40098825 -0.56298125 0.46086788 -0.13310564 0.5688571 0.5687017
0.02056481 0.00877515 0.0118700005 -0.030823737 -0.034379046 -0.015799476 0.04877621 -0.10916819
-0.028332304 -0.16529517 -0.055233452 -0.084430285 0.04787259 0.050867405 -0.065892786 -0.077256195
-0.008078326 0.02173581 0.06485964 0.1926216 -0.010081977 0.10822121 0.06846818 0.0068314914
-0.060403258 -0.051994454 -0.034464903 -0.017238295 0.061411887 0.08841423 0.054568525 0.0047850343
-0.04691988 0.0035165816 0.008877199 -0.020861687 0.43156084 0.9233318 2.0296998 1.3905162
-0.84276396 0.098143876 0.99905837 0.87665933 1.4885217 0.09150151 -2.0119882 -0.01207107
-0.05945141 5.207808 3.6859705 -1.9174808 -1.854794 -0.54126346 -0.47723353 0.14372963
0.01871167 0.99613285 0.18119463 0.553624 -0.041588023 0.21212007 -0.5104091 -0.42878523
-0.28867793 -0.34925574 0.3970936 0.17607214 -0.23756105 -0.28974432 0.06043756 0.12215455
-0.12288169 0.102928914 -0.1728289 1.036562 -0.598779 -0.762568 -0.5764873 0.33824593
2.1489534 1.4233233 1.0002613 0.8486041 -0.22687943 0.37078848 0.67364705 0.036687393
-0.27199605 0.18882415 -0.5605402 0.35738665 0.3940759 0.2429662 0.12790385 0.39769846
-1.5461844 0.9520216 0.61999035 0.08062848 0.4624656 -0.19437869 -0.3673884 -0.118295714
0.27746788 0.123801045 1.4465295 1.228293 3.7195296 1.2237183 1.7982094 0.01741834
00000000: 4b21 9340 55a4 a4bf ac19 0fc0 c63d f1bf
00000010: 1bf9 c83e c406 cbbd 61c7 a2be 3589 853f
00000020: 956b 5ebf 8e94 c9be 8c44 38bf b619 6dbf
00000030: 3a11 2340 1741 e93f ae03 833f e20c 88c0
00000040: 2ecb 02c0 dcb3 91bd c060 043f 3540 163f
00000050: e24e 32bf 24a2 c8be e508 57be f0c0 ddbe
00000060: 4f29 e13c ceb4 f43d 15aa 053d dce5 993d
00000070: 7fed d83f 1ac9 cc3e 3521 fc3e 0014 9abc
00000080: 2690 d23c acb7 06be a5e0 dabd b288 01be
00000090: a57f 4fbb d5b8 a73d f7eb ccbd 9ca6 c03d
000000a0: 4f6d 5bbd 1a19 393e e1ff 073e f936 2abd
000000b0: fc84 3ebd 25e8 ccbd de8a f6bc 9365 843c
000000c0: 8966 01bd caa3 39be 559e 16be 5f7b 81bc
000000d0: 725e 0a3d 16c2 d1bd 9286 04bd 34bb b5bc
000000e0: 80b5 43ba cded 8f3b b1ab 0abd eacf 833c
000000f0: f382 0440 308e 0440 92f3 a53e 2147 60bf
00000100: ada4 33bd 01e6 27be d980 54bf 0268 c2bf
00000110: 4c3a 4ebf 1493 52bf ed58 a13f a5c2 1740
00000120: 9011 babe 9373 5040 7a63 98bf 0c97 3e40
00000130: 8efe 72c0 775d 8f3f 1166 033e 09fb 56bf
00000140: 1eb3 7fbf cce8 9d3e 95ab 7ebf 8771 53be
00000150: 2b58 6dba e3f3 313d b41b 1fbe a1d5 05bf
00000160: cd4d f53d 78be 4bbb 1609 0d3e 5dcd 75be
00000170: 50ed fabc 527c 04be f087 5dbc 6bbc 0a3e
00000180: 6846 3abd 3f54 c53c 0d47 61bd 0ac7 163d
00000190: b789 183f a9ab 1f3e bede eebc cf39 1b3d
000001a0: 3beb 43bd 30de f93d bcd7 80be b2d3 38be
000001b0: 9d31 913e 5c18 1b3c 5919 6e3d 1292 173d
000001c0: 2e81 403e fbfb 933c df98 923e 89d3 063f
000001d0: a597 e43d bd99 3dbe 6041 b1bd 8a23 11bd
000001e0: 8d7e 98bf e868 b8c0 7f97 0e3e 7046 923e
000001f0: 8c26 b93e 6815 733e 94a2 1a3f 59f6 283f
00000200: b701 9ebf 3fe5 61bf 7ff3 bb3f cab7 2bc0
00000210: 877b 94be 2bbd e2bd 9a02 5b3e 7f56 e0bf
00000220: f700 273f 01a4 5f3f 554e cd3e 8a1f 10bf
00000230: e0f6 eb3e d84c 08be 9ea0 113f 6f96 113f
00000240: 8877 a83c a6c5 0f3c 647a 423c 1082 fcbc
00000250: 0bd1 0cbd e76d 81bc 90c9 473d 9293 dfbd
00000260: 2619 e8bc 2343 29be 793c 62bd c9e9 acbd
00000270: 0d16 443d 575a 503d ccf2 86bd 7f38 9ebd
00000280: f45a 04bc 4c0f b23c 22d5 843d 993e 453e
00000290: e02e 25bc 15a3 dd3d 0c39 8c3d b4da df3b
000002a0: 6869 77bd 23f8 54bd 122b 0dbd 5337 8dbc
000002b0: 088b 7b3d 8512 b53d 3f83 5f3d c7cb 9c3b
000002c0: 0f2f 40bd 7376 663b ac71 113c 21e6 aabc
000002d0: 8bf5 dc3e 795f 6c3f 9ae6 0140 6ffc b13f
000002e0: 61bf 57bf a8ff c83d 4ac2 7f3f bf6c 603f
000002f0: e187 be3f 2565 bb3d 6ac4 00c0 bdc5 45bc
00000300: 5283 73bd 5da6 a640 f1e6 6b40 0370 f5bf
00000310: e469 edbf 3e90 0abf f457 f4be dc2d 133e
00000320: 3749 993c 9002 7f3f 168b 393e 4dba 0d3f
00000330: 3458 2abd 0136 593e 2caa 02bf bd89 dbbe
00000340: 98cd 93be a6d1 b2be da4f cb3e 414c 343e
00000350: 3443 73be 5e59 94be 608d 773d 2a2c fa3d
00000360: 65a9 fbbd 65cc d23d 0ffa 30be 10ae 843f
00000370: 9549 19bf a837 43bf ac94 13bf 922e ad3e
00000380: 7488 0940 752f b63f 9008 803f 1e3e 593f
00000390: 1553 68be fdd7 bd3e 2274 2c3f 8545 163d
000003a0: 1143 8bbe 1e5b 413e 907f 0fbf 62fb b63e
000003b0: 51c4 c93e 22cc 783e 3af9 023e 229f cb3e
000003c0: 5fe9 c5bf b0b7 733f b0b7 1e3f 8b20 a53d
000003d0: 4bc8 ec3e 350b 47be 551a bcbe 0645 f2bd
000003e0: 4510 8e3e 678b fd3d e127 b93f b438 9d3f
000003f0: c60c 6e40 cda2 9c3f ba2b e63f e8b0 8e3c

fc.0.bias f4 [256]
-1.6984774 -2.521676 -3.497515 -5.5675774 -4.3532085 -3.9010913 -3.0901723 -4.2574873
-4.829035 -3.42762 -0.90468204 -0.28491905 -3.23961 -3.3843539 0.2962471 0.61940783
-0.3728204 -3.6739295 0.7078775 0.22612971 -3.7915196 -0.14111966 -6.13758 -4.0123086
-6.117502 -1.4903725 0.7109395 -3.7940266 -0.120511055 0.60551953 -2.7352283 -3.475747
-2.20342 -2.1187873 -2.1127672 -6.0215473 -0.4290598 -4.0262637 1.1839464 1.4014955
-3.8456156 -5.693181 -1.574016 -6.4516916 -2.1211224 -1.618085 -4.931233 -2.663028
-2.090091 -4.3454714 -0.002945301 -3.1449902 -1.7679187 -1.4013517 -2.2455914 -6.204016
-1.7670658 -2.0792966 -1.9162179 1.0056152 -1.4271102 -0.32266203 0.5886848 -2.9288538
-6.5199275 -4.176856 -4.025681 -4.493966 -1.8259985 4.115114 -0.73988926 0.3006748
-4.0034 -5.21461 -1.0812302 -5.61362 0.49276894 -2.9175143 -5.6110444 -3.289832
1.7979423 -4.5478826 -0.28493106 -1.743886 -6.038235 -0.54864365 0.4167833 -5.867988
0.27804458 -3.5716076 0.33783937 -0.31893164 -4.1642184 -2.9823666 -4.4922357 -1.5703485
-2.0280018 -0.31717855 -2.478241 -5.86125 0.18361324 0.36412892 -1.2501591 -3.8546329
-5.094106 -1.2154319 -1.757002 2.4706943 -0.115252 -3.9132133 -0.60945535 -3.2540631
-3.29067 -3.4479096 -2.1462896 -4.787532 1.0417286 -4.104417 -3.481527 -4.104553
-0.0090068225 -3.4778826 -3.3472874 -7.182767 -3.832329 -4.156385 -0.16962095 -0.3164937
-1.6779462 2.1611106 -1.9342743 -3.0113394 0.73390645 -2.9498596 -0.280792 -4.1566114
-2.9664266 2.266651 -4.391878 -5.236242 -2.285111 -0.9430714 -2.8021622 0.46863666
-3.2852285 -3.6286068 -0.121269785 1.2898892 -3.8766847 0.8176127 -1.5465962 -1.1988791
-3.773276 0.8626454 -4.1270823 -5.0163736 4.3605676 1.158514 -6.487535 -5.913542
-1.171938 -2.200285 -0.8713796 -3.319173 -1.6872807 -3.6306646 0.06364841 -0.091467425
-5.0840235 -3.9353065 -7.4174833 -3.1535313 -5.09643 -2.8772502 -3.386144 -0.66089743
-1.9634743 -5.2335024 -3.869339 -0.6801644 -1.8741566 0.68223447 -1.3853753 -6.0995874
-3.7028613 -3.625991 -6.651902 -4.335983 -1.7109851 -3.3437088 -4.869581 -0.7307453
-0.7118392 -3.9943535 -1.5730578 -2.860107 0.07759515 6.5132227 -3.969133 0.23121026
-1.7397183 0.6360642 -1.9363458 -0.46826604 -3.3742418 -0.017696384 -4.3400955 -2.8232803
-4.9349813 -1.3437408 0.2927744 -3.2409775 -5.553124 1.6462125 -0.51372755 0.76978195
-2.726089 -2.2154832 -1.5392003 -0.74669015 -3.1570506 -3.07656 1.1483077 -1.4873177
-0.18297313 -2.124893 -2.272253 -4.1076217 -6.888616 -4.040919 -2.6869426 -1.3048217
-4.180883 -5.232267 -3.8147295 -3.6226158 -4.0400767 -3.229631 -0.9504377 -0.34865513
-5.187369 -3.6410859 2.1016212 -4.228976 0.15907189 -2.0885386 -0.3608947 -0.5970015
-6.023735 -2.4793468 -0.4303698 -1.918955 -2.0493042 -3.664421 -2.9857883 3.5344512
00000000: b567 d9bf 2463 21c0 49d7 5fc0 9829 b2c0
00000010: 7c4d 8bc0 7bab 79c0 62c5 45c0 563d 88c0
00000020: 7487 9ac0 205e 5bc0 3e99 67bf e9e0 91be
00000030: c555 4fc0 4199 58c0 b3ad 973e 8391 1e3f
00000040: 51e2 bebe a921 6bc0 7637 353f 8c8e 673e
00000050: 42a8 72c0 ac81 10be 0e67 c4c0 d564 80c0
00000060: 94c2 c3c0 87c4 bebf 2200 363f 55d1 72c0
00000070: 80ce f6bd 5403 1b3f fb0d 2fc0 a472 5ec0
00000080: d504 0dc0 369a 07c0 9437 07c0 84b0 c0c0
00000090: baad dbbe 27d7 80c0 8e8b 973f 3464 b33f
000000a0: 911e 76c0 8a2e b6c0 5b79 c9bf 4274 cec0
000000b0: 78c0 07c0 691d cfbf a9cc 9dc0 0d6f 2ac0
000000c0: 0dc4 05c0 1a0e 8bc0 f305 41bb 8547 49c0
000000d0: 294b e2bf 7e5f b3bf c5b7 0fc0 4d87 c6c0
000000e0: 362f e2bf 3213 05c0 a146 f5bf 00b8 803f
000000f0: 8cab b6bf f533 a5be 0cb4 163f 5772 3bc0
00000100: 3fa3 d0c0 cea8 85c0 61d2 80c0 92ce 8fc0
00000110: 52ba e9bf 04af 8340 6269 3dbf 0cf2 993e
00000120: da1b 80c0 16de a6c0 c065 8abf c6a2 b3c0
00000130: 364c fc3e 8eb8 3ac0 ad8d b3c0 9c8c 52c0
00000140: f922 e63f 4188 91c0 7ce2 91be a837 dfbf
00000150: 3939 c1c0 e973 0cbf 9f64 d53e 8fc6 bbc0
00000160: dc5b 8e3e 3895 64c0 48f9 ac3e 024b a3be
00000170: 4741 85c0 18df 3ec0 65c0 8fc0 2e01 c9bf
00000180: c8ca 01c0 3a65 a2be 809b 1ec0 5c8f bbc0
00000190: 1c05 3c3e 1b6f ba3e 3705 a0bf 4eb2 76c0
000001a0: eb02 a3c0 4693 9bbf 71e5 e0bf db1f 1e40
000001b0: 3e09 ecbd 1672 7ac0 4405 1cbf 9242 50c0
000001c0: 569a 52c0 8daa 5cc0 cf5c 09c0 7633 99c0
000001d0: 5d57 853f 6257 83c0 57d1 5ec0 8058 83c0
000001e0: 5a91 13bc a195 5ec0 f539 56c0 3ad9 e5c0
000001f0: e144 75c0 1b01 85c0 1db1 2dbe 760b a2be
00000200: f1c6 d6bf a34f 0a40 4d96 f7bf c9b9 40c0
00000210: 4be1 3b3f 80ca 3cc0 f8c3 8fbe f602 85c0
00000220: efd9 3dc0 cf10 1140 448a 8cc0 4b8f a7c0
00000230: 423f 12c0 216d 71bf a056 33c0 25f1 ef3e
00000240: 2f41 52c0 183b 68c0 4b5c f8bd 171b a53f
00000250: 9a1b 78c0 114f 513f ddf6 c5bf df74 99bf
00000260: 5b7d 71c0 54d6 5c3f 0f11 84c0 2286 a0c0
00000270: c589 8b40 304a 943f e399 cfc0 bc3b bdc0
00000280: 1002 96bf 78d1 0cc0 bc12 5fbf 556d 54c0
00000290: d0f8 d7bf cf5c 68c0 195a 823d 4653 bbbd
000002a0: 52b0 a2c0 10dc 7bc0 065c edc0 75d3 49c0
000002b0: f415 a3c0 de24 38c0 95b6 58c0 9330 29bf
000002c0: 2053 fbbf da78 a7c0 40a3 77c0 411f 2ebf
000002d0: 5de4 efbf eba6 2e3f fa53 b1bf d22f c3c0
000002e0: aefb 6cc0 3d10 68c0 62dc d4c0 5fc0 8ac0
000002f0: 8f01 dbbf 53ff 55c0 9cd3 9bc0 2012 3bbf
00000300: 183b 36bf 7da3 7fc0 f559 c9bf fe0b 37c0
00000310: 35ea 9e3d 526c d040 4606 7ec0 62c2 6c3e
00000320: 17af debf 1ad5 223f 2eda f7bf 91c0 efbe
00000330: 94f3 57c0 02f8 90bc 10e2 8ac0 a0b0 34c0
00000340: 5eeb 9dc0 b3ff abbf 87e6 953e 2d6c 4fc0
00000350: 31b3 b1c0 17b7 d23f a683 03bf 6e10 453f
00000360: 3e78 2ec0 7aca 0dc0 8404 c5bf 1627 3fbf
00000370: 1e0d 4ac0 5ce6 44c0 bffb 923f 6d60 bebf
00000380: 4f5d 3bbe 3ffe 07c0 986c 11c0 a371 83c0
00000390: 8b6f dcc0 354f 81c0 def6 2bc0 6604 a7bf
000003a0: cbc9 85c0 bb6e a7c0 8724 74c0 f0d8 67c0
000003b0: 4f48 81c0 46b2 4ec0 e34f 73bf ed82 b2be
000003c0: edfe a5c0 8d07 69c0 f680 0640 c553 87c0
000003d0: bee3 223e 9eaa 05c0 31c7 b8be 17d5 18bf
000003e0: 70c2 c0c0 9ead 1ec0 6e59 dcbe 51a0 f5bf
000003f0: cd27 03c0 e085 6ac0 2817 3fc0 7334 6240

fc.1.weight f4 [128, 256]
0.5609854 -0.75057685 -1.0993433 0.4522247 0.0054153 1.3891536 -0.79565656 0.013429297
-1.1479299 0.76161563 -1.169768 0.90596604 0.2719555 1.0767229 -0.021671783 0.6182156
-0.27444413 0.17885296 -2.8817685 -1.6213981 -0.29624313 -0.695358 0.5080068 2.4422061
-0.13856095 -0.38524497 -1.2513939 -1.7876567 -0.91427594 0.5582184 -0.9585262 -2.3947763
-2.2512796 0.4723982 1.042906 -0.09455121 1.7056452 0.21217549 -0.32886806 -0.62723124
0.9220828 -0.6392648 -7.3126945 0.45006675 -0.4188589 1.4543155 -1.1058917 0.013495639
0.42043692 0.100988954 -0.5445489 -0.8167476 0.6533971 1.0412148 0.346687 -0.046079602
-0.16882284 1.1071063 -0.33475426 -0.10372804 -1.4234812 -2.6549366 0.0035449308 0.6475222
-2.0131905 -1.4826103 -1.2533655 -3.0638754 -0.06963124 0.9954708 0.8266822 -2.942909
0.44697472 0.010652568 -4.8412447 -0.016826067 -0.057115905 -0.3839933 -0.9438058 0.23150554
-0.41050512 -1.2283422 -0.18974456 -1.7911184 1.6120806 -1.1953704 -0.49240988 0.33482277
0.24927048 -3.385958 -0.059106175 -0.4850251 0.98832536 0.09433897 0.06017778 -0.03661743
0.9444261 -0.2180507 -1.9952234 -1.5440884 -0.39504263 -0.43478206 -0.55798864 0.35752487
0.73662406 -0.7726711 0.46723518 0.7718847 0.0512926 -1.3192533 -0.33599547 -0.9277938
1.2572145 1.8311055 0.9430129 0.16351192 -4.5305605 -0.30006072 0.9001669 -1.0758612
0.77854115 -3.527306 0.17629088 -0.58173966 0.27538255 -4.0818524 0.32149437 -1.9187514
0.34351778 0.16351667 -0.1105075 0.3605306 -0.8727382 0.24898717 0.14991766 0.023364907
-0.25953048 0.61514175 0.48618436 -1.5808991 -4.0425954 -0.6570204 -1.5894433 -1.1057824
-0.066938676 -0.38005605 1.0207525 -1.0240622 0.6286666 1.1437427 1.7028044 1.1340722
-1.3089993 0.26777756 0.07238484 -0.70651674 -0.6185695 0.68585485 0.10516084 0.13256985
-5.492199 0.67437255 -0.094475895 -0.4096806 0.08391827 1.0066401 1.0511522 0.38515276
1.1298988 1.107279 -0.8981611 0.9065362 1.1095443 0.71282136 0.5759556 -1.2113838
-0.7840879 0.36184722 -1.1308155 -1.7313379 -0.19921198 0.016811695 -0.5771551 -1.1252874
0.20730281 -3.8876615 0.3791325 0.295288 -0.005382662 -0.15011135 -0.099680446 1.0231236
-2.2389314 -0.69775695 0.5286285 0.90560067 0.7154495 0.99064726 -0.05148499 -0.48031121
-0.33063978 0.63331133 0.045372885 0.39973533 -0.9670147 -0.13905993 0.122677095 0.38438448
-1.2213409 1.1115798 -0.19040678 0.3553908 -1.8172659 0.57312006 0.016486336 -0.041272983
-0.7634057 1.0930849 -0.046765473 0.71441185 -0.46193662 -0.3951457 0.16022573 0.16137272
-0.59059143 0.6478975 0.43533713 -0.50051713 -0.9310426 -1.4480264 0.4866137 -0.3283499
-1.0684147 1.8769625 -0.24648315 0.29481804 -0.23215927 -2.3054934 0.10417552 -0.4702938
-0.47663313 -0.69599175 0.11746213 -0.8643731 -0.22708993 0.51931304 -0.3357738 -0.05398997
0.8221119 0.858901 -0.23312123 0.5068223 -2.0284293 -1.8247278 -0.47113803 0.655953
00000000: bd9c 0f3f ce25 40bf 48b7 8cbf ff89 e73e
00000010: d472 b13b c9cf b13f 26b0 4bbf 8e06 5c3c
00000020: 5eef 92bf 3ef9 423f f5ba 95bf 64ed 673f
00000030: c03d 8b3e 0ed2 893f 0689 b1bc 6143 1e3f
00000040: f183 8cbe 3b25 373e e56e 38c0 f989 cfbf
00000050: 2ead 97be fb02 32bf bc0c 023f 1b4d 1c40
00000060: ece2 0dbe d43e c5be ad2d a0bf efd1 e4bf
00000070: fd0d 6abf 67e7 0e3f f961 75bf 0444 19c0
00000080: f714 10c0 2dde f13e f27d 853f 11a4 c1bd
00000090: 9552 da3f 8844 593e 6561 a8be 3a92 20bf
000000a0: 9e0d 6c3f dca6 23bf 9801 eac0 266f e63e
000000b0: ac74 d6be 0327 ba3f dc8d 8dbf d01c 5d3c
000000c0: 8243 d73e 4cd3 ce3d 8f67 0bbf 5f16 51bf
000000d0: 0845 273f 8746 853f f580 b13e f7bd 3cbd
000000e0: e5df 2cbe a9b5 8d3f e964 abbe 5e6f d4bd
000000f0: a234 b6bf 7bea 29c0 1252 683b 04c4 253f
00000100: 1dd8 00c0 2dc6 bdbf 486e a0bf 8916 44c0
00000110: d39a 8ebd 2dd7 7e3f 72a1 533f 9f58 3cc0
00000120: dfd9 e43e 1c88 2e3c 7aeb 9ac0 d2d6 89bc
00000130: 5ef2 69bd c59a c4be 429d 71bf ca0f 6d3e
00000140: ba2d d2be 513a 9dbf 664c 42be 5e43 e5bf
00000150: a858 ce3f e601 99bf 261d fcbe e46d ab3e
00000160: c340 7f3e 89b3 58c0 5119 72bd 3655 f8be
00000170: e402 7d3f ca34 c13d fa7c 763d 29fc 15bd
00000180: e9c5 713f af48 5fbe 7b63 ffbf b0a4 c5bf
00000190: 0743 cabe c19b debe 58d8 0ebf 800d b73e
000001a0: 6593 3c3f c6cd 45bf 7339 ef3e 3c9a 453f
000001b0: 3018 523d 4bdd a8bf 9907 acbe e583 6dbf
000001c0: 68ec a03f aa61 ea3f 4b69 713f ab6f 273e
000001d0: 5afa 90c0 8fa1 99be 5771 663f d2b5 89bf
000001e0: 794e 473f 62bf 61c0 9985 343e e4ec 14bf
000001f0: f1fe 8c3e 899e 82c0 e99a a43e a599 f5bf
00000200: 90e1 af3e ea70 273e c251 e2bd 7897 b83e
00000210: c56b 5fbf 7ef6 7e3e 0484 193e c367 bf3c
00000220: 2ee1 84be ee79 1d3f 28ed f83e e75a cabf
00000230: f15c 81c0 7d32 28bf e172 cbbf 478a 8dbf
00000240: 2517 89bd b596 c2be 05a8 823f 7814 83bf
00000250: 4bf0 203f 2966 923f 7ff5 d93f 4729 913f
00000260: 4a8d a7bf 241a 893e 813e 943d 48de 34bf
00000270: 925a 1ebf 2f94 2f3f 915e d73d 64c0 073e
00000280: 18c0 afc0 aea3 2c3f 947c c1bd a8c1 d1be
00000290: 58dd ab3d 95d9 803f 288c 863f be32 c53e
000002a0: 86a0 903f 51bb 8d3f e3ed 65bf c212 683f
000002b0: 8c05 8e3f 767b 363f d471 133f a00e 9bbf
000002c0: fcb9 48bf 0a44 b93e 90be 90bf 7b9c ddbf
000002d0: 3afe 4bbe aeb8 893c 70c0 13bf 6b09 90bf
000002e0: 3047 543e 72cf 78c0 a81d c23e fd2f 973e
000002f0: 0b61 b0bb cab6 19be 4325 ccbd b7f5 823f
00000300: a74a 0fc0 33a0 32bf 3354 073f 72d5 673f
00000310: b327 373f 0f9b 7d3f ede1 52bd 5aeb f5be
00000320: 9e49 a9be b120 223f ebd8 393d 1caa cc3e
00000330: 468e 77bf ba65 0ebe 213e fb3d 0bce c43e
00000340: e654 9cbf 3f48 8e3f fff9 42be c8f5 b53e
00000350: 2b9c e8bf ffb7 123f 5a0e 873c dc0d 29bd
00000360: 8e6e 43bf 35ea 8b3f 278d 3fbd b2e3 363f
00000370: f582 ecbe 8a50 cabe 3712 243e e43e 253e
00000380: 0031 17bf 9cdc 253f 82e4 de3e e421 00bf
00000390: cf58 6ebf ee58 b9bf 6e25 f93e 7a1d a8be
000003a0: d0c1 88bf 4f40 f03f 1466 7cbe 64f2 963e
000003b0: 29bb 6dbe 348d 13c0 fa59 d53d 59ca f0be
000003c0: 4209 f4be 842c 32bf fc8f f03d 8e47 5dbf
000003d0: 438a 68be b3f1 043f 8bea abbe 9624 5dbd
000003e0: ed75 523f f0e0 5b3f 55b7 6ebe 1bbf 013f
000003f0: c9d1 01c0 ae90 e9bf 0139 f1be 89ec 273f

fc.1.bias f4 [128]
1.2085639 1.5733539 6.1819243 -4.1431336 -2.1822608 0.023455178 0.91482246 0.6261768
-0.8872018 -1.1464379 -0.2548451 1.2706851 -0.21039513 -0.62974566 -4.796634 3.3323412
3.0578847 2.970692 -1.964246 -3.1842527 2.4706461 -1.5594525 -0.009710493 -0.09924869
-1.0865493 -2.310622 1.8691115 1.0774064 -0.04030321 1.0819522 1.679515 -2.1515224
-0.05070417 3.2172325 -0.029875703 -0.058220156 -1.0569626 2.2280722 -0.524132 -2.3789818
3.152748 0.94291335 -0.042153906 -3.4565265 0.68370205 -1.576667 5.610787 3.8464396
-0.8593439 0.0050641927 -0.023488706 0.015236875 -1.9828445 0.97404444 -0.074312195 0.22305943
6.860564 -3.449551 0.44665283 4.6065044 0.5530856 -2.8920057 -5.67093 -2.2204094
-0.3511478 0.0135783255 0.0046205577 -0.0998646 -0.4151948 6.2337027 -3.6969411 -3.2069435
2.0781043 -0.009519753 1.4539889 -5.0260572 -1.2159482 -0.05013374 4.0512886 -0.6510446
-0.56045496 0.9196145 3.147398 -2.8454711 -0.09931253 1.8768178 -1.4713984 0.04212216
3.2009525 2.5719547 3.8015976 -4.7072678 0.106261805 -0.02452615 -0.07303065 2.9231608
3.7664 5.8731403 0.6840132 -6.8622336 -1.1885113 -2.0401723 -2.146133 -0.8264508
-0.028283682 -1.8066157 -1.0472149 0.69239604 1.3142651 3.8373206 2.1806295 1.0237232
-0.017734988 2.974649 -3.164922 3.6275897 -4.0340276 -3.8621335 3.1472006 2.2555354
-0.038327664 0.86919916 -0.07909912 -7.3586617 0.1823668 -2.484596 1.0207456 -1.860184
00000000: 39b2 9a3f a963 c93f 53d2 c540 8d94 84c0
00000010: 29aa 0bc0 1325 c03c ce31 6a3f 1f4d 203f
00000020: a81f 63bf 7abe 92bf 0f7b 82be cfa5 a23f
00000030: d271 57be 0337 21bf 077e 99c0 1445 5540
00000040: 62b4 4340 d11f 3e40 6a6c fbbf ccca 4bc0
00000050: 111f 1e40 249c c7bf c218 1fbc e642 cbbd
00000060: 0c14 8bbf 3be1 13c0 0c3f ef3f 74e8 893f
00000070: fb14 25bd 697d 8a3f 59fa d63f 8bb2 09c0
00000080: 2daf 4fbd 23e7 4d40 e4bd f4bc 4278 6ebd
00000090: 8d4a 87bf bc98 0e40 842d 06bf 3d41 18c0
000000a0: a0c6 4940 c562 713f 93a9 2cbd bb37 5dc0
000000b0: 1907 2f3f 39d0 c9bf 918b b340 112c 7640
000000c0: f6fd 5bbf 87f1 a53b 636b c0bc 16a4 793c
000000d0: d9cd fdbf fa5a 793f fe30 98bd b169 643e
000000e0: be89 db40 72c5 5cc0 aeaf e43e 7c68 9340
000000f0: 0597 0d3f 9f16 39c0 4278 b5c0 301b 0ec0
00000100: a5c9 b3be a077 5e3c 0c68 973b d085 ccbd
00000110: 6a94 d4be 7e7a c740 af9a 6cc0 903e 4dc0
00000120: a9ff 0440 bdf8 1bbc 4f1c ba3f 76d5 a0c0
00000130: 31a4 9bbf 0959 4dbd 28a4 8140 dcaa 26bf
00000140: fa79 0fbf db6b 6b3f f86e 4940 331c 36c0
00000150: 5e64 cbbd 913b f03f c856 bcbf 4988 2c3d
00000160: 68dc 4c40 e89a 2440 604d 7340 f0a1 96c0
00000170: ca9f d93d 11eb c8bc 1891 95bd 1115 3b40
00000180: b30c 7140 c4f0 bb40 7d1b 2f3f 6b97 dbc0
00000190: 2321 98bf 2f92 02c0 3e5a 09c0 4892 53bf
000001a0: 2eb3 e7bc 2f3f e7bf 230b 86bf de40 313f
000001b0: d739 a83f a996 7540 6f8f 0b40 5d09 833f
000001c0: f748 91bc a660 3e40 158e 4ac0 6e2a 6840
000001d0: c116 81c0 322d 77c0 bc6b 4940 b15a 1040
000001e0: 78fd 1cbd d683 5e3f b8fe a1bd 287a ebc0
000001f0: 5dbe 3a3e 9f03 1fc0 cba7 823f 821a eebf

fc.2.weight f4 [64, 128]
0.8255815 -2.1045644 -0.74576986 -1.3779107 -0.46605754 0.005791832 -1.0228087 -2.310908
0.33026648 -0.03007754 0.11072454 -0.8433018 0.098388106 0.08144116 -2.1220024 0.70003927
-0.2581927 -0.31653908 0.03901816 -1.3107498 1.0761906 -1.2587838 0.01707264 -0.037526127
0.06343883 -0.6985642 1.3410621 0.5425808 0.09040745 0.30701205 0.37579644 1.4081979
0.01262992 -0.18303773 -0.008764146 0.22337848 -2.147331 1.0837202 -0.10309483 -0.7751668
-1.0802041 -0.5061276 0.0022281958 0.31608573 -0.95598257 -0.4010739 1.1427922 0.41062728
0.918235 -0.041265596 -0.00055803044 0.024538558 -0.038945403 -0.7736159 -0.042325936 0.111324325
0.35015348 -0.41206598 -0.28575927 0.7024187 0.1903495 -0.29779246 0.39580417 -0.19640344
0.599164 -0.065652534 -0.045987323 -0.024244154 0.078677505 -2.780955 -0.2733438 0.14740074
-0.6624073 -0.021702513 0.07879519 0.35638532 -0.6487149 0.001970512 0.39230943 -1.1220304
0.30193806 -2.96214 0.08311247 0.23199156 -0.025378633 0.86660695 0.89957213 -0.16473672
-0.7775488 -0.06479631 -0.61414915 -0.040717557 -1.2379783 -0.08166552 -0.029943945 0.6111786
-0.20663466 -0.032772075 -0.4305682 -4.348289 -0.287426 -7.5747128 -0.29060274 0.6429253
0.025097512 -0.68161106 -1.2743069 -4.532395 -1.4307892 -0.9408902 -0.052459776 -0.59630144
0.07701089 0.4490554 0.5648599 -2.8072276 -0.17476553 -1.6723512 0.4760443 -0.6891317
0.028239407 0.17446898 -0.061739884 -1.2714155 -1.6204873 0.090230785 -1.0776501 -1.4516718
0.07449364 0.077867396 -0.010834068 -0.7850112 -0.025831329 -0.013588268 -0.050258096 0.030607907
0.05032596 -0.037401892 -0.13350816 -0.0522127 0.20725363 0.034396216 -0.37282866 -0.0020014797
0.059194792 0.039222237 0.012125717 -0.042554427 -0.035770398 -0.13222043 -0.035640135 0.025608903
0.09436368 -0.39702594 -0.01022138 -0.00063396513 -0.089491405 -0.001851156 0.010283074 0.12048825
0.006218309 0.023325114 -0.036846377 -0.003756274 0.00428141 -0.010238994 -0.011361192 0.0042496533
-0.04877922 -0.15419956 0.04318095 0.012134736 0.0024929713 -0.009927747 0.34741983 0.041600857
0.113222 -0.030498601 0.067633875 -0.07598859 0.01376621 0.055938907 0.075229615 0.019206487
0.04847456 0.047445387 0.08053898 0.20713621 0.033278305 0.02099777 -0.067490295 -0.009297886
0.022119293 -0.062437583 0.06354567 -0.09422881 -0.015624162 0.04975034 0.02875845 -0.2883784
0.10460328 -0.0006037244 0.013670754 -1.1126875 -0.07726346 0.044027403 0.035877142 0.0790055
-0.10466326 0.105517946 -0.041699745 -0.009118258 -0.077577 0.035837542 0.044190496 0.011552903
0.3511568 0.036902606 -0.084465586 -0.46447358 -0.12451028 0.0644325 0.02488348 0.13468216
-0.13795844 -0.07271049 0.06113101 0.62395555 -0.02253103 -0.7030553 -0.022549849 0.013806896
-0.072966754 -0.073004015 0.45650506 0.29205504 0.03678961 0.023148783 0.01840296 0.040392958
-0.076093525 -0.022575773 -0.06934788 0.06836256 0.027130285 0.095332704 -1.4258298 -0.09504602
-0.05951599 -0.10170475 0.0028828192 0.2959266 -0.010170913 0.017269077 0.25551444 0.13403143
00000000: 4f59 533f 2fb1 06c0 c6ea 3ebf 615f b0bf
00000010: 189f eebe 69c9 bd3b 65eb 82bf ebe5 13c0
00000020: b018 a93e 2c65 f6bc 8cc3 e23d a0e2 57bf
00000030: b47f c93d 9fca a63d e3ce 07c0 c635 333f
00000040: d531 84be 6911 a2be 82d1 1f3d a6c6 a7bf
00000050: 9dc0 893f d41f a1bf ecdb 8b3c ffb4 19bd
00000060: 38ec 813d 1ad5 32bf eca7 ab3f 93e6 0a3f
00000070: 8b27 b93d af30 9d3e 6468 c03e d43f b43f
00000080: b9ed 4e3c 3e6e 3bbe 7e97 0fbc 54bd 643e
00000090: df6d 09c0 58b7 8a3f 6223 d3bd 5571 46bf
000000a0: 2144 8abf 9491 01bf ec06 123b fdd5 a13e
000000b0: 46bb 74bf 8f59 cdbe 0447 923f bd3d d23e
000000c0: 7311 6b3f 1d06 29bd ca48 12ba 1605 c93c
000000d0: 3785 1fbd b10b 46bf f65d 2dbd 02fe e33d
000000e0: 5147 b33e 50fa d2be 0a4f 92be b6d1 333f
000000f0: fbea 423e 4178 98be d8a6 ca3e fc1d 49be
00000100: d062 193f d674 86bd 345d 3cbd ad9b c6bc
00000110: ac21 a13d 2bfb 31c0 b8f3 8bbe 38f0 163e
00000120: 8693 29bf 78c9 b1bc 5f5f a13d 2378 b63e
00000130: 2e12 26bf b523 013b c8dc c83e b19e 8fbf
00000140: a097 9a3e b493 3dc0 df36 aa3d 328f 6d3e
00000150: dae6 cfbc f4d9 5d3f 5c4a 663f beb0 28be
00000160: 700d 47bf eeb3 84bd e138 1dbf 74c7 26bd
00000170: 1376 9ebf 4140 a7bd 014d f5bc 3376 1c3f
00000180: 0998 53be 033c 06bd 6f73 dcbe 2f25 8bc0
00000190: 8029 93be 0c64 f2c0 e2c9 94be c196 243f
000001a0: 4c99 cd3c 107e 2ebf 7d1c a3bf 6109 91c0
000001b0: 1a24 b7bf 2ede 70bf 10e0 56bd 36a7 18bf
000001c0: e3b7 9d3d 97ea e53e a99a 103f 9ea9 33c0
000001d0: bcf5 32be 9b0f d6bf 14bc f33e ef6a 30bf
000001e0: 5456 e73c ffa7 323e f6e2 7cbd bebd a2bf
000001f0: 216c cfbf ebca b83d 70f0 89bf 62d0 b9bf
00000200: 1f90 983d f178 9f3d 6081 31bc 7ef6 48bf
00000210: 399c d3bc 54a1 5ebc 6fdb 4dbd 6fbd fa3c
00000220: 9822 4e3d ba32 19bd 5db6 08be fcdc 55bd
00000230: 4c3a 543e 0ce3 0c3d 66e3 bebe 422b 03bb
00000240: 3d76 723d 7fa7 203d f1aa 463c 8d4d 2ebd
00000250: fb83 12bd cb64 07be 64fb 11bd c3c9 d13c
00000260: bf41 c13d fc46 cbbe 9377 27bc ae30 26ba
00000270: 4547 b7bd 7da2 f2ba 577a 283c 8bc2 f63d
00000280: f5c2 cb3b 4f14 bf3c 3aec 16bd d22b 76bb
00000290: 124b 8c3b 74c1 27bc 4b24 3abc ad40 8b3b
000002a0: b8cc 47bd 7de6 1dbe 82de 303d c6d0 463c
000002b0: 1e61 233b fda7 22bc 03e1 b13e a965 2a3d
000002c0: f0e0 e73d 34d8 f9bc a183 8a3d e89f 9bbd
000002d0: ab8b 613c 3220 653d fc11 9a3d ec56 9d3c
000002e0: 438d 463d 1856 423d 9ff1 a43d 841b 543e
000002f0: d54e 083d 8403 ac3c 5a38 8abd 2956 18bc
00000300: 8533 b53c 8dbe 7fbd 3b24 823d 09fb c0bd
00000310: 7cfc 7fbc 03c7 4b3d d796 eb3c 55a6 93be
00000320: 3f3a d63d 4243 1eba 4cfb 5f3c 8b6c 8ebf
00000330: 4e3c 9ebd 1456 343d e9f3 123d a3cd a13d
00000340: b159 d6bd cb19 d83d 5acd 2abd bf64 15bc
00000350: b1e0 9ebd 63ca 123d 1801 353d 6348 3d3c
00000360: d3ca b33e 3027 173d 4bfc acbd 7bcf edbe
00000370: 3fff febd 30f5 833d 71d8 cb3c 1fea 093e
00000380: fa44 0dbe 3de9 94bd 8364 7a3d 8dbb 1f3f
00000390: ff92 b8bc 6ffb 33bf 76ba b8bc 5236 623c
000003a0: 986f 95bd 2183 95bd 08bb e93e 3d88 953e
000003b0: b4b0 163d 84a2 bd3c cec1 963c 1673 253d
000003c0: ecd6 9bbd d4f0 b8bc 4306 8ebd ab01 8c3d
000003d0: 5540 de3c cb3d c33d 9781 b6bf 7da7 c2bd
000003e0: 0ac7 73bd 944a d0bd aeed 3c3b b183 973e
000003f0: e7a3 26bc e177 8d3c cad2 823e 893f 093e

fc.2.bias f4 [64]
-0.7036255 5.9027653 5.9969196 -1.8824475 -0.33196524 -10.718676 -0.19449693 -7.9885774
-3.4997077 -17.419813 7.985579 -1.0946829 -0.23655276 -3.3899848 1.8690047 -8.628903
-0.16056104 9.696522 -13.16739 8.26425 -3.4904146 -3.4135783 -0.57645035 -14.578068
1.7489338 -4.162662 2.2451577 11.19771 -2.013843 -0.14530362 1.1598474 3.5564718
1.6458075 -0.49493632 0.6530689 -5.27389 -1.83087 -17.171154 7.5757117 -0.37009218
-11.637763 11.834411 6.464896 7.043047 -0.9810545 -10.392579 -3.213545 1.7438002
-9.117014 -5.8927774 1.9595386 0.19158922 4.1140313 3.4825435 12.541309 2.1056836
-1.9858892 1.9531952 2.7202823 -1.7451696 8.162209 -2.0044641 -6.2431693 -1.5281551
00000000: cd20 34bf 74e3 bc40 c4e6 bf40 0af4 f0bf
00000010: 59f7 a9be b27f 2bc1 342a 47be 6da2 ffc0
00000020: 36fb 5fc0 c75b 8bc1 dd89 ff40 921e 8cbf
00000030: e33a 72be 83f5 58c0 8c3b ef3f fd0f 0ac1
00000040: 1d6a 24be f424 1b41 a1ad 52c1 5e3a 0441
00000050: f462 5fc0 1178 5ac0 4092 13bf c43f 69c1
00000060: 10dd df3f 8734 85c0 aab0 0f40 d229 3341
00000070: cee2 00c0 79ca 14be e175 943f 3c9d 6340
00000080: d2a9 d23f 4b68 fdbe 862f 273f b5c3 a8c0
00000090: f359 eabf 865e 89c1 3b6c f240 b97c bdbe
000000a0: 4734 3ac1 bf59 3d41 6ee0 ce40 a460 e140
000000b0: 6326 7bbf 0148 26c1 b9aa 4dc0 d834 df3f
000000c0: 4adf 11c1 a291 bcc0 29d2 fa3f f72f 443e
000000d0: 25a6 8340 fee1 5e40 34a9 4841 85c3 0640
000000e0: 9e31 febf 4d02 fa3f 1b19 2e40 b861 dfbf
000000f0: 6898 0241 2449 00c0 0bc8 c7c0 969a c3bf

fc.3.weight f4 [32, 64]
-0.119462 -0.23684257 -0.42238328 -0.026475295 -0.027738282 0.04045687 0.046949893 -0.14541341
-0.23221532 0.06827712 -0.13564475 -0.046603136 0.06969347 -0.11373454 -0.34761456 -0.07420062
-0.09995097 -0.40357098 -0.12797365 -0.101493835 -0.11789383 -0.16772173 -0.12454285 -0.16749728
-0.087332256 -0.1487721 -0.18225884 -0.30817434 -0.31874257 -0.113527566 -0.019496791 -0.17438908
0.036412116 -0.15591677 -0.18137611 -0.068966135 -0.05019189 -0.20893213 -0.242189 0.0623243
0.04272897 -0.3307933 -0.19838701 -0.64256215 -0.1745956 -0.054855548 -0.0521435 0.011987415
-0.099087834 0.13408045 -0.22676371 -0.199071 -0.40859857 -0.11007768 -0.12602746 0.001514608
-0.16615136 0.089590654 -0.05937297 0.048437506 -0.37111777 -0.35397235 -0.041183494 -0.191299
-1.1274769 -0.33819714 0.15393099 -0.31130877 0.04677406 -0.5932369 0.0005646088 -0.0880558
0.10070818 -0.14009233 0.28727895 -2.6206868 -1.9209728 -0.042902924 -0.30857316 -0.23226662
0.0076972754 0.08745956 -0.5268461 0.25607324 -0.03376748 -0.8290198 -0.5323684 -0.44133824
-0.15856864 0.21412535 0.06758955 0.18135054 -0.30204836 0.14130983 0.12011311 -0.06465315
-0.07866181 -0.49806893 -1.7215255 0.0069345934 -1.1339986 -0.18688272 -0.1419571 0.37321174
0.31675437 -0.063421555 -0.03250575 0.37225062 0.28682855 -0.11773107 0.05630871 -0.48691136
-0.24244034 -1.9870207 -0.08703181 -0.010363044 -0.14228763 -0.81323266 0.11211599 -0.1861725
-0.06255507 -0.20426649 -0.248101 -0.7865446 -0.13994169 -1.3864944 -0.31682876 -0.14261952
0.009088049 0.25206444 0.023875648 -1.4508673 -0.045792848 -0.7255136 0.08884919 0.00013618541
-0.009165248 -1.0547405 -0.18520981 -0.18154374 -1.5248493 -1.2310168 -0.036550995 0.009509461
-0.1888282 -0.7400626 -0.113515116 -1.2868942 -2.9335318 -0.016262216 -0.016848562 -0.2532154
-0.11104098 -0.038921837 -0.12439788 -0.9338063 0.0071761445 -0.027623499 -0.40963322 -0.09989243
0.00072603393 -0.14495811 -1.2375441 0.06978201 -0.017027425 0.33400056 -0.2224622 0.01950757
-0.98027384 -0.2722416 -1.7781323 -0.010837422 -0.14077978 -0.48318022 0.037493743 -0.099712536
0.026766054 -1.2057376 -0.122276485 -0.055479627 0.058057304 -0.06818606 -0.821644 -0.008062062
-0.08250861 -0.33475605 -0.08122767 0.025177063 -0.46071532 0.101781614 -0.7897786 -0.01668106
0.15121132 -0.14191245 -0.03312467 0.73181087 -0.11996434 -3.4855235 0.03421555 0.22324207
0.15590292 0.09146025 -0.26037276 -1.9621141 -0.53949094 -0.35212487 0.18070246 -0.08662115
0.06937507 -0.07452363 -0.10139568 0.1657459 0.062209368 -0.1283791 -0.3812114 -0.101425335
0.13504422 0.10991812 -0.00729626 0.24724905 -0.011827773 -0.012368293 -0.36694446 -0.16236618
0.28678173 0.10689269 -0.087606885 0.23845744 0.4287511 -0.86322737 0.14224082 -1.0667166
-0.12992643 -0.31851587 0.09685299 -0.08094583 0.035216354 -0.31949383 0.10509631 -0.31862998
-0.07675103 -0.5070643 -0.29554516 -0.22986774 -1.1395835 -0.00871485 -2.2528055 -0.18485203
-0.043976888 -0.17659403 -0.20021172 -4.7530513 -0.05135491 -1.037158 -2.4810915 -0.23119554
00000000: 7ea8 f4bd dc86 72be 9f42 d8be b8e2 d8bc
00000010: 653b e3bc 1ab6 253d 884e 403d 41e7 14be
00000020: dac9 6dbe e0d4 8b3d 75e6 0abe eee2 3ebd
00000030: 73bb 8e3d a8ed e8bd 89fa b1be 7ff6 97bd
00000040: 18b3 ccbd dba0 cebe 860b 03be 00dc cfbd
00000050: 5272 f1bd 3fbf 2bbe 5210 ffbd 6884 2bbe
00000060: 41db b2bd b757 18be 10a2 3abe 07c9 9dbe
00000070: 3a32 a3be 2481 e8bd bcb7 9fbc 0d93 32be
00000080: df24 153d a5a8 1fbe a9ba 39be 1e3e 8dbd
00000090: 0396 4dbd 4ef2 55be 6500 78be c447 7f3d
000000a0: 9304 2f3d bd5d a9be f725 4bbe f47e 24bf
000000b0: 30c9 32be 36b0 60bd 6c94 55bd dd66 443c
000000c0: 90ee cabd 634c 093e bf34 68be 45d9 4bbe
000000d0: d533 d1be 6870 e1bd 580d 01be d085 c63a
000000e0: 9523 2abe 4e7b b73d 1231 73bd 6866 463d
000000f0: 2603 bebe dd3b b5be 06b0 28bd e3e3 43be
00000100: 2a51 90bf 2d28 adbe 16a0 1d3e dd63 9fbe
00000110: 2896 3f3d 60de 17bf 4102 143a 9956 b4bd
00000120: 1740 ce3d 5d74 0fbe 3a16 933e 55b9 27c0
00000130: 70e2 f5bf faba 2fbd 4dfd 9dbe 4dd7 6dbe
00000140: 6d39 fc3b ff1d b33d 63df 06bf 081c 833e
00000150: c54f 0abd a43a 54bf 4c49 08bf 16f7 e1be
00000160: d15f 22be ad43 5b3e 646c 8a3d f5b3 393e
00000170: 15a6 9abe 86b3 103e ddfd f53d df68 84bd
00000180: 7119 a1bd e402 ffbe f35a dcbf 963b e33b
00000190: de26 91bf 2f5e 3fbe 345d 11be 9c15 bf3e
000001a0: a12d a23e 29e3 81bd c024 05bd a297 be3e
000001b0: 31db 923e fd1c f1bd f6a3 663d 724c f9be
000001c0: 4842 78be b256 febf bc3d b2bd c2c9 29bc
000001d0: d9b3 11be 0430 50bf 119d e53d 01a4 3ebe
000001e0: df1c 80bd 3c2b 51be 300e 7ebe fd5a 49bf
000001f0: e04c 0fbe a678 b1bf 6137 a2be da0a 12be
00000200: 0ae6 143c 970e 813e dd96 c33c 05b6 b9bf
00000210: 4891 3bbd 42bb 39bf 90f6 b53d fecc 0e39
00000220: d629 16bc bd01 87bf a4a7 3dbe 9ae6 39be
00000230: 432e c3bf f591 9dbf 7fb6 15bd 92cd 1b3c
00000240: 2e5c 41be be74 3dbf 9d7a e8bd f3b8 a4bf
00000250: fcbe 3bc0 5738 85bc ff05 8abc 73a5 81be
00000260: 7469 e3bd 816c 1fbd 51c4 febd ee0d 6fbf
00000270: dd25 eb3b ad4a e2bc 72bb d1be 6794 ccbd
00000280: 5053 3e3a e66f 14be d867 9ebf dfe9 8e3d
00000290: 197d 8bbc 1f02 ab3e 22cd 63be 57ce 9f3c
000002a0: 3af3 7abf 4063 8bbe d799 e3bf 718f 31bc
000002b0: 9328 10be 6663 f7be 0a93 193d 1636 ccbd
000002c0: 7c44 db3c 9c55 9abf 186c fabd 9b3e 63bd
000002d0: 7fcd 6d3d 22a5 8bbd 4357 52bf bd16 04bc
000002e0: 46fa a8bd 2565 abbe b15a a6bd 2140 ce3c
000002f0: e1e2 ebbe e172 d03d ee2e 4abf b8a6 88bc
00000300: 24d7 1a3e 7f51 11be bcad 07bd f557 3b3f
00000310: ddaf f5bd d112 5fc0 9b25 0c3d 9299 643e
00000320: 04a5 1f3e 834f bb3d 944f 85be 8e26 fbbf
00000330: 141c 0abf b649 b4be 110a 393e 6e66 b1bd
00000340: 8414 8e3d d89f 98bd 8aa8 cfbd 4bb9 293e
00000350: 40cf 7e3d d075 03be 242e c3be 16b8 cfbd
00000360: 0849 0a3e c01c e13d 7715 efbb db2e 7d3e
00000370: 47c9 41bc 61a4 4abc 25e0 bbbe 5243 26be
00000380: 0ed5 923e 8eea da3d 3d6b b3bd 302e 743e
00000390: 4485 db3e 78fc 5cbf 94a7 113e 2b8a 88bf
000003a0: 6f0b 05be 8314 a3be dc5a c63d edc6 a5bd
000003b0: 063f 103d b294 a3be bc3c d73d 7823 a3be
000003c0: a52f 9dbd f7ce 01bf b251 97be 7362 6bbe
000003d0: dfdd 91bf bbc8 0ebc f72d 10c0 da49 3dbe
000003e0: 1c21 34bd 11d5 34be 4d04 4dbe ff18 98c0
000003f0: 8759 52bd 98c1 84bf 34ca 1ec0 86be 6cbe

fc.3.bias f4 [32]
-0.6995733 -1.2824395 -2.7284467 2.141579 1.0567945 3.7613695 -2.4712086 4.0186663
-2.1789052 -7.8379617 -0.14792235 3.1347513 3.8260422 1.3494887 -2.6749783 -1.7384768
-3.9416173 2.7213707 0.7743045 -1.2254544 -4.0694375 2.2476044 -4.146533 -0.33290464
0.2147648 -0.549052 -1.3496971 3.2383873 -4.9921823 -0.2881263 -0.01842033 -0.8633245
00000000: 3c17 33bf fa26 a4bf df9e 2ec0 a10f 0940
00000010: 0b45 873f 47ba 7040 4828 1ec0 ea98 8040
00000020: 2f73 0bc0 95d0 fac0 f578 17be c49f 4840
00000030: e0dd 7440 0cbc ac3f d832 2bc0 6886 debf
00000040: 7543 7cc0 f02a 2e40 d238 463f b1db 9cbf
00000050: d538 82c0 c0d8 0f40 66b0 84c0 7a72 aabe
00000060: 4eeb 5b3e ac8e 0cbf e0c2 acbf bd41 4f40
00000070: f5bf 9fc0 4a85 93be 3be6 96bc d602 5dbf

fc.4.weight f4 [16, 32]
-0.1395283 -0.013560557 0.0003259037 -0.0028813577 -0.07801511 -0.026875 -0.14767274 -0.012641959
1.9638273e-05 0.0004869164 -0.024584908 0.0021238492 -0.006871146 0.00041030865 -0.017740514 -0.013802273
-0.13268064 -0.25783098 -0.009149547 -0.00033531198 -0.13506828 0.00016211254 0.0025828274 0.0026642166
-0.007712579 -0.020754172 -0.0303772 -0.028693618 -0.064978585 0.058101974 -0.011355707 -0.1485581
0.03431178 -0.047250777 -3.4427147 -0.740203 -0.50021994 -0.7164 -0.07479651 -1.1621413
0.09462496 -1.0179739 0.12620287 -0.40530014 -4.2224727 -0.012752071 0.3274882 -0.69279534
0.006469689 -0.2541246 -0.11365513 -0.33444032 -0.5280527 6.547462e-05 -0.096963614 -0.11061078
-0.42548668 -0.20774597 -1.853527 -0.03455443 0.16866468 -0.031917214 -0.047616612 -0.07837533
0.06732675 0.013783608 -0.16643353 -0.23193108 0.005618871 0.12659936 0.04308672 0.22818671
-0.024222588 0.039065715 0.024627205 -0.04293322 0.064650215 0.12568021 -0.14481632 0.00091913075
0.15005833 0.0011232748 -0.006659892 -0.007601902 -0.039111983 -0.0122732865 0.81813973 0.065301895
-0.010488084 -0.17569062 -0.027130634 -0.0046807854 0.02930542 -0.04991975 -0.052582808 -0.44434124
-0.030511206 -0.06183562 -0.21686803 -0.023975622 -0.6075971 -0.16782121 0.0012123714 -3.2822952
0.12940797 0.057169 0.07756707 0.058305636 -0.35394317 0.004385432 0.12341165 -0.024152873
-0.01815325 -0.018950546 -0.30945763 -0.33197328 -0.011128921 -0.0007940244 -0.054637194 0.013096294
0.0048903427 -0.05106982 -0.17250082 -0.8413268 -0.13496803 -0.14933546 -0.10118335 -0.8579203
-0.08457132 -0.00085983484 0.050447755 0.000100405945 -0.0003858314 -0.00033395182 0.0024618334 -0.19110176
-0.21841204 0.06681883 -0.15271711 0.18690486 0.15015244 -0.036626678 0.040737137 6.478791e-05
-0.013251341 -5.645024e-05 -0.007708596 -0.049602997 0.0040338887 -0.00041944266 -1.4374924 -0.009956422
-0.0016257097 -0.14940166 0.004075633 -0.00013437233 0.038074136 0.09746132 0.00020315601 -0.38476458
0.04200951 -0.4645347 0.022311509 -0.028107876 -0.0076280534 -0.23428774 0.023913749 -0.024345927
0.061962865 0.054500386 -0.031015133 0.11166957 0.032865424 0.051785115 0.4229141 -0.06244741
-0.72330076 0.0133098895 -3.3602643 -0.0721889 0.014136082 -0.60272074 -5.783204 -0.11612902
0.15635686 0.014025956 -0.07624654 -0.053530555 0.020306218 0.08396536 -0.02038011 -0.12689811
0.2859269 -1.7852157 1.1560272 -1.7946355 -0.0058483197 -0.005380814 -0.19154622 -3.090154
-0.011260121 -0.0723788 -0.09250601 -0.010254328 -0.016866995 -0.012014407 0.0053264266 -6.3360906
-0.046374246 -0.00086303067 -2.662873 -0.007555289 -0.58438164 -19.418865 -0.015225005 -0.12965621
-4.7226415 -0.000498932 -0.018537922 -0.058591276 -0.22695613 -0.059098512 0.16121072 0.014885436
-0.023054842 -0.015081568 -0.047941815 -0.33364388 -0.0881887 8.162858e-05 -0.044306155 -0.08580844
-0.09793454 -0.27641907 0.0846387 -0.063485585 -0.10253075 -0.14711389 0.005506162 -0.01774241
-0.08238516 -0.19550897 -0.77618045 -0.047524948 -0.18026626 -0.093098275 -0.036805995 -0.005400629
-0.06830832 -0.08652319 -0.07364889 -0.3422365 -0.06697002 0.038289998 -0.4380309 -0.1065208
00000000: 82e0 0ebe 192d 5ebc 0ede aa39 29d5 3cbb
00000010: 63c6 9fbd f628 dcbc 8637 17be 3820 4fbc
00000020: dfbc a437 d048 ff39 4a66 c9bc 4730 0b3b
00000030: 5a27 e1bb b21e d739 8e54 91bc ee22 62bc
00000040: 6fdd 07be 6c02 84be fbe7 15bc d0cc afb9
00000050: 574f 0abe c1fc 2939 a744 293b 239a 2e3b
00000060: cdb9 fcbb a704 aabc 9bd9 f8bc e10e ebbc
00000070: 7e13 85bd 56fc 6d3d 4a0d 3abc 9d1f 18be
00000080: 828a 0c3d 088a 41bd 7055 5cc0 f27d 3dbf
00000090: 6a0e 00bf fe65 37bf ea2e 99bd 0cc1 94bf
000000a0: bbca c13d f84c 82bf 533b 013e 8083 cfbe
000000b0: 7f1e 87c0 10ee 50bc 89ac a73e 095b 31bf
000000c0: afff d33b 9f1c 82be 05c4 e8bd c33b abbe
000000d0: 762e 07bf 6b4f 8938 dc94 c6bd e887 e2bd
000000e0: 64d9 d9be 5cbb 54be 5f40 edbf f288 0dbd
000000f0: 6fb6 2c3e a0bb 02bd a309 43bd 3f83 a0bd
00000100: 9be2 893d a4d4 613c 8d6d 2abe 577f 6dbe
00000110: 821e b83b 43a3 013e b37b 303d c7a9 693e
00000120: 736e c6bc 5f03 203d febe c93c beda 2fbd
00000130: 5567 843d 50b2 003e bb4a 14be d2f1 703a
00000140: e4a8 193e d93a 933a 393b dabb 6019 f9bb
00000150: e333 20bd e515 49bc 9b71 513f 00bd 853d
00000160: 36d6 2bbc 3ee8 33be 1041 debc 4661 99bb
00000170: ec11 f03c a778 4cbd 1261 57bd b280 e3be
00000180: a3f2 f9bc 5947 7dbd a712 5ebe 8668 c4bc
00000190: 7c8b 1bbf 53d9 2bbe 6fe8 9e3a 2011 52c0
000001a0: 8683 043e 0b2a 6a3d 7cdb 9e3d e4d1 6e3d
000001b0: 0a38 b5be acb3 8f3b 3fbf fc3d 3fdc c5bc
000001c0: 20b6 94bc 2d3e 9bbc 3b71 9ebe 67f8 a9be
000001d0: 1456 36bc 1326 50ba 40cb 5fbd d791 563c
000001e0: 2b3f a03b 962e 51bd 0ea4 30be 3161 57bf
000001f0: 0f35 0abe 65eb 18be 3739 cfbd aaa0 5bbf
00000200: ba33 adbd 8a66 61ba 4ea2 4e3d 0891 d238
00000210: 6a49 cab9 4116 afb9 b656 213b 2eb0 43be
00000220: 68a7 5fbe 50d8 883d e061 1cbe fd63 3f3e
00000230: 90c1 193e db05 16bd fcdb 263d bfde 8738
00000240: 271c 59bc fcc4 6cb8 6498 fcbb 832c 4bbd
00000250: b62e 843b a4e8 dbb9 c0ff b7bf 4320 23bc
00000260: c415 d5ba c0fc 18be e38c 853b 4ce6 0cb9
00000270: a0f3 1b3d cd99 c73d 4706 5539 ddff c4be
00000280: 2a12 2c3d 7ed7 edbe a0c6 b63c 7d42 e6bc
00000290: c0f4 f9bb 20e9 6fbe c4e6 c33c 1c71 c7bc
000002a0: c6cc 7d3d cc3b 5f3d 7313 febc 04b3 e43d
000002b0: e59d 063d a11c 543d 3288 d83e dbc8 7fbd
000002c0: 3d2a 39bf b911 5a3c 920e 57c0 c6d7 93bd
000002d0: 069b 673c e84b 1abf 0210 b9c0 0dd5 edbd
000002e0: 031c 203e 20cd 653c 2527 9cbd db42 5bbd
000002f0: 3a59 a63c 08f6 ab3d 30f4 a6bc 94f1 01be
00000300: 0365 923e f381 e4bf b3f8 933f 9eb6 e5bf
00000310: 43a3 bfbb 8a51 b0bb b124 44be 15c5 45c0
00000320: 5f7c 38bc 563b 94bd ca73 bdbd c501 28bc
00000330: a72c 8abc 13d8 44bc 4e89 ae3b 41c1 cac0
00000340: ecf2 3dbd 023d 62ba 836c 2ac0 5c92 f7bb
00000350: 099a 15bf d659 9bc1 4d72 79bc 99c4 04be
00000360: e11f 97c0 c2ca 02ba d7dc 97bc 68fd 6fbd
00000370: 3067 68be 4811 72bd 6c14 253e 0be2 733c
00000380: 82dd bcbc ae18 77bc a35e 44bd 5fd3 aabe
00000390: 479c b4bd 0330 ab38 5f7a 35bd 56bc afbd
000003a0: e791 c8bd cd86 8dbe 0e57 ad3d bb04 82bd
000003b0: a4fb d1bd 06a5 16be 096d b43b 8858 91bc
000003c0: 8db9 a8bd 8133 48be c3b3 46bf 85a9 42bd
000003d0: b897 38be 4faa bebd e2c1 16bd c2f7 b0bb
000003e0: 3ce5 8bbd 1233 b1bd 3bd5 96bd 9f39 afbe
000003f0: 9427 89bd f9d5 1c3d 9645 e0be 9427 dabd

fc.4.bias f4 [16]
1.3802849 -0.012997616 -9.222568 -0.44091257 0.3290009 1.6855944 0.023471134 -0.32560346
1.6394982 1.5083361 -0.0005457505 -8.179562 0.00048183088 2.3592343 0.014876635 0.12582354
00000000: 2dad b03f f4f3 54bc a38f 13c1 4bbf e1be
00000010: ce72 a83e 8fc1 d73f 8946 c03c 7fb5 a6be
00000020: 14db d13f 2811 c13f b210 0fba 7cdf 02c1
00000030: 3f9e fc39 b2fd 1640 21bd 733c e3d7 003e

fc.5.weight f4 [3, 16]
-6.777825e-06 0.000536144 -0.000116444644 0.00048559767 6.643504e-05 -0.000110577545 0.101311296 0.0040443167
8.7675035e-06 -0.00048888515 0.00040802654 0.00017405258 0.00025697137 -4.2957694e-05 0.00017866708 4.7246565e-05
0.3778183 -0.007797415 -0.001772301 0.0005493351 -0.0014364894 -0.07885858 0.0010264124 -0.039624985
-0.060140584 0.13293076 0.023570802 0.037491966 0.030679274 -0.10340407 -0.0008026833 0.026275922
-2.999687e-05 0.03887524 -0.09882966 -0.03283243 -0.11698446 -0.0007010291 2.6341906e-05 0.05029129
-0.0001579041 -0.0001702494 -0.00037396274 0.007936333 -0.00031309595 -0.00015507771 0.09698639 0.00055549043
00000000: 136d e3b6 048c 0c3a be33 f4b8 d197 fe39
00000010: 0a53 8b38 dee5 e7b8 4c7c cf3d 3086 843b
00000020: 2418 1337 8728 00ba 65ec d539 e281 3639
00000030: 1dba 8639 792d 34b8 9458 3b39 9d2a 4638
00000040: 6671 c13e 7581 ffbb 8e4c e8ba 4101 103a
00000050: 9648 bcba 9b80 a1bd af88 863a cf4d 22bd
00000060: f955 76bd 001f 083e 8e17 c13c 2d91 193d
00000070: 1a53 fb3c 83c5 d3bd 2a6b 52ba 9a40 d73c
00000080: caa1 fbb7 a53b 1f3d 3467 cabd 4c7b 06bd
00000090: 8c95 efbd 44c5 37ba d0f8 dc37 3dfe 4d3d
000000a0: 0f93 25b9 fa84 32b9 6e10 c4b9 6507 023c
000000b0: 0727 a4b9 5b9c 22b9 cda0 c63d 559e 113a

fc.5.bias f4 [3]
0.00025160343 0.47594598 0.023533966
00000000: a4e9 8339 31af f33e 4eca c03c
