models/omni-road/model_epoch_210.pt (torch, 242162 bytes, 12 tensors)

fc.0.weight f4 [256, 60]
00000000: 2c2f 9a40 a1ea b5bf 9b75 18c0 2d11 01c0
00000010: f8cf e83e bfa9 e0bd fa56 9abe f833 953f
00000020: 6b39 7cbf 2966 ebbe 5c86 38bf 1e60 6ebf
00000030: 86a2 2940 8308 f03f 5862 863f d6ea 89c0
00000040: 09df 07c0 87db a7bc 6a8d 0e3f a971 193f
00000050: 81e9 33bf 7e2a aebe 92e0 8fbe 8311 d8be
00000060: 7bed 673c 451d 363e 8a97 6dbd fa3e b63d
00000070: 4f27 e03f f953 bc3e 34eb e83e acfc 17bd
00000080: b4e4 513c 3c11 debd ddd3 c8bd db52 c8bd
00000090: ccca a53d 5c6f 683d 3f80 f6bd bb29 ad3d
000000a0: d013 a1bd 719f c53d d537 703e b5a5 a6bd
000000b0: 41f6 833c 3d25 c2bd a3ec b3bc 3cc6 70bd
000000c0: 6883 80bd 34bf 4ebe 1bde 39bd 4aa2 df3b
000000d0: b25b 6cbc 6be7 8abd 5bd6 dbbc a837 df3b
000000e0: 08d9 7d3d 8f00 cd3c 2eef 83bc 1e19 19bd
000000f0: c9f7 0740 cfa0 0e40 45f2 a83e 85cd 7ebf
00000100: f6bf bdbd 65eb 2bbe d96b 5ebf f113 ccbf
00000110: ab2c 51bf e5cf 48bf fc7e a73f e323 2440
00000120: 1989 c7be 5e39 5b40 de06 9bbf 7920 4340
00000130: 9426 78c0 d665 953f d154 023e d34c 53bf
00000140: 5872 7ebf 6314 903e 6701 8cbf 36d6 4fbe
00000150: 48bc 263d 030b a23d 260d 43be 62c4 f6be
00000160: 380e 273e d167 c8bd 7655 3d3e e68e 8fbe
00000170: 539b d8bb caa0 afbd fcdb b7bd 955c 1138
00000180: 9964 f63d 3549 b9bd 7973 82bd 4f51 13bd
00000190: 5da2 223f d467 833e 1958 80bc 6c67 fb3c
000001a0: 267a a6bc 15d5 2f3e c90e 17be f5d9 42be
000001b0: f0b6 013e 8a88 573d b92d 9f3d 362f 8d3d
000001c0: 8c58 bc3d 5a8f e8bd 63f2 383e 02bc ee3e
000001d0: ff33 203e 988e c0bd d66f a0bd 99d8 19bd
000001e0: 5a65 91bf ffb3 c0c0 0a20 243e 9c2a b23e
000001f0: e476 cc3e b1ce 853e a948 1f3f fd69 2f3f
00000200: 9363 adbf a805 6ebf 9ed4 c63f d59d 2fc0
00000210: c6e7 a0be 9477 cdbd 5d55 593e f2a4 f2bf
00000220: 1bac 203f 347f 713f dca6 c23e 2f38 14bf
00000230: 178a 013f e87e bdbd 69c7 173f bd2c 223f
00000240: 23be 90bb 5713 32bc bb7c 76bc fbc0 003c
00000250: 7779 15bd 3093 1abd a1ee 9d3d 34c6 e3bd
00000260: 401b d5bd 7ebf 29be 3057 77bd e67b 85bd
00000270: 4669 3a3d f4c5 213d a053 43bd e1bb 22bd
00000280: 7132 99ba 39c4 4cbb ab01 f3bc cd2b 0c3e
00000290: 22a9 c23d e643 f63d e051 c63d 429b 5e3c
000002a0: bade 03bd 869e cebd 19c8 49bd d3e8 26be
000002b0: 23c1 003d a2b7 903d af26 263d 518e 523d
000002c0: a4f7 7fbc 15d1 99bd 71d3 00bc 890f 94bd
000002d0: f493 f43e e6f5 883f ec06 0b40 032f b43f
000002e0: 1d24 9cbf cc37 543d 066d 843f d9e0 823f
000002f0: 257a ba3f e44f 073e aa49 0ac0 0221 56bd
00000300: d844 6dbe f26c ac40 f09f 7740 a8a1 03c0
00000310: ebad fdbf cb3b 1abf 6d13 fabe 81cf 423e
00000320: 86e5 873d 37c3 7c3f ee9a ed3d 8e08 3f3f
00000330: 4b7d 9c3b 97fe 133e 982a eabe a697 97be
00000340: a09f bcbe 40fa 9cbe d24a d83e df26 cf3d
00000350: be84 5fbe 89fb 84be 29de 9d3c cfa0 df3d
00000360: 40d2 1abe 3748 323e f452 95bd 692c 903f
00000370: d67d 1fbf 54a3 44bf 299f fdbe 6ec2 d83e
00000380: c807 0b40 704c b13f edbc 803f 2411 6e3f
00000390: c472 8abe 77c8 a03e 49b7 353f 8933 0b3c
000003a0: 0de0 63be e515 4c3e 5542 1ebf b8d0 993e
000003b0: cd14 df3e c035 1f3e 3b85 013e 556e e73e
000003c0: 982e cdbf 1052 733f 8054 f33e 96ef 81bd
000003d0: 29cb 2c3f c1c6 39bd 478f 59be 26a3 62be
000003e0: 2988 313e 9364 593e b90a b73f 9ef7 a23f
000003f0: 879f 6b40 e39f a13f 8785 e43f 7ef3 933b
4.8182583 -1.4212228 -2.382178 -2.0166733 0.45471168 -0.109698765 -0.30144483 1.1656485
-0.9852511 -0.4597638 -0.72080016 -0.93115413 2.6505446 1.8752598 1.0498762 -4.3099165
-2.122988 -0.020490421 0.5568453 0.59939057 -0.70278174 -0.34016794 -0.2810102 -0.4220086
0.014155741 0.17784603 -0.058005847 0.088987306 1.7511996 0.36782816 0.45491946 -0.0371062
0.012810875 -0.10843131 -0.09806035 -0.097814284 0.08095321 0.056746826 -0.1203618 0.08455225
-0.07865107 0.09649552 0.23458798 -0.08137075 0.016108634 -0.09479759 -0.021963423 -0.0587828
-0.06275064 -0.20190126 -0.045377832 0.0068247663 -0.014426159 -0.06782421 -0.026835611 0.0068120547
0.061974555 0.02502468 -0.01610526 -0.03737747 2.1244986 2.228565 0.32997337 -0.9953235
-0.09265129 -0.16789015 -0.8688331 -1.5943586 -0.8170878 -0.7844222 1.3085628 2.5646904
-0.38971785 3.4253764 -1.2111471 3.048857 -3.8773546 1.1671703 0.12727667 -0.825391
-0.99393225 0.28140554 -1.0937928 -0.20296559 0.040706903 0.079122566 -0.19047984 -0.48196703
0.16314018 -0.097854264 0.18489632 -0.2803871 -0.006610313 -0.0857559 -0.089775056 3.4656918e-05
0.12030906 -0.09047166 -0.06369681 -0.035966214 0.63528997 0.25665152 -0.015667008 0.030688964
-0.020321917 0.17171128 -0.14751734 -0.19028457 0.12667441 0.05262045 0.07772393 0.068937704
0.091965765 -0.11355467 0.18061213 0.46627814 0.15644835 -0.094021976 -0.07833831 -0.03756008
-1.1359055 -6.021972 0.16027847 0.34798133 0.39934456 0.26134256 0.62220246 0.685211
-1.3546013 -0.9297738 1.5533636 -2.7440083 -0.3142683 -0.10032573 0.2122397 -1.8956587
0.6276261 0.9433472 0.3801793 -0.5789823 0.50601333 -0.09252721 0.5928865 0.63349515
-0.0044171973 -0.010868869 -0.0150443865 0.00785851 -0.03649279 -0.037738025 0.077115305 -0.111217886
-0.10405588 -0.16576955 -0.060385883 -0.065177724 0.045510553 0.039495423 -0.047687173 -0.039729957
-0.0011688006 -0.0031244888 -0.029663881 0.13688584 0.09504916 0.12024669 0.09683585 0.013586821
-0.03219483 -0.1008883 -0.049263094 -0.16299753 0.03143419 0.07066275 0.040564235 0.051405255
-0.015623007 -0.07510582 -0.007862912 -0.072295256 0.4776913 1.0700042 2.1722975 1.4076847
-1.2198521 0.051811025 1.0345771 1.0224868 1.4568526 0.1321407 -2.160746 -0.052277572
-0.23170793 5.388299 3.8691368 -2.0567417 -1.98187 -0.60247487 -0.48842946 0.19024469
0.06635575 0.98735374 0.11601816 0.7462243 0.0047756783 0.14452587 -0.4573562 -0.29607886
-0.36840534 -0.30659676 0.42244583 0.10114836 -0.21827981 -0.25973156 0.019270973 0.10919344
-0.15119267 0.1741036 -0.07291213 1.1263553 -0.62301385 -0.7681172 -0.49535492 0.42335838
2.17235 1.3851452 1.0057656 0.92994905 -0.27040684 0.31402943 0.70982796 0.008496174
-0.22253437 0.19930227 -0.61819965 0.30042052 0.43570557 0.15547848 0.1264848 0.45201364
-1.6029844 0.9504709 0.47525406 -0.063445255 0.674975 -0.045355562 -0.21246062 -0.22132549
0.17337097 0.21229772 1.4300147 1.2731817 3.6816118 1.2626919 1.7853249 0.0045151105

fc.0.bias f4 [256]
00000000: 8c1d dfbf e770 2cc0 4629 68c0 2ee1 bdc0
00000010: 3322 91c0 dd35 86c0 452e 53c0 77f2 8cc0
00000020: af2e a3c0 e7cd 63c0 aa2b 70bf 08c0 b2be
00000030: efcf 55c0 2e4f 5dc0 6cc2 9e3e c3f8 243f
00000040: f1b7 eabe cb38 76c0 ae8c 543f 132c 613e
00000050: 37fa 7ec0 1159 06be 1491 d0c0 e1b8 89c0
00000060: 1772 cac0 5c78 ddbf 9ef8 323f 2702 7ec0
00000070: 0ba6 08be 9db2 163f 88eb 37c0 4ca9 68c0
00000080: 1f66 13c0 8b76 10c0 cf85 12c0 4654 c8c0
00000090: ca4b cebe 8bd0 86c0 bdc5 9f3f ea00 bb3f
000000a0: 0b8b 82c0 944e bec0 5726 d2bf 5e28 d6c0
000000b0: 8bf4 0cc0 b4ba d8bf 4c59 a5c0 59e2 32c0
000000c0: 36b5 0ac0 0f95 90c0 e1d7 043d e6a0 5ac0
000000d0: f011 f0bf bb4f c2bf 4568 17c0 c16c d0c0
000000e0: 49d2 edbf 50dc 0ac0 1497 06c0 d081 8c3f
000000f0: 4f8b b8bf d39d 4fbe 6f53 153f 3d81 43c0
00000100: 8ef7 dac0 99de 8ac0 b6ac 86c0 be8d 97c0
00000110: 9e84 f0bf e289 8a40 b72a 3ebf b49a 8d3e
00000120: 6988 85c0 0a75 afc0 73be 99bf 0c28 c0c0
00000130: ff7b 213f 2b15 43c0 0f34 bdc0 3527 59c0
00000140: b27d e93f b14e 98c0 caf2 a4be 6ff1 e8bf
00000150: 9570 c8c0 bfc3 09bf e2c1 e73e 5b2d c5c0
00000160: d568 833e 8d4c 6fc0 6b50 c83e d512 cebe
00000170: 6f11 8bc0 9555 4bc0 718b 99c0 ea16 debf
00000180: 65d1 0fc0 d7d5 86be ee8b 29c0 b852 c2c0
00000190: 73b3 953e 92df b03e 307d afbf 3424 80c0
000001a0: 8332 a8c0 94c7 adbf 9f24 e9bf 1217 2840
000001b0: 3fcb 93bd 3a9b 83c0 e1ed 1cbf b335 62c0
000001c0: 3741 68c0 ef47 67c0 fe69 10c0 340d 9fc0
000001d0: 90a6 803f 32b6 8bc0 332c 71c0 af3f 8ac0
000001e0: 7df2 12bd d05c 71c0 d02f 5cc0 3611 f3c0
000001f0: a1a3 76c0 92da 8ec0 af43 75be 74a2 94be
00000200: 3293 e7bf f74d 1540 ead0 03c0 474b 4fc0
00000210: 75cc 483f 20e6 3fc0 7d13 87be 978e 8bc0
00000220: 9eef 46c0 c0f3 1740 14e9 90c0 ba5c aec0
00000230: 9ee8 12c0 b363 86bf 6a41 41c0 4519 063f
00000240: d374 5ec0 3c46 75c0 e292 e8bd 9e0f aa3f
00000250: 368f 80c0 3428 643f ac83 d1bf e401 9ebf
00000260: b9dd 7bc0 5a1e 673f 6202 8bc0 bb0c a9c0
00000270: 4975 9240 c70e 9b3f 252e dcc0 8607 c7c0
00000280: d19b 94bf 01b6 0cc0 559f 85bf 21d9 5ac0
00000290: f981 e4bf 472e 77c0 7590 743d b29d f0bd
000002a0: 5bf6 b0c0 233d 82c0 33d3 fac0 9941 56c0
000002b0: cefc aac0 4a9d 40c0 449c 60c0 951f 13bf
000002c0: dd74 f5bf 26a9 aec0 b90a 81c0 c2d8 32bf
000002d0: 5dac fabf 6f71 373f f35e b7bf 0be0 cbc0
000002e0: 9e78 7ac0 bcfe 72c0 f349 dec0 41d1 95c0
000002f0: f153 d9bf 058c 5ec0 0a5b a3c0 03c2 4fbf
00000300: c0a0 55bf e52b 86c0 073a dabf 3e36 47c0
00000310: d7d9 cd3d 3826 da40 adfc 85c0 552c 433e
00000320: eb19 e6bf 69e4 433f 983f 04c0 d764 f0be
00000330: ece3 63c0 0f74 18bd a7fe 99c0 1bf7 39c0
00000340: 5bb5 a6c0 d605 b3bf 20ec 803e 8bad 55c0
00000350: b343 b9c0 da39 e13f b2de 20bf d9cb 463f
00000360: 72a1 3bc0 f13e 13c0 46db d8bf b91e 43bf
00000370: 07e5 55c0 b2b4 52c0 a09d 8f3f 0fcd cfbf
00000380: 703e 75be 8a86 0bc0 c9d3 19c0 b220 8ac0
00000390: c986 eac0 0cc2 88c0 ea55 37c0 810f b0bf
000003a0: 2ec0 8ac0 6b34 b0c0 a71b 80c0 e527 82c0
000003b0: 8df4 89c0 07f2 59c0 51b5 84bf 6d8a c9be
000003c0: 3657 afc0 1085 6ec0 dda4 0a40 04f5 8dc0
000003d0: 94d6 1f3e df93 0bc0 9ba2 d8be dee4 38bf
000003e0: 38f3 cbc0 e063 23c0 ccb8 0abf aa72 f3bf
000003f0: 26cf 07c0 19e4 79c0 a2b6 45c0 c3ec 6a40
-1.7430892 -2.694391 -3.6275191 -5.9337378 -4.5354247 -4.194075 -3.299699 -4.4045978
-5.0994487 -3.5594423 -0.93816626 -0.34912133 -3.3408163 -3.4579577 0.31007707 0.6444208
-0.4584346 -3.8472164 0.8302716 0.21989469 -3.984022 -0.13119914 -6.5177097 -4.303818
-6.326427 -1.7302356 0.6991061 -3.9688814 -0.1334459 0.5886629 -2.8737507 -3.635333
-2.303108 -2.2572353 -2.289417 -6.2602873 -0.40292197 -4.212957 1.248222 1.4609654
-4.079473 -5.947092 -1.641795 -6.6924276 -2.2024257 -1.6931977 -5.1671505 -2.7950652
-2.1673102 -4.5181956 0.03243244 -3.4160705 -1.8755474 -1.5180582 -2.365739 -6.5132756
-1.8579799 -2.1696968 -2.102971 1.0977116 -1.4417514 -0.20275049 0.58330435 -3.054763
-6.842719 -4.3396726 -4.208583 -4.7360525 -1.8790472 4.3293314 -0.7428393 0.27657092
-4.1729016 -5.483037 -1.2011245 -6.0048885 0.6307983 -3.048167 -5.912605 -3.393018
1.8241484 -4.759606 -0.32216483 -1.819868 -6.263743 -0.5381431 0.45265108 -6.1617866
0.25665918 -3.7390473 0.39123854 -0.40248743 -4.345878 -3.1770985 -4.7982717 -1.7350743
-2.2471554 -0.26335022 -2.6491656 -6.0725975 0.2923847 0.3454557 -1.3710079 -4.0044193
-5.256166 -1.3576531 -1.8214301 2.626408 -0.072165005 -4.1126986 -0.61300474 -3.5345275
-3.6289804 -3.6137655 -2.2564692 -4.9703617 1.0050831 -4.3659906 -3.7683227 -4.320274
-0.035875786 -3.7712898 -3.4404182 -7.595851 -3.853737 -4.464181 -0.239516 -0.29030192
-1.8091795 2.3328836 -2.059626 -3.2389696 0.78436977 -2.9984207 -0.26382056 -4.361156
-3.108375 2.3742523 -4.528452 -5.448819 -2.2954478 -1.0499176 -3.0196176 0.5238231
-3.4758804 -3.8324118 -0.11356141 1.3286016 -4.017482 0.89123845 -1.6368308 -1.2344327
-3.9354079 0.9028069 -4.344041 -5.282804 4.576817 1.2113885 -6.880633 -6.2196684
-1.1610051 -2.1986086 -1.0439249 -3.4195025 -1.7852165 -3.8621995 0.059708077 -0.11748828
-5.5300727 -4.069963 -7.838281 -3.3477538 -5.34336 -3.0096002 -3.5095377 -0.57470065
-1.9176289 -5.458148 -4.032559 -0.69861996 -1.9583851 0.7165746 -1.4325851 -6.371099
-3.913612 -3.7967978 -6.946527 -4.6817937 -1.6978742 -3.477296 -5.104863 -0.81155413
-0.8344841 -4.192858 -1.7048959 -3.1126857 0.10051315 6.8171654 -4.187094 0.1905988
-1.797666 0.765204 -2.0663815 -0.46951935 -3.5607862 -0.037220057 -4.8123355 -2.9057071
-5.209638 -1.3986156 0.2518015 -3.3387172 -5.789514 1.759578 -0.62839806 0.77654797
-2.9317288 -2.3007166 -1.6941917 -0.76218754 -3.3421037 -3.2922788 1.1219978 -1.6234454
-0.239496 -2.1800866 -2.4035513 -4.316491 -7.3289533 -4.2736874 -2.8646188 -1.3754731
-4.3359594 -5.5063987 -4.0033755 -4.06737 -4.3111024 -3.4053972 -1.0367833 -0.39363423
-5.479396 -3.7268715 2.1663125 -4.436159 0.15609199 -2.1809003 -0.42311558 -0.72224224
-6.37344 -2.552971 -0.5418823 -1.9019368 -2.1220183 -3.904547 -3.089272 3.6707008

fc.1.weight f4 [128, 256]
00000000: e603 1f3f 9bb7 68bf abf0 82bf 3603 d03e
00000010: aa99 de3d d5b3 c33f 80f2 53bf e773 c6bd
00000020: 1d34 acbf 3c9b 4b3f 0e7d a0bf 091b 7e3f
00000030: b779 1b3f f7d9 863f 8409 35be 43e0 0c3f
00000040: 9c75 3fbe 20b3 1ebb 4c63 49c0 1ce8 d7bf
00000050: e9a9 a6be 1537 41bf bade f93e 62bd 2c40
00000060: b6ef 00be 122a bbbe 33ee b5bf 4a46 e1bf
00000070: 1f34 79bf 0829 113f b795 83bf 58d3 1fc0
00000080: edda 0fc0 1b9d c93e bb75 8c3f 0d9a 123e
00000090: 489e fa3f f42b a23e cf69 9abe d137 13bf
000000a0: 0fab 8a3f ffcf 4cbf 6f71 e7c0 c56a 103f
000000b0: 08fa d2be 951e c23f f8bd afbf 325f 073d
000000c0: 82b2 ec3e bafe 5abd 4829 04bf f099 2cbf
000000d0: 8b62 343f ca63 853f 73ce 963e 8d3a ae3d
000000e0: aa9b 85be cf0f 913f a719 a8be 40ec 1cbe
000000f0: 9730 afbf 7d7e 2bc0 71c0 08be 840d 873e
00000100: 3084 e8bf d927 b7bf d1dc b0bf 36fe 61c0
00000110: bfd8 45be f354 613f a6f8 5c3f 710a 4cc0
00000120: 82e8 dc3e fb54 cd3c 29aa 9dc0 8fa9 803d
00000130: 4bb4 97bc 961e c3be 99e0 86bf 93e4 943e
00000140: e963 04bf 3f46 a3bf 114d 31bd 4f77 f6bf
00000150: 4c52 f13f 537a 9cbf 46f5 c3be 5f20 6c3e
00000160: 78b8 893e 8370 4bc0 4100 05bd 4f13 19bf
00000170: 9af3 673f e0fe 1c3e a016 443e 5970 b63d
00000180: 15ab 763f cc75 05be 8c1f e5bf 35a3 ebbf
00000190: 8b12 16bf 6809 a9be b045 edbe 360b 093f
000001a0: 6845 453f 58fd 57bf c2b1 103f f197 633f
000001b0: 7b8c 3ebb 6790 b0bf f801 83be 9a37 82bf
000001c0: 899e 853f d2e7 0140 31d8 783f 6a8e e23d
000001d0: 1a5e 9cc0 a78d bcbe f5f5 633f cf4e 51bf
000001e0: 05c3 5b3f cfe9 86c0 4afe f03d 2aac dbbe
000001f0: 53ff ad3e 1958 87c0 48f1 a43e 3401 ffbf
00000200: ed66 b23e 095d be3d 1a5d 20be cc8e d73e
00000210: 5dd3 21bf 86b4 9a3e 1990 653e 8f59 0cbd
00000220: b565 61be bdff 113f 3ea1 f23e c205 d3bf
00000230: 0286 7dc0 b207 34bf aee5 dcbf a13b 88bf
00000240: b9d7 e03a a1a1 e3be 8456 8a3f 69df 71bf
00000250: b14c 103f 2613 ad3f 7f25 cf3f 17b0 903f
00000260: 1dec a8bf f4a6 8e3e 8985 c7bb 1e8c 6abf
00000270: dbdd 3cbf 43f9 253f 7c2d 683d c08d b0be
00000280: 1bd6 afc0 12f4 2f3f 7315 9d3e 5140 d3be
00000290: 285f 843d e9ce 8c3f e9a2 873f 4959 263f
000002a0: 2384 9d3f a742 a73f d777 6dbf e552 813f
000002b0: 3ef0 883f c995 683f 5bb4 133f 07f4 babf
000002c0: 647c 9cbf 589a fb3e 8b82 9dbf 8066 d8bf
000002d0: 82af bbbd ff61 ae3d bac1 0fbf a87f 95bf
000002e0: a3e1 8f3e acd7 89c0 a992 203f 82ad 663e
000002f0: b470 2c3e b19e 9abd 205a 44bd ee20 943f
00000300: 92ca 1bc0 9584 61bf dd59 043f fdc6 5c3f
00000310: 9f20 4e3f 5a61 8e3f 0890 50bb 7440 0dbf
00000320: 7849 c2be 0dcb 813f 5547 b83c fcfc 983e
00000330: fd9c 89bf 816a 29be f413 87be f9a5 953e
00000340: 3b06 9abf 51ab 8b3f 30d0 3bbe de40 ba3e
00000350: fb20 fcbf 1028 3b3f bf4f 11be b8b9 43bc
00000360: 19f5 41bf 5eaf 8e3f cbe1 8fb9 fe92 443f
00000370: 6653 e0be 9677 cebe e071 903e 43c1 bd3d
00000380: 9d8d 22bf 0346 043f 520e eb3e 34d3 5cbf
00000390: 46cf 14bf 7acf ccbf c57f 173f e34d c0be
000003a0: bc1c 75bf 38ee fc3f 7a18 90be efea de3e
000003b0: 8be9 88be f20f 23c0 beb5 973c a1f5 0fbf
000003c0: 0471 f5be 212e 2ebf cd68 003e ef23 6abf
000003d0: c9a8 9cbe 2746 103f cfea e1be d251 5a3c
000003e0: a197 623f 21a0 5f3f 0ab7 3fbe 2178 f03e
000003f0: 832d 04c0 53a2 05c0 a077 0dbf 2fa0 273f
0.62115324 -0.9090516 -1.0229696 0.4062745 0.10869153 1.5289255 -0.827919 -0.09690075
-1.3453404 0.79533744 -1.2538164 0.9926 0.607326 1.0535268 -0.17679411 0.55029696
-0.18697208 -0.0024215654 -3.1466856 -1.6867709 -0.32551506 -0.75474674 0.4880274 2.699059
-0.12591442 -0.36555535 -1.4213318 -1.7599576 -0.97345155 0.56703234 -1.0280064 -2.4972744
-2.2477372 0.39377674 1.0973428 0.14316578 1.9579554 0.3167416 -0.3015885 -0.57507044
1.0833453 -0.80004877 -7.232597 0.5641292 -0.41206384 1.5165583 -1.3729849 0.03304977
0.4622994 -0.053465582 -0.5162549 -0.6742239 0.70462865 1.0421078 0.29454383 0.085072614
-0.26095325 1.1332949 -0.3283207 -0.15324497 -1.3686703 -2.6795952 -0.1335466 0.263775
-1.816534 -1.4309036 -1.3817388 -3.5311408 -0.19320963 0.8802025 0.8631691 -3.1881373
0.4314614 0.025064936 -4.9270215 0.06282341 -0.018518588 -0.38109273 -1.0537292 0.29080638
-0.5171495 -1.2755812 -0.043286387 -1.925516 1.885324 -1.222483 -0.38273066 0.23059224
0.2689855 -3.1787422 -0.032470945 -0.5979509 0.9060608 0.15331602 0.19149256 0.08908147
0.963548 -0.13033217 -1.7900252 -1.8409182 -0.58622044 -0.3301499 -0.4634223 0.5353273
0.7705903 -0.84370947 0.56521237 0.8890372 -0.0029075432 -1.3794068 -0.2558744 -1.0173218
1.0439006 2.0297742 0.9720488 0.110623196 -4.886487 -0.36826822 0.89047176 -0.8176088
0.8584445 -4.216041 0.11767252 -0.42904788 0.3398386 -4.229504 0.32215333 -1.9922242
0.3484415 0.09295089 -0.15660515 0.42101133 -0.6321314 0.30215853 0.2241825 -0.034265097
-0.22011454 0.5703085 0.47388643 -1.6486132 -3.9613042 -0.7032424 -1.7257593 -1.0643197
0.0017154134 -0.4445925 1.0807652 -0.9448152 0.5636702 1.3521469 1.6183318 1.1303738
-1.3197056 0.2786175 -0.0060889167 -0.9162005 -0.73776025 0.6483347 0.056684002 -0.34483147
-5.494886 0.68731797 0.30680427 -0.41260007 0.06463462 1.1000644 1.0596591 0.6497999
1.230595 1.3067216 -0.92760986 1.0103422 1.0698316 0.90853554 0.57697076 -1.4605721
-1.2225461 0.49141192 -1.2305464 -1.690628 -0.09164335 0.08514785 -0.5615498 -1.1679583
0.28101835 -4.307577 0.62723786 0.22527125 0.16839868 -0.07549799 -0.047937512 1.1572549
-2.434239 -0.8809293 0.5169962 0.8624113 0.80518526 1.1123459 -0.003182413 -0.5517647
-0.37946677 1.0140091 0.022494951 0.29880512 -1.0751034 -0.16544534 -0.2638241 0.2922819
-1.2033151 1.0911657 -0.18341136 0.36377615 -1.9697565 0.73108006 -0.14190577 -0.011946134
-0.75764614 1.1147268 -0.00027443314 0.7678679 -0.43813628 -0.40325612 0.2821188 0.09265377
-0.63497335 0.5166933 0.45909363 -0.8625977 -0.58128774 -1.6000817 0.59179336 -0.37559423
-0.9574697 1.9760199 -0.28143674 0.43538615 -0.2674068 -2.5478482 0.018519279 -0.56234175
-0.47937787 -0.6803914 0.12539978 -0.9146108 -0.30597523 0.56357044 -0.44124457 0.013325172
0.8851262 0.8735371 -0.18722168 0.4696665 -2.0652778 -2.0880325 -0.5526066 0.65478796

fc.1.bias f4 [128]
00000000: dcf5 a43f 21b6 d03f 3819 cf40 b572 8bc0
00000010: 06ca 19c0 1325 c03c 00e7 733f 9525 253f
00000020: b885 85bf f55b 98bf 4d62 94be 43d3 a63f
00000030: 26d8 71be 9f34 32bf 4665 a4c0 f5cc 6040
00000040: 3bb8 4c40 011a 4940 59cd 05c0 04cc 50c0
00000050: cbb2 2940 1415 d9bf c218 1fbc e642 cbbd
00000060: 6af4 a3bf a601 1cc0 13b6 f83f c70e 893f
00000070: fb14 25bd 75db 973f 6570 da3f 9155 0cc0
00000080: 2daf 4fbd 7e77 5140 e4bd f4bc 3ece d9bd
00000090: 32f9 91bf b7c4 1340 715c 23bf 8b80 1ec0
000000a0: b99c 5840 b25d 713f 93a9 2cbd 0d25 6cc0
000000b0: eb95 473f 032c dcbf c84d bd40 478f 8240
000000c0: 22da 80bf 87f1 a53b 636b c0bc 16a4 793c
000000d0: e1b6 0bc0 53fd 883f fe30 98bd 7057 3b3e
000000e0: 9cc3 e940 9216 6cc0 3416 d73e 3cd4 9840
000000f0: 6ca9 013f 5883 41c0 df85 bfc0 dc19 1ec0
00000100: ca0a eabe a077 5e3c 0c68 973b d085 ccbd
00000110: 0848 d2be 18ad d240 6960 7cc0 0b32 5dc0
00000120: c094 0b40 bdf8 1bbc 49e5 c33f 284a a7c0
00000130: 8d2f b0bf 0959 4dbd 77d8 8940 c58d 32bf
00000140: a8d2 16bf d77c 653f 977b 5340 fd38 40c0
00000150: 5e64 cbbd 9c46 f53f acb2 d2bf 9bb8 0ebb
00000160: 52f6 5840 7028 2d40 ed73 8040 8ec7 9fc0
00000170: 0b97 583e 11eb c8bc 1891 95bd 68bd 4140
00000180: 098e 7e40 1e1f c440 dc8e 363f 1bac e8c0
00000190: 610f a3bf 093d 14c0 b22d 1ac0 7f96 4ebf
000001a0: 2eb3 e7bc f6c2 04c0 9ee3 92bf ac3b 373f
000001b0: 882a ae3f 420f 8240 6aeb 1440 32fe 893f
000001c0: f748 91bc 3056 4c40 057c 52c0 3c06 7640
000001d0: 6473 88c0 a69a 83c0 8bcb 5240 415d 1740
000001e0: 78fd 1cbd d2fc 523f b8fe a1bd 5e16 f7c0
000001f0: 0bbc 403e 5d2f 2cc0 08b5 8b3f 5aaf 00c0
1.288753 1.6305581 6.4718285 -4.3577523 -2.4029555 0.023455178 0.95274353 0.6451047
-1.0431433 -1.1903063 -0.28981248 1.3033222 -0.2361761 -0.69611543 -5.1373625 3.5125096
3.1987445 3.1422122 -2.0906584 -3.2624521 2.6515377 -1.6959558 -0.009710493 -0.09924869
-1.2808964 -2.4376006 1.9430565 1.0707635 -0.04030321 1.1863848 1.706555 -2.1927226
-0.05070417 3.2729182 -0.029875703 -0.10635041 -1.1404173 2.3088815 -0.6381293 -2.4765956
3.3845656 0.9428359 -0.042153906 -3.6897614 0.7796313 -1.7200931 5.915745 4.07999
-1.0066569 0.0050641927 -0.023488706 0.015236875 -2.183037 1.0702308 -0.074312195 0.18295074
7.305128 -3.6888776 0.42009127 4.7759075 0.5064914 -3.0236416 -5.9850917 -2.4703283
-0.45711356 0.0135783255 0.0046205577 -0.0998646 -0.4107058 6.5836296 -3.9433844 -3.4561794
2.180954 -0.009519753 1.5304347 -5.2278023 -1.3764511 -0.05013374 4.307674 -0.69747573
-0.58915186 0.89643615 3.3044183 -3.0034783 -0.09931253 1.9162173 -1.6460776 -0.0021777514
3.3900342 2.705593 4.014151 -4.9931097 0.21151368 -0.02452615 -0.07303065 3.0271854
3.9774191 6.1287985 0.71311736 -7.271009 -1.2739068 -2.3162253 -2.409039 -0.8069839
-0.028283682 -2.0743995 -1.1475713 0.7157543 1.360673 4.0643625 2.3268685 1.0780699
-0.017734988 3.1927605 -3.2888196 3.8441305 -4.264086 -4.112628 3.2936733 2.3650668
-0.038327664 0.82417023 -0.07909912 -7.7214804 0.18821733 -2.6903908 1.0914621 -2.0107026

fc.2.weight f4 [64, 128]
00000000: e348 553f a5cd d5bf 7e13 5fbf 33c7 aebf
00000010: e1f6 d8be 69c9 bd3b 95b6 83bf 0fbb 1bc0
00000020: a588 9d3e d1ce 88bd ed64 3f3e 3566 53bf
00000030: 2147 383d aa2a 983d 0f7c 08c0 bc23 443f
00000040: efe4 a1be a13d 83be 1f2d 563d 5994 03c0
00000050: 57cc 853f 06b8 a4bf ecdb 8b3c ffb4 19bd
00000060: 80c1 863d 4d0b 35bf 5575 a63f fe48 fd3e
00000070: 8b27 b93d 086b b63e f249 e03e cafb b43f
00000080: b9ed 4e3c 3dce 42be 7e97 0fbc 17b7 053e
00000090: e96e 0dc0 d1d5 903f 34b5 9cbd 2569 39bf
000000a0: f1d5 8ebf c84f 25bf ec06 123b 40c1 b33e
000000b0: c097 63bf 65c6 e0be 6ab4 903f 0ccc c83e
000000c0: fbc0 733f 1d06 29bd ca48 12ba 1605 c93c
000000d0: 3a0e 433e 9698 34bf f65d 2dbd 02a1 063e
000000e0: 0657 5b3e a86f 11bf bab2 96be aad6 3c3f
000000f0: c506 8c3e c7ed 88be b68a cc3e e729 51be
00000100: 75d3 1f3f d674 86bd 345d 3cbd ad9b c6bc
00000110: 85d3 e03c b915 3ac0 f829 98be 13ca 63be
00000120: bcf8 3abf 78c9 b1bc 8104 233e 6ec1 dd3e
00000130: 29aa 27bf b523 013b 3390 de3e dc7d acbf
00000140: 2a4e da3e 84de 34c0 0c0a 9b3d 05cb 973e
00000150: dae6 cfbc c260 523f b326 763f 5103 21be
00000160: 68c0 91bf 3dd2 2abd 324d 13bf d803 f2bd
00000170: 3893 9fbf 4140 a7bd 014d f5bc edef 2b3f
00000180: e394 6abe 9391 febd 661c 87be 42ab 98c0
00000190: d203 acbe 3b6a f5c0 a928 88be ec4c 253f
000001a0: 4c99 cd3c 54d7 35bf 3bb6 89bf 257e 9ec0
000001b0: 7b6d e3bf 74ed 8bbf 26ef cdbd fe1f 3ebf
000001c0: e3b7 9d3d 0bf5 ff3e 30b8 133f 5966 3ec0
000001d0: d446 1abe 0e7c fabf b867 0a3f 7009 3abf
000001e0: 5456 e73c db0b 033e f6e2 7cbd 7c3c 83be
000001f0: 2ab6 d1bf 0a45 bf3d 90f9 60bf 5ac1 c8bf
00000200: f220 873d 21cc 613d 2db7 053c 60be 48bf
00000210: 4cd0 d3bc 54a1 5ebc 7341 78bd 05a6 073d
00000220: d910 863d 8b35 1abd e53d 17be 6d63 78bd
00000230: 9dfa 503e 991c 363d 81d5 99be 4f41 2f3b
00000240: b66c a03d 565b cd3b 6394 4a3c 0cc1 a23c
00000250: b98f 30bd b75d d6bd 64fb 11bd c3c9 d13c
00000260: 79c0 b53d ef4c cebe d980 26bd d7e0 7a3c
00000270: 4547 b7bd 02a0 36bb fb55 c6bb a5ac f23d
00000280: f5c2 cb3b 2e66 de3c 3aec 16bd 007a c03c
00000290: 8538 5539 4801 e93c b238 82bc b4cf 35bc
000002a0: e66c 16bd f020 0bbe 82de 303d 2b18 a6bc
000002b0: 2cc6 c33c e800 51bc 5349 bb3e 1621 433d
000002c0: 7874 c13d 34d8 f9bc a183 8a3d e89f 9bbd
000002d0: e284 fc3c a591 2d3d fc11 9a3d 534f 703c
000002e0: babf 6c3d a2d3 223d 3060 853d 1d63 563e
000002f0: 0a71 0d3d d6be 053c 1e8c bebd 3d31 4bbc
00000300: 075e a1bc 8dbe 7fbd 3b24 823d 09fb c0bd
00000310: f94c b1bb 5a55 463d 75f3 393d 715e 82be
00000320: 973f c13d 4243 1eba 9d9f 9abc 41ac 8fbf
00000330: 1bcf 56bd 1456 343d a4bb 463d 9a8d ac3d
00000340: 4fc2 21be 2d99 a53d d1de 74bd adf5 2ebc
00000350: b1e0 9ebd 91da 073d b194 2f3d b732 683c
00000360: a200 b13e 0a2d c63c d367 62bd 0a56 e3be
00000370: 9782 21be 30f5 833d 71d8 cb3c 7e75 d43d
00000380: c876 fabd 512d 83bd e28c 8d3d 3389 1a3f
00000390: 63a7 ebbc 25cd 3bbf 86a7 a1bc c807 1d3c
000003a0: 986f 95bd 924a 25bd 08be cd3e 58fe 4c3e
000003b0: cd4d e1b9 ce77 7a3c fbdb a73a cd51 443c
000003c0: ecd6 9bbd 288d fcbc 6896 91bd e5a2 873d
000003d0: c168 09bc 217e 643d c499 d3bf f18d 9dbd
000003e0: 0ac7 73bd 2383 52bd aeed 3c3b 9529 aa3e
000003f0: 6a01 b8bc ff90 af3c 56a8 923e 1ab7 263e
0.8331434 -1.6703383 -0.8713912 -1.3654541 -0.42375854 0.005791832 -1.0290095 -2.4332922
0.30768314 -0.06680072 0.18690844 -0.8257783 0.04498971 0.074300125 -2.132572 0.76617026
-0.31619975 -0.25632957 0.052289125 -2.0559294 1.0452985 -1.286866 0.01707264 -0.037526127
0.06579876 -0.7072037 1.3004557 0.4946975 0.09040745 0.35628533 0.43806416 1.413934
0.01262992 -0.19023986 -0.008764146 0.13058124 -2.2098944 1.1315252 -0.07651749 -0.7242606
-1.115904 -0.6457486 0.0022281958 0.35108376 -0.8890343 -0.43901363 1.1305058 0.39218175
0.9521634 -0.041265596 -0.00055803044 0.024538558 0.19048396 -0.7054533 -0.042325936 0.13147357
0.21419916 -0.56811 -0.29433233 0.7376505 0.27348915 -0.2674391 0.39949578 -0.2042614
0.6243203 -0.065652534 -0.045987323 -0.024244154 0.02744461 -2.9075758 -0.2971952 -0.22245054
-0.7303579 -0.021702513 0.15919687 0.43311638 -0.6549402 0.001970512 0.4346939 -1.3475909
0.4263776 -2.8260813 0.07570276 0.2964708 -0.025378633 0.8217889 0.961528 -0.15723921
-1.1386843 -0.041704405 -0.57539666 -0.118171394 -1.2466803 -0.08166552 -0.029943945 0.6716297
-0.22908358 -0.1243011 -0.26388854 -4.7709055 -0.33596665 -7.6692176 -0.2659352 0.645705
0.025097512 -0.7103169 -1.0758737 -4.9528985 -1.7767786 -1.093184 -0.100553796 -0.74267566
0.07701089 0.4999164 0.5770292 -2.9749968 -0.15066081 -1.9569108 0.5406451 -0.7267065
0.028239407 0.12797491 -0.061739884 -0.25632083 -1.6383717 0.0933934 -0.878808 -1.5684006
0.06598081 0.055126313 0.008161348 -0.7841549 -0.02585616 -0.013588268 -0.060609292 0.033117313
0.06546182 -0.03764872 -0.14769705 -0.060641695 0.20408101 0.044460867 -0.30045703 0.0026741808
0.07833235 0.0062669916 0.01236448 0.019867443 -0.043105815 -0.104670934 -0.035640135 0.025608903
0.08874602 -0.4029307 -0.040650222 0.015312395 -0.089491405 -0.0027866368 -0.00605273 0.118493356
0.006218309 0.027148332 -0.036846377 0.023495674 0.00020334318 0.028442994 -0.015896175 -0.011096884
-0.036724947 -0.13586783 0.04318095 -0.020275196 0.023898207 -0.012756564 0.3657938 0.047638975
0.09446043 -0.030498601 0.067633875 -0.07598859 0.030825082 0.042375226 0.075229615 0.01466735
0.057800032 0.03975261 0.06512487 0.20936246 0.03453163 0.008163175 -0.09304069 -0.012401876
-0.019698156 -0.062437583 0.06354567 -0.09422881 -0.005410787 0.04842124 0.045398194 -0.25462678
0.09435957 -0.0006037244 -0.018874938 -1.1224443 -0.052443605 0.044027403 0.04851879 0.08425446
-0.15796779 0.080858566 -0.059782807 -0.010678691 -0.077577 0.033167426 0.042866413 0.014172248
0.34570795 0.024191398 -0.055274796 -0.4440158 -0.15772472 0.0644325 0.02488348 0.10373972
-0.12229687 -0.06405128 0.06911637 0.603656 -0.02876634 -0.733599 -0.019733202 0.009584375
-0.072966754 -0.04035432 0.40184045 0.200189 -0.0004297331 0.015287353 0.0012806648 0.011982393
-0.076093525 -0.030829027 -0.07108766 0.066228665 -0.008386792 0.05578435 -1.65313 -0.07693089
-0.05951599 -0.051394593 0.0028828192 0.3323485 -0.022461612 0.021431444 0.28644055 0.16280785

fc.2.bias f4 [64]
00000000: 67be 52bf 8a23 d240 ebaa cf40 15af 03c0
00000010: 23f5 cbbe eea0 31c1 342a 47be b1a0 0ac1
00000020: 7dff 75c0 e2f6 97c1 59c1 0a41 6904 adbf
00000030: 0dd3 36be 0416 5fc0 e0a6 ec3f 41b0 19c1
00000040: 1d6a 24be 270c 2941 ff4f 67c1 538a 0e41
00000050: 19be 6fc0 d683 7bc0 ab98 25bf 6410 80c1
00000060: ef08 ee3f 43a0 8dc0 f2fe 0440 84cf 3d41
00000070: 9a3c 0dc0 79ca 14be 95e3 a43f 604f 7840
00000080: bfdc ea3f cffc 08bf 3876 363f 3d6a bec0
00000090: 7721 eebf 24ba 94c1 bfbf 0341 6258 eabe
000000a0: fbc0 4ac1 3596 4c41 b3e0 df40 c131 f640
000000b0: 32d1 89bf de97 32c1 8079 5bc0 ab6b e53f
000000c0: 308f 1bc1 2eff d0c0 e5dd ea3f be59 663e
000000d0: b7a9 8f40 b932 6940 b4ba 5a41 10bd 1340
000000e0: 35b1 06c0 abdf 1040 f92a 3d40 ee27 eabf
000000f0: 9320 0e41 322b 02c0 c34f d7c0 eb68 c7bf
-0.8232178 6.5668383 6.489614 -2.0575612 -0.39835462 -11.101789 -0.19449693 -8.664231
-3.8437188 -18.995548 8.672204 -1.3516971 -0.17853947 -3.4857187 1.8488426 -9.605531
-0.16056104 10.565467 -14.45703 8.908771 -3.7459776 -3.9299216 -0.6468608 -16.008003
1.8596476 -4.425813 2.0780606 11.863163 -2.2068238 -0.14530362 1.2881953 3.8798447
1.8348616 -0.53510755 0.7127414 -5.9504685 -1.8603963 -18.590889 8.234313 -0.45770556
-12.672114 12.786672 6.996179 7.6935735 -1.0766966 -11.162077 -3.4292908 1.7923483
-9.722458 -6.53115 1.8348967 0.22495171 4.489467 3.6437209 13.670582 2.3084145
-2.1045659 2.2636516 2.9557478 -1.8293436 8.882953 -2.0338864 -6.7284865 -1.5578893

fc.3.weight f4 [32, 64]
00000000: 7ea8 f4bd dc86 72be 9f42 d8be b8e2 d8bc
00000010: 653b e3bc 1ab6 253d 884e 403d 41e7 14be
00000020: dac9 6dbe e0d4 8b3d 75e6 0abe eee2 3ebd
00000030: 73bb 8e3d a8ed e8bd 89fa b1be 7ff6 97bd
00000040: 18b3 ccbd dba0 cebe 860b 03be 00dc cfbd
00000050: 5272 f1bd 3fbf 2bbe 5210 ffbd 6884 2bbe
00000060: 41db b2bd b757 18be 10a2 3abe 07c9 9dbe
00000070: 3a32 a3be 2481 e8bd bcb7 9fbc 0d93 32be
00000080: df24 153d a5a8 1fbe a9ba 39be 1e3e 8dbd
00000090: 0396 4dbd 4ef2 55be 6500 78be c447 7f3d
000000a0: 9304 2f3d bd5d a9be f725 4bbe f47e 24bf
000000b0: 30c9 32be 36b0 60bd 6c94 55bd dd66 443c
000000c0: 90ee cabd 634c 093e bf34 68be 45d9 4bbe
000000d0: d533 d1be 6870 e1bd 580d 01be d085 c63a
000000e0: 9523 2abe 4e7b b73d 1231 73bd 6866 463d
000000f0: 2603 bebe dd3b b5be 06b0 28bd e3e3 43be
00000100: 3579 a4bf 242d a7be 62c8 123e 94d8 a63c
00000110: 5f2c e83c c1bf 29bf 4102 143a 22ee 69bc
00000120: 86f5 7d3d 468c f8bd 369a 8d3e b2d3 2cc0
00000130: 9a80 00c0 88c8 e4bd e21d afbe 585d 1bbe
00000140: 6d39 fc3b 692a 523d cdbb 05bf 3dc8 8b3e
00000150: 9c56 8abd 3c39 91bf 3310 37bf 0426 efbe
00000160: 687a dfbd 6736 593e 34cd 603d e570 2e3e
00000170: 7b0b b3be 86b3 103e 8e0b 223e 0096 95bd
00000180: 1b30 d1bd 277c c9be 619b e4bf fba5 803c
00000190: af1b 313e 0f5b 43be 12b2 ccbd 5bd2 fd3e
000001a0: 3b5b ac3e 8a85 d0bd c8bf 93bc 276c b73e
000001b0: 3e10 913e 2ff8 35be 93e7 5c3d 7d94 f8be
000001c0: 752c 83be d6ed ffbf 654f cebd 3979 d6bc
000001d0: 0531 49be c861 39bf 491f 133e f9b4 31be
000001e0: 1441 4ebd 4ade f0bd 2e56 6dbe 383f 7ebf
000001f0: c651 10be 52d9 b2bf 5a12 b0be b746 2bbe
00000200: 72c2 a33c bc2b 833e 9247 8b3c d794 b8bf
00000210: 6e85 0dbd 73d3 86bf 90f6 b53d 99fe a13a
00000220: 0300 73bd 2767 86bf 2a43 04bf 3e67 f3bd
00000230: 432e c3bf 64ec 94bf 82c2 babc 2ccb 963c
00000240: 2e5c 41be aa65 10bf 08ca 8bbd 577f 6abf
00000250: 72de 46c0 0de0 a2ba a740 67bc fd64 15bf
00000260: e0df b9bd a819 94bd f18f 0bbd e2e3 c2be
00000270: 0aa8 843c ad4a e2bc 5e6e 36be 52cb a7be
00000280: c480 6fbd 71f4 83bd a4f3 c5bf 6001 c73c
00000290: f8b6 793c 5c9c b33e c377 5dbe 57ce 9f3c
000002a0: 0769 88bf 142e 94be 23c2 cfbf c64a ea3c
000002b0: 52f7 18be ddaa a9be 3526 ef3c 0aaf 14be
000002c0: f647 073d b3c1 58bf d0de f2bd dd34 1abd
000002d0: 6e20 813d 75ac 9ebc 0d64 ecbe 5cb2 50bc
000002e0: 8644 bfbd 2565 abbe 8113 a2bd 0e4e a63c
000002f0: 2bce 03bf f527 c83d 2d1d 71bf 1e75 91bc
00000300: 17b2 113e 36e0 37be a052 ccbc f3f3 423f
00000310: c75f d6bd c7f9 63c0 9b25 0c3d 58df 473e
00000320: 1349 153e e70e e33d 9b63 95be b36c 12c0
00000330: ded2 2cbf 9faf 5bbe 6de2 3f3e e569 63bd
00000340: 8414 8e3d fd7c 88bd 105a 61be f2c8 103e
00000350: ea6a 493d 641f 1abe 6319 d0be e7d7 a2bd
00000360: e2db 2b3e f2b4 fb3d 4b06 abbc 3d67 813e
00000370: 6488 fcbc 61a4 4abc 6f4c bfbe f947 06be
00000380: c157 8d3e 9e7e c73d 2cd9 8dbd 2305 8d3e
00000390: e350 053f d0e8 0ebf f0f0 3f3e 9db9 43bf
000003a0: 5442 e5bd df76 a2be 1acc dd3d 6675 92bd
000003b0: 9cdf 123d ecb3 b3be 5cf2 c03d 2750 a4be
000003c0: dd80 aabd a86a 49bf 3da5 97be 2c86 7abe
000003d0: 46f3 91bf 0dcb 74bc 190c 31c0 6ba5 38be
000003e0: f03e 62bd 6236 4ebe e2b3 3ebe 696f 9cc0
000003f0: a322 d5bc e135 c7bf c66f 60c0 1bd0 79be
-0.119462 -0.23684257 -0.42238328 -0.026475295 -0.027738282 0.04045687 0.046949893 -0.14541341
-0.23221532 0.06827712 -0.13564475 -0.046603136 0.06969347 -0.11373454 -0.34761456 -0.07420062
-0.09995097 -0.40357098 -0.12797365 -0.101493835 -0.11789383 -0.16772173 -0.12454285 -0.16749728
-0.087332256 -0.1487721 -0.18225884 -0.30817434 -0.31874257 -0.113527566 -0.019496791 -0.17438908
0.036412116 -0.15591677 -0.18137611 -0.068966135 -0.05019189 -0.20893213 -0.242189 0.0623243
0.04272897 -0.3307933 -0.19838701 -0.64256215 -0.1745956 -0.054855548 -0.0521435 0.011987415
-0.099087834 0.13408045 -0.22676371 -0.199071 -0.40859857 -0.11007768 -0.12602746 0.001514608
-0.16615136 0.089590654 -0.05937297 0.048437506 -0.37111777 -0.35397235 -0.041183494 -0.191299
-1.284949 -0.32651627 0.14334252 0.020366944 0.02834147 -0.6630822 0.0005646088 -0.014277967
0.062001728 -0.1213613 0.27656716 -2.7004209 -2.0078492 -0.11171061 -0.34202486 -0.15172327
0.0076972754 0.051309977 -0.52239686 0.27301207 -0.06754801 -1.1345592 -0.71509093 -0.4670869
-0.10912019 0.21212159 0.054883197 0.17035253 -0.34969696 0.14130983 0.1582472 -0.07304001
-0.102142535 -0.39352533 -1.7859918 0.015704146 0.17295717 -0.19077705 -0.09994902 0.4957455
0.33663353 -0.101817206 -0.018035784 0.358247 0.28332704 -0.17770456 0.053931784 -0.48550788
-0.25619856 -1.9994457 -0.10073737 -0.02618085 -0.19647606 -0.7241483 0.14367403 -0.17354192
-0.050355032 -0.11761148 -0.23177406 -0.99315214 -0.14093694 -1.3972571 -0.34389 -0.16726194
0.01999018 0.25619304 0.0170019 -1.4420422 -0.034551077 -1.0533279 0.08884919 0.0012359201
-0.059326183 -1.050023 -0.51664984 -0.11884926 -1.5248493 -1.1634641 -0.022797827 0.018407427
-0.1888282 -0.5640513 -0.06825644 -0.91600555 -3.107327 -0.0012426391 -0.014114535 -0.5835722
-0.09075904 -0.07231456 -0.03407282 -0.38064486 0.016193409 -0.027623499 -0.17815539 -0.3277231
-0.05847241 -0.06443108 -1.5464978 0.024292648 0.015241377 0.3508023 -0.21627717 0.01950757
-1.0657052 -0.28941405 -1.6231121 0.028600108 -0.14938095 -0.3313817 0.029193023 -0.14519897
0.03302761 -0.8467056 -0.11858904 -0.03764807 0.063050136 -0.019369343 -0.46170083 -0.012737837
-0.09339242 -0.33475605 -0.07913876 0.020300891 -0.5148646 0.09773246 -0.94185144 -0.017756041
0.14228092 -0.17956623 -0.024941742 0.76153487 -0.10467487 -3.5621202 0.03421555 0.19518793
0.14578657 0.11086827 -0.29177555 -2.2878845 -0.6750926 -0.21453713 0.18738718 -0.05552091
0.06937507 -0.066644646 -0.22007012 0.14139155 0.049174227 -0.15051037 -0.4064437 -0.07951336
0.16783097 0.12290372 -0.020877024 0.25274077 -0.030826755 -0.012368293 -0.37363002 -0.13113393
0.27606013 0.09740947 -0.06926188 0.27542982 0.5207655 -0.55823994 0.18744254 -0.764551
-0.11194292 -0.31731316 0.10829945 -0.07151298 0.03585778 -0.35098207 0.094212264 -0.320924
-0.0832536 -0.7867837 -0.29618254 -0.24465245 -1.1402366 -0.014940989 -2.7663634 -0.18031852
-0.055235803 -0.20137933 -0.18623307 -4.8886 -0.026017493 -1.5563318 -3.506822 -0.24395792

fc.3.bias f4 [32]
00000000: 3c17 33bf 45af b9bf e923 45c0 9b21 1b40
00000010: f859 8d3f 7d86 6840 10f4 26c0 ce22 9340
00000020: a9d2 01c0 7799 0bc1 f578 17be 0034 6040
00000030: ab59 8540 2b63 b83f d832 2bc0 ab41 f5bf
00000040: 96ac 8bc0 8af9 3f40 6e35 473f 122e d2bf
00000050: 49a5 94c0 bb7a 2d40 f797 8fc0 7a72 aabe
00000060: 9a9f 0f3f 29e7 13bf 091b 0dc0 7d1d 5e40
00000070: fcbb a0c0 4a85 93be f473 133e e31a 64bf
-0.6995733 -1.4506613 -3.0803168 2.423926 1.1043081 3.6332085 -2.6086464 4.5979986
-2.0284827 -8.724967 -0.14792235 3.5031738 4.167196 1.4405264 -2.6749783 -1.9160665
-4.3648176 2.9996057 0.778159 -1.642031 -4.6451764 2.7106159 -4.4873004 -0.33290464
0.5610291 -0.577746 -2.204775 3.4705498 -5.0229473 -0.2881263 0.14399701 -0.89103526

fc.4.weight f4 [16, 32]
00000000: 82e0 0ebe 1084 3abc f300 353a 58f1 8e3a
00000010: ff2a 96bd a634 08bd 43f6 49bd d3be 3abc
00000020: 9dbe 57ba aae8 e3ba 4a66 c9bc b767 763a
00000030: c03e d4bb c4f2 2138 8e54 91bc b667 acbb
00000040: c14b 8abc 386c 80be c209 b6bc 628f 7239
00000050: e0f2 cbbd dd59 d5b7 c0a3 913b 239a 2e3b
00000060: 4d73 fbb9 5a14 57bd f2a7 e9bc d59b c5bc
00000070: b3e4 09bd 56fc 6d3d fccd cebb 9d1f 18be
00000080: 828a 0c3d cee4 19bb 4ad6 62c0 b856 2cbf
00000090: baec 19bf c4ac 36bf ea2e 99bd 5fb8 9abf
000000a0: 3da0 c73d 1d64 1bc0 533b 013e 4e92 eabe
000000b0: b75a 8bc0 c1be 1fbc 89ac a73e d969 43bf
000000c0: afff d33b e2b1 87be 05c4 e8bd 4c09 8bbe
000000d0: 762e 07bf 6144 beba dc94 c6bd e887 e2bd
000000e0: 25e1 ffbe 5cbb 54be b67b efbf b024 dfbc
000000f0: 6fb6 2c3e a0bb 02bd 12ac 89bc 3f83 a0bd
00000100: 9be2 893d bc03 3c3c ce29 a8be 1505 d83b
00000110: 2c71 c5ba 83fe ab3d e740 313d a4f1 713e
00000120: 0ca0 71bc de25 453d febe c93c 073e bbbd
00000130: 51d5 843d 69b4 f43d bb4a 14be 8436 53bc
00000140: f7fe 113e 891f cf3b 6c50 d4bb 0b33 f0bb
00000150: 1374 2dbd 26b9 e1bb b6db 4e3f 00bd 853d
00000160: 8afb 96bb 3ee8 33be 4472 f1bc 4d18 7ebe
00000170: ec11 f03c a778 4cbd 39bd 81bc b280 e3be
00000180: a3f2 f9bc 7c55 b1bd a286 aebe 25c9 a2be
00000190: e317 64be 2a74 ccbe 6fe8 9e3a 0a86 45c0
000001a0: 0543 0d3e a441 0d3d 7cdb 9e3d 6df9 85bd
000001b0: 7cb2 82be 3736 353b 3fbf fc3d 76e5 cbbb
000001c0: 20b6 94bc 316d 30bb 3b71 9ebe 1afb 7bbe
000001d0: 1456 36bc 7602 4c3b 40cb 5fbd d791 563c
000001e0: 844b ecbc 962e 51bd ca9c 57be a031 77bf
000001f0: 0f35 0abe 65eb 18be a0a5 60be aaa0 5bbf
00000200: ba33 adbd 3e03 e6b9 fd2e 463d 0b7b 35ba
00000210: 7d6c 61ba 2d57 31b9 a102 7e3b 93d2 0cbe
00000220: 32f3 39be 983a a13d e061 1cbe 3515 353e
00000230: bb51 163e b488 29bd fcdb 263d 860f 8a39
00000240: 9d53 f4bc ae5c ce39 e0b6 46bb a61b 48bd
00000250: bfa9 e639 c244 e8b9 4bbd e5bf 4320 23bc
00000260: ccfd e2ba 99fc f0bd 48cd 0cbc 571d 913a
00000270: 0bf6 fc3b cd99 c73d e800 2eb8 ddff c4be
00000280: 2a12 2c3d 0fac 1cbf 7e30 c73d d442 1bbd
00000290: f46b aebb 5bbb 57be 1833 ee3c 03ce c4bc
000002a0: 9fc6 c83d 8c57 383d 7313 febc 8503 4e3e
000002b0: 2aec d23c a21c 3a3d 3288 d83e 4b53 71bd
000002c0: a55d 4dbf d1e4 303c 401a 5ec0 a97e 89bd
000002d0: 9b9f a2bc 62bd 17bf 0667 bfc0 0dd5 edbd
000002e0: 1e87 153e 20cd 653c 005c a0bd afe2 61bd
000002f0: 3a59 a63c 08f6 ab3d 0b90 d7bc 9d63 22be
00000300: 0365 923e d515 09c0 6cfb 903f 5bcf 0bc0
00000310: 9887 cebb 68e8 103b e325 7bbe 20d2 3bc0
00000320: 6b4d 00bd b090 7cbd ca73 bdbd af63 413c
00000330: ac2d 26bc ae1d 1dbc 4e89 ae3b fe88 d6c0
00000340: ecf2 3dbd a852 9b39 993b 36c0 b23f 46bc
00000350: ef57 41bf 9a19 afc1 bca0 a0bd 99c4 04be
00000360: 482b a0c0 c2ca 02ba c50b 68bd 5d5a 6cbd
00000370: 3067 68be 4811 72bd 6529 213e 0be2 733c
00000380: 82dd bcbc ae18 77bc a35e 44bd 5fd3 aabe
00000390: 479c b4bd 0330 ab38 5f7a 35bd 56bc afbd
000003a0: e791 c8bd cd86 8dbe 0e57 ad3d bb04 82bd
000003b0: a4fb d1bd 06a5 16be 096d b43b 8858 91bc
000003c0: 8db9 a8bd 8133 48be c3b3 46bf 85a9 42bd
000003d0: b897 38be 4faa bebd e2c1 16bd c2f7 b0bb
000003e0: 3ce5 8bbd 1233 b1bd 3bd5 96bd 9f39 afbe
000003f0: 9427 89bd f9d5 1c3d 9645 e0be 9427 dabd
-0.1395283 -0.011384025 0.00069047435 0.0010905666 -0.073324196 -0.033253334 -0.04930712 -0.011398035
-0.0008230003 -0.0017388065 -0.024584908 0.000939961 -0.006477207 3.8611484e-05 -0.017740514 -0.0052613867
-0.016881825 -0.25082564 -0.02222145 0.00023132333 -0.09958434 -2.5433425e-05 0.0044445693 0.0026642166
-0.00047960356 -0.052509643 -0.028522465 -0.024122158 -0.03366537 0.058101974 -0.0063111763 -0.1485581
0.03431178 -0.0023482325 -3.5443292 -0.6731982 -0.6012684 -0.7135737 -0.07479651 -1.2087516
0.0974736 -2.4279854 0.12620287 -0.45814747 -4.3548236 -0.009750069 0.3274882 -0.76333386
0.006469689 -0.265029 -0.11365513 -0.2715553 -0.5280527 -0.0014516228 -0.096963614 -0.11061078
-0.4997646 -0.20774597 -1.8709629 -0.027239174 0.16866468 -0.031917214 -0.016805682 -0.07837533
0.06732675 0.0114755 -0.32844394 0.0065924027 -0.0015063635 0.08398154 0.043274786 0.23627335
-0.014747631 0.048131816 0.024627205 -0.0914269 0.064859994 0.11948473 -0.14481632 -0.0128914155
0.14257418 0.006320898 -0.0064793136 -0.0073303035 -0.042347025 -0.0068885265 0.80804 0.065301895
-0.0046076225 -0.17569062 -0.029473431 -0.24813958 0.02930542 -0.04991975 -0.015837299 -0.44434124
-0.030511206 -0.08658883 -0.34087092 -0.31794086 -0.22274737 -0.39932376 0.0012123714 -3.086306
0.13795097 0.034486428 0.07756707 -0.06541715 -0.25526798 0.0027650723 0.12341165 -0.0062224222
-0.01815325 -0.0026920552 -0.30945763 -0.24607506 -0.011128921 0.0031129397 -0.054637194 0.013096294
-0.028844602 -0.05106982 -0.21055904 -0.96560097 -0.13496803 -0.14933546 -0.21938181 -0.8579203
-0.08457132 -0.00043871434 0.048384655 -0.0006922937 -0.0008599235 -0.00016912511 0.0038758891 -0.13752203
-0.18159178 0.07872504 -0.15271711 0.17683871 0.14679615 -0.041390136 0.040737137 0.00026332977
-0.029825026 0.00039360434 -0.0030321404 -0.048854493 0.0004399549 -0.00044301717 -1.7948393 -0.009956422
-0.0017318069 -0.11766929 -0.008593865 0.0011071366 0.0077197603 0.09746132 -4.1485677e-05 -0.38476458
0.04200951 -0.6120004 0.09726046 -0.03790553 -0.0053229276 -0.21067564 0.029077098 -0.024024015
0.09803509 0.045005366 -0.031015133 0.2011853 0.025747377 0.045437463 0.4229141 -0.058917325
-0.80221015 0.010796742 -3.4703522 -0.06713612 -0.019851496 -0.5927335 -5.981326 -0.11612902
0.14602324 0.014025956 -0.078300476 -0.055147823 0.020306218 0.08396536 -0.026313802 -0.15858312
0.2859269 -2.1419575 1.1326728 -2.184531 -0.006302785 0.0022111181 -0.24526171 -2.9347
-0.03132383 -0.061661422 -0.09250601 0.011803552 -0.010142725 -0.009589596 0.0053264266 -6.7042227
-0.046374246 0.00029625488 -2.8473876 -0.012100147 -0.755248 -21.8875 -0.07843158 -0.12965621
-5.0052834 -0.000498932 -0.05665185 -0.057703365 -0.22695613 -0.059098512 0.15738447 0.014885436
-0.023054842 -0.015081568 -0.047941815 -0.33364388 -0.0881887 8.162858e-05 -0.044306155 -0.08580844
-0.09793454 -0.27641907 0.0846387 -0.063485585 -0.10253075 -0.14711389 0.005506162 -0.01774241
-0.08238516 -0.19550897 -0.77618045 -0.047524948 -0.18026626 -0.093098275 -0.036805995 -0.005400629
-0.06830832 -0.08652319 -0.07364889 -0.3422365 -0.06697002 0.038289998 -0.4380309 -0.1065208

fc.4.bias f4 [16]
00000000: f519 be3f 32cf 47bc 69d8 1dc1 10cf f3be
00000010: 5056 a63e aac6 e23f 566a df3c 7fb5 a6be
00000020: 7cf5 e23f 97eb d33f 4554 a63c 6550 0bc1
00000030: 5568 db3a 65c1 2140 c658 153c 3f2a 15bc
1.4851671 -0.012195395 -9.8653345 -0.47618914 0.32487726 1.7716877 0.027272385 -0.32560346
1.7731166 1.6556271 0.020303855 -8.707128 0.0016739467 2.5274289 0.0091154035 -0.009104311

fc.5.weight f4 [3, 16]
00000000: d97e 92b8 853c aeba 9581 0cba 6cb3 1f3a
00000010: d969 a538 e087 bc38 02a3 c33d 3086 843b
00000020: 9d47 8d37 8173 8eba 1212 5d3a 0157 b93a
00000030: 3c6f 3337 f77e 6f39 4e4e b3b6 a724 9039
00000040: 9d1e b63e c9d8 6ebb 910d 7b3b eb00 bab8
00000050: df8e 89ba bd23 90bd 9723 293a cf4d 22bd
00000060: 5645 69bd 0a04 173e 46bd e13d b5f1 e93c
00000070: 3e5c 043d 5ff8 c6bd c016 b5b7 8dff 223d
00000080: 4e21 7b39 967b 313d c2bf bcbd 8dd5 e1bc
00000090: 52f0 e0bd 4a0d a138 bc7e 7e38 3dfe 4d3d
000000a0: b00e 04b7 c11d 253a e447 863b 81e9 113c
000000b0: a834 62ba 063d 4138 cb3e be3d 9c3e eeb8
-6.98545e-05 -0.0013293183 -0.00053598854 0.00060921046 7.887529e-05 8.989847e-05 0.09552576 0.0040443167
1.6841857e-05 -0.0010868163 0.00084331736 0.0014140309 1.069513e-05 0.00022840114 -5.3437316e-06 0.00027493128
0.3557023 -0.0036445132 0.0038307647 -8.869342e-05 -0.0010494849 -0.070380665 0.00064521417 -0.039624985
-0.05695089 0.14747635 0.11022429 0.028557638 0.03231453 -0.09715342 -2.1587475e-05 0.039794493
0.00023949632 0.04333075 -0.092162624 -0.02756765 -0.109833375 7.6795535e-05 6.067635e-05 0.05029129
-7.871233e-06 0.0006298684 0.0040979255 0.008905769 -0.0008629062 4.607162e-05 0.092893206 -0.00011360386

fc.5.bias f4 [3]
00000000: 02d5 5239 67d7 f13e 7860 b33c
0.00020106512 0.4723465 0.021896586
