models/omni-road/model_epoch_230.pt (torch, 242162 bytes, 12 tensors)

fc.0.weight f4 [256, 60]
00000000: b0f6 a040 65e1 bbbf 3ffa 20c0 8042 08c0
00000010: dd90 df3e ff53 48be 944e a1be 5431 973f
00000020: 1472 81bf 3c70 febe 45b7 40bf f91e 76bf
00000030: 91d4 2e40 df98 f43f 0752 853f fe21 91c0
00000040: 14e2 12c0 4774 c1bd e42e 1c3f 86fd 2c3f
00000050: 8fc6 3abf 3b0b c6be c06b 9dbe 7317 09bf
00000060: 1c50 9d3d b4f2 183e c75f 7fbc f21e a73d
00000070: 2eb0 da3f 9202 023f 93e8 ba3e 8bdc 94bd
00000080: 8c6e 84bd 6f19 d3bc c1c9 7dbd 2723 16be
00000090: b379 2d3d f117 b63d 2373 b1bd 0b2c a03d
000000a0: 016f abbd ba97 273e d99e 6b3e a203 b0bd
000000b0: be2e c2bd 62d9 8ebd 0b95 27bd c92b ebbb
000000c0: 57a5 b2bd 82ee 38be 2d7c a0bd 48c7 8d3d
000000d0: 5669 253c 0adf 93bb 113d 7abc d852 42bd
000000e0: 7c90 073d f479 6e3c 34fb 27bd 4f00 c9ba
000000f0: a39a 0d40 96fa 1440 0284 9c3e a066 86bf
00000100: 054b 01be 6db3 eebd 4ff6 69bf e315 d7bf
00000110: de36 51bf b097 4fbf b988 ab3f 49f7 2b40
00000120: ac19 ecbe 3650 6240 1c20 9fbf 1ffa 5340
00000130: 39c6 84c0 b5ae 963f 7f99 203e 92e1 4fbf
00000140: db80 75bf 8af6 763e dc34 8cbf 375d 17be
00000150: eca1 3b3b b4bf 6d3d 7b49 28be 0f18 11bf
00000160: 5223 9a3d 24e4 12bd 908e 993d 6e11 04be
00000170: 2862 1dbe c3ba c4bd 5d45 bcbd 1999 42bd
00000180: d734 01bd 2dc6 43bb 6b08 efbd a379 8c3d
00000190: b5a5 1d3f 68d3 833e 415e b23b ed10 69bc
000001a0: 4695 6fbc 9c8e fc3d e9bf 22be a8db 7abe
000001b0: 1933 473e 8f42 ec3b 5a43 273e aa5c 183e
000001c0: 0b70 793d 6aed 30be ed56 283e dd91 073f
000001d0: 72ec 883e 8389 8abd 3605 25bd 3401 14bd
000001e0: 2453 a2bf 85ea c8c0 19ff dd3d f3ec 9f3e
000001f0: e249 013f 1cef 953e 0686 273f 5a3f 3c3f
00000200: 6351 afbf 20bb 63bf a31d c83f 8a30 2ec0
00000210: e357 99be 7be2 cbbd bf71 563e 204b 01c0
00000220: 4ef9 283f 4e91 693f 235b b33e 20d9 1bbf
00000230: b0f9 1a3f 7c59 07be 39bc 1d3f 23c3 3f3f
00000240: 4126 70bc c835 513c 7614 003d a6b0 f63c
00000250: 7919 cf3c e1eb 48bd 8008 423d 2e3f 92bd
00000260: 8c9c 4bbd ef57 debd 3f24 14be 3ec3 11bc
00000270: 4a06 fd3c 4019 883c 5d23 42bd 7c76 4cbd
00000280: 6fd6 d0bc 78a3 4abc a115 8fbd ae7f 0c3e
00000290: efdb 4f3d e7c6 e83d 0e27 763d 504a 1bbd
000002a0: 211d 183d 0e2b 91bd 4464 c3bd a90f afbc
000002b0: b307 653c f2f6 073e d925 94bc 8a23 7b3d
000002c0: b779 85bc 976a e0bc ab92 313b 2773 33bd
000002d0: 2642 143f 8d9c 763f 59a3 0d40 8eee a23f
000002e0: 1a87 9cbf 700a 573e 445e 803f 73f4 7d3f
000002f0: 3c6d cc3f 76e9 0e3e 4693 10c0 cd77 35be
00000300: 8334 a0be 089d b440 6569 8040 c6ee 15c0
00000310: f91f 09c0 5ffc 1ebf e694 0cbf bfdd 523e
00000320: 069b d23d 5e3f 9c3f 9130 333d e7af 033f
00000330: 614d 13bd f14d 933e 09a4 03bf c30f bfbe
00000340: 79f5 a3be 9d29 a1be 9c39 2c3f 253a c13e
00000350: c589 22be 7440 d4be b616 ddbd 99c3 433e
00000360: 93ad 25be a82c 413d 9e8b 87be 076e 943f
00000370: 2663 14bf 5905 46bf e8dd 28bf 9583 f53e
00000380: c9b2 0f40 8ec4 a03f 15bc 823f 14b3 843f
00000390: e8f0 95be 59ab cd3e 4a00 ec3e b09c 90be
000003a0: 4497 b4be 5af3 bf3c f45f 27bf 5831 9e3e
000003b0: 3c01 e93e ff81 1b3e bb40 203e bde7 fb3e
000003c0: b3f9 e0bf f373 883f eb6d 1a3f c45d f2bd
000003d0: 9d1f 273f 560c 2abe fa33 60be f920 debe
000003e0: 047d a53e d5af e83c fc08 aa3f b2cd 9f3f
000003f0: aaea 6c40 0854 aa3f 70f9 e43f a57c c9bb
5.030113 -1.467816 -2.5152738 -2.1290588 0.4366521 -0.19563292 -0.31505263 1.1811929
-1.0112939 -0.49695003 -0.7527965 -0.9614101 2.731724 1.9109153 1.0415658 -4.5353994
-2.2950487 -0.09446006 0.6100905 0.67574346 -0.72959226 -0.38680443 -0.3074627 -0.53551406
0.07681295 0.14936334 -0.0155868 0.08160199 1.7085016 0.5078517 0.36505565 -0.07268628
-0.06466398 -0.025768964 -0.061959986 -0.14661847 0.04235239 0.08891285 -0.08664539 0.078209005
-0.08370782 0.16366473 0.23009814 -0.08594443 -0.094815716 -0.06975056 -0.040913623 -0.0071768505
-0.08722942 -0.18059734 -0.07836185 0.069227755 0.010095915 -0.0045126723 -0.015273348 -0.047442287
0.033096775 0.014555443 -0.04101105 -0.0015335175 2.2125633 2.3277946 0.30569464 -1.0500069
-0.12626274 -0.116553165 -0.9139146 -1.6803554 -0.81724346 -0.8109083 1.34011 2.686968
-0.46113336 3.5361457 -1.2431674 3.3121412 -4.149197 1.1772066 0.15683554 -0.8120357
-0.9589974 0.24117485 -1.0953631 -0.14781652 0.0028630449 0.05804415 -0.1643428 -0.56677336
0.07526268 -0.035862103 0.07497895 -0.12897274 -0.15369475 -0.096059345 -0.091929175 -0.047509287
-0.031544533 -0.002987276 -0.116715275 0.06859138 0.61580974 0.25747228 0.005443365 -0.014225227
-0.014622992 0.12331888 -0.1589352 -0.24497855 0.19453086 0.007210083 0.16334286 0.14879099
0.060897868 -0.17278066 0.1643941 0.52956945 0.26742893 -0.067645095 -0.040288173 -0.03613396
-1.2681623 -6.278628 0.10839672 0.31235465 0.5050336 0.29283988 0.6543888 0.73534167
-1.3696712 -0.88957405 1.5634044 -2.7217126 -0.29949865 -0.09955307 0.20941828 -2.0202103
0.6600541 0.9123734 0.3503047 -0.6087818 0.6053724 -0.1321773 0.6161533 0.7490713
-0.014657558 0.01276917 0.031269513 0.03011353 0.025280701 -0.049053077 0.047371387 -0.07140957
-0.04970984 -0.10856616 -0.14466952 -0.008896647 0.030886788 0.016613603 -0.047397006 -0.049917683
-0.025492875 -0.012368076 -0.06986547 0.13720581 0.050746854 0.113660626 0.06009584 -0.037912667
0.037137154 -0.0708829 -0.095406085 -0.021369772 0.013978886 0.13277796 -0.018084453 0.06131319
-0.01629339 -0.027394576 0.0027095478 -0.04381099 0.57913435 0.9633263 2.213095 1.2729051
-1.222873 0.21000075 1.0028768 0.99201125 1.5970836 0.13956246 -2.2589889 -0.17721482
-0.31290063 5.644169 4.0128655 -2.3426986 -2.1425765 -0.6210384 -0.549147 0.20592402
0.102834746 1.2206838 0.04374749 0.5144028 -0.035962466 0.28770402 -0.5142217 -0.37316713
-0.32023218 -0.3147706 0.67275405 0.37739673 -0.15872867 -0.41455424 -0.107953474 0.19117583
-0.16179495 0.04716173 -0.26473707 1.1596078 -0.5796379 -0.7735191 -0.659636 0.47951952
2.2452872 1.2559984 1.0213648 1.036715 -0.2928536 0.4016979 0.4609397 -0.28244543
-0.35271657 0.023431469 -0.6538079 0.3089702 0.45508754 0.15186308 0.15649693 0.4920024
-1.7576202 1.0660385 0.6032397 -0.118342906 0.65282613 -0.16606268 -0.21894827 -0.4338453
0.32321942 0.028404156 1.3283992 1.2484648 3.7018228 1.3306894 1.7888622 -0.006148892

fc.0.bias f4 [256]
00000000: 76f5 ecbf 1d89 34c0 cd16 70c0 b878 c2c0
00000010: eb37 97c0 768a 8bc0 ed88 59c0 0ae1 92c0
00000020: c872 aac0 a29a 6bc0 9f8a 81bf 2446 aabe
00000030: 3616 66c0 0d41 69c0 3b52 543e 81aa 2d3f
00000040: 3602 e1be 4446 81c0 e04a 5b3f 847f 563e
00000050: 4221 84c0 e5c7 29be fd9a dcc0 d7db 92c0
00000060: 532d d5c0 4125 efbf c543 403f 3b0d 85c0
00000070: cf1d 21be 7aa7 233f e739 3ec0 b27a 72c0
00000080: 546d 1ac0 83e8 19c0 4c35 1fc0 ae53 d2c0
00000090: b6d1 efbe 7685 8bc0 692c b83f d2ca ba3f
000000a0: b798 88c0 31af cac0 450a d5bf 391b e4c0
000000b0: a5f1 16c0 0eac e5bf 9fa9 acc0 489b 3bc0
000000c0: 64e5 11c0 5af3 96c0 51ef 423d de89 6ac0
000000d0: 957f f9bf c7ef c9bf 31a0 1cc0 845e dac0
000000e0: 158f f7bf 6ccd 0dc0 5fbc 07c0 bd06 8f3f
000000f0: 089e c4bf 359e 10bd c3b5 143f 2e10 53c0
00000100: 7c2d e5c0 c03b 90c0 b482 8ec0 5b9f 9ec0
00000110: 84c9 fabf afc0 9040 af22 4abf 92f1 933e
00000120: 9c04 8cc0 6615 b8c0 8703 a1bf 5399 cac0
00000130: 772e 103f e9ec 4cc0 816f c4c0 fb7e 6ec0
00000140: ce5a ed3f 63be 9ec0 5972 c7be 1f4c 00c0
00000150: 9b99 d6c0 8b0c 07bf 8599 f43e b2a5 cdc0
00000160: 1cbf 9d3e 69e9 78c0 df2c d23e e320 fcbe
00000170: af4f 8ec0 ac85 4fc0 801f a2c0 7c73 d1bf
00000180: 8a1e 18c0 a394 84be 5d2f 2ec0 be5c cac0
00000190: 5532 643e 673e a33e 2aaa b2bf b704 84c0
000001a0: e148 afc0 d5e5 b2bf c6a9 f8bf 0bf0 2f40
000001b0: 88ce 2cbe 4abc 89c0 f96a 1abf 9f41 6dc0
000001c0: 5968 6ec0 027f 70c0 5cba 18c0 3303 a7c0
000001d0: cd1d 7e3f e158 92c0 de09 81c0 a04a 90c0
000001e0: 0444 f1bc 080c 7bc0 6980 71c0 d4ac 01c1
000001f0: 2644 7dc0 bd8f 99c0 5ec2 7fbe 9e8b 99be
00000200: 6064 f8bf 3f89 1440 33eb 0cc0 8086 58c0
00000210: de63 543f db49 48c0 dd1c a2be 404f 93c0
00000220: 2f8a 4fc0 6714 2040 7367 95c0 8fb5 b7c0
00000230: 14ff 12c0 d4c5 84bf e035 4fc0 b894 1d3f
00000240: 2b5e 6ec0 b515 7dc0 3b47 b4bd 48bf af3f
00000250: 7f85 87c0 5ec9 663f b13b d7bf 9c09 a2bf
00000260: afdc 82c0 bf99 7c3f 4d92 8fc0 28a5 b1c0
00000270: 16cc 9840 57a3 9b3f 1908 e7c0 cac2 cec0
00000280: 56c8 88bf c3d9 10c0 8b08 8abf 03dc 66c0
00000290: 9589 e7bf af89 82c0 302d 523d dcac c5bd
000002a0: d502 bec0 339d 86c0 b31b 05c1 3244 63c0
000002b0: 3090 b3c0 0a25 4bc0 f63c 6dc0 7874 1ebf
000002c0: a1fc ffbf 4075 bbc0 4fff 82c0 ab76 58bf
000002d0: 9711 02c0 cac0 4c3f 2dad babf 4187 d4c0
000002e0: d82e 84c0 1e07 80c0 60d4 e9c0 8978 9bc0
000002f0: 65f8 e2bf a358 65c0 e5bd aac0 edda 4ebf
00000300: 57de 4bbf b53e 8dc0 5e89 e2bf be3f 5ac0
00000310: 7551 ea3d 4107 e440 b474 8bc0 2c86 2b3e
00000320: 4b0b f5bf 3940 3e3f 1c55 06c0 a4f9 eebe
00000330: 33b8 6ec0 bb1e e7bc ef1e a6c0 c488 40c0
00000340: 6a18 aec0 9d13 c4bf edb4 883e 465e 5ec0
00000350: dab4 bec0 3652 f33f c307 49bf 1b14 4d3f
00000360: 9d41 43c0 02f6 16c0 23ec dcbf aa19 4dbf
00000370: 7ca2 5dc0 8a35 5fc0 9f17 9d3f c475 e7bf
00000380: faf4 57be f552 0bc0 8936 22c0 ef43 8cc0
00000390: 281f fbc0 d574 8fc0 9c19 36c0 6301 b6bf
000003a0: 26b4 8fc0 ffcf b8c0 bba0 85c0 8816 90c0
000003b0: dbe8 91c0 cac8 5fc0 20ad 8fbf 180a b7be
000003c0: 7243 b9c0 a769 74c0 7e14 1240 3da6 9ac0
000003d0: 4367 453e bfca 11c0 a416 efbe 5b03 33bf
000003e0: e687 d2c0 7ad4 27c0 4371 12bf d9c0 fbbf
000003f0: da1d 0cc0 198f 80c0 b753 4dc0 0fcb 7340
-1.8512409 -2.8208687 -3.7513916 -6.077236 -4.725576 -4.360652 -3.3989823 -4.5899706
-5.3265114 -3.681313 -1.0120429 -0.33256638 -3.5951056 -3.6445954 0.20734493 0.67838293
-0.43947 -4.0398273 0.85661125 0.20947081 -4.12906 -0.1658016 -6.8939195 -4.589336
-6.6617827 -1.8683244 0.7510341 -4.157865 -0.15734027 0.63927424 -2.972284 -3.7887387
-2.4129229 -2.4048164 -2.487628 -6.572715 -0.46839684 -4.3600416 1.4388553 1.4593146
-4.268642 -6.3338857 -1.6643759 -7.128323 -2.3584988 -1.7943132 -5.3957057 -2.9313526
-2.279626 -4.717206 0.04759151 -3.6646647 -1.949206 -1.5776299 -2.4472773 -6.8240376
-1.934054 -2.215663 -2.1208723 1.1173931 -1.5360727 -0.035307128 0.58089846 -3.2978625
-7.1618023 -4.5072937 -4.453455 -4.9569526 -1.9592748 4.523521 -0.7895917 0.2889524
-4.3755627 -5.752612 -1.2579201 -6.3312163 0.563209 -3.2019598 -6.1386113 -3.7265003
1.8543336 -4.9607406 -0.38954428 -2.004646 -6.7062507 -0.52753514 0.47773376 -6.4264765
0.30809867 -3.8892462 0.4104986 -0.4924384 -4.447227 -3.2425337 -5.066345 -1.6363368
-2.376864 -0.2589465 -2.7216408 -6.323821 0.22284825 0.31883547 -1.395818 -4.1255755
-5.4776464 -1.3976389 -1.9426811 2.749026 -0.1687566 -4.3042345 -0.6031948 -3.7071302
-3.7251189 -3.757752 -2.3863745 -5.2191405 0.9926422 -4.5733495 -4.0324545 -4.5091095
-0.029451378 -3.9226093 -3.7734625 -8.104694 -3.9572845 -4.798796 -0.24976489 -0.29989332
-1.9405632 2.3208768 -2.2018554 -3.3832092 0.82964885 -3.1295078 -0.31662646 -4.603424
-3.242809 2.5012453 -4.668878 -5.740913 -2.2968187 -1.0372872 -3.2376633 0.6155505
-3.7244976 -3.95445 -0.08802649 1.373025 -4.235046 0.9015101 -1.6815091 -1.2659183
-4.089439 0.986721 -4.486609 -5.5514107 4.774913 1.2159222 -7.2197385 -6.461278
-1.0686138 -2.2632911 -1.0783857 -3.6071784 -1.8088862 -4.079307 0.051312625 -0.09652111
-5.9378457 -4.2066894 -8.3192625 -3.5510373 -5.611351 -3.1741357 -3.7068458 -0.6189647
-1.9998971 -5.8580627 -4.0936656 -0.8455607 -2.0323236 0.7998167 -1.4584099 -6.6415105
-4.130718 -4.000869 -7.3071747 -4.858464 -1.7732054 -3.583535 -5.3356805 -0.80802804
-0.7963614 -4.4139047 -1.7698171 -3.4101405 0.11441318 7.1258855 -4.357996 0.16750401
-1.9144071 0.74316746 -2.0989447 -0.46674836 -3.7299926 -0.028212896 -5.191276 -3.0083475
-5.44048 -1.5318485 0.26700535 -3.474504 -5.9595766 1.9009464 -0.7852747 0.80108804
-3.0508797 -2.3587651 -1.7259563 -0.80117285 -3.4630423 -3.4876428 1.2272834 -1.8082814
-0.21089545 -2.1769383 -2.5345786 -4.3832927 -7.8475533 -4.4830117 -2.845313 -1.4219173
-4.490741 -5.77539 -4.1758704 -4.5027504 -4.5596747 -3.4966302 -1.1224709 -0.35749888
-5.789483 -3.8189485 2.2825007 -4.8327928 0.19277672 -2.2779996 -0.4669696 -0.69926995
-6.579089 -2.6223435 -0.57204074 -1.9668227 -2.189322 -4.017468 -3.2082345 3.8092687

fc.1.weight f4 [128, 256]
00000000: 5414 393f b710 87bf 9682 6bbf ab4d 053f
00000010: db43 f8bd 220f c63f 1dd7 7bbf 5e40 c63d
00000020: 8948 b0bf 497c 463f 1b69 a2bf 4420 813f
00000030: e648 173f b981 8e3f a461 c0bd 8bc2 053f
00000040: aa8c 813d 4130 fabc aee3 4dc0 d208 d6bf
00000050: f0ac aebe 309d 44bf 77ee b73e 550e 1d40
00000060: b3f4 e7bd 7cfa 1ebf c2b5 c8bf 982a dabf
00000070: e144 47bf 9a07 263f d2a2 9abf 6b53 38c0
00000080: 0278 09c0 3bea 103f 844f a13f 7bca 103d
00000090: 5f94 1540 bc8d 873e 93af 1abf df5c 3cbf
000000a0: 70f8 973f 8e93 89bf 1971 efc0 72ad 883e
000000b0: 7052 e6be 9ccc c63f 8071 c5bf 2eee e13d
000000c0: a79f d33e e12a f93d 1d16 1ebf a183 2cbf
000000d0: 99a6 443f 29ef 8b3f 184a af3e 6ade 343e
000000e0: 35e4 8fbe 5682 a83f c2c2 b1be f3d9 26be
000000f0: 0a46 b6bf 46dc 2cc0 0575 60be d159 743e
00000100: 0d9c 0ec0 23e9 b6bf d5ab ccbf 6478 7dc0
00000110: a740 2ebe c801 2c3f 639a 473f e60c 58c0
00000120: b368 f03e f81f 333d 3fda 91c0 559d 363e
00000130: e5e4 233b 5bc5 dfbe b61e 92bf ee67 173f
00000140: 7138 15bf cfe3 a9bf 93a7 a23c d8cb f9bf
00000150: bec4 0b40 8061 aabf f528 a5be bc10 ad3e
00000160: 34e5 8a3e 20fb 57c0 03c2 693c a089 33bf
00000170: adc2 5e3f b4b0 453e 9081 893e dc60 d63d
00000180: 5e34 6d3f 93f4 07be 1fed febf 4628 fabf
00000190: e882 24bf 6ed3 cbbe fd32 14bf a19d 083f
000001a0: 439e 6a3f 47b5 49bf c2d8 8d3e ee84 713f
000001b0: 2d25 073d 3feb b3bf d603 3abe 2c32 81bf
000001c0: ddbc 7c3f c95f 0240 fdb7 823f 8610 b33d
000001d0: 4ae3 aac0 142b eebe d51d 953f 4338 85bf
000001e0: ec43 713f b6ba 90c0 6675 ae3d adde 41bf
000001f0: 3954 143e 0f3c 95c0 04ba 963e f31e 07c0
00000200: fafc b93e dda3 933e f278 76be dcd9 053f
00000210: a1da 03bf 1114 a43e 68c5 553e 06bc 91bd
00000220: 4128 cbbe 041d 1e3f 0de1 b33e 4a0f ddbf
00000230: 99e7 8ac0 e163 47bf d5c6 edbf 2ea5 6cbf
00000240: 62e7 8f3d 4c30 ecbe dd4b 8e3f cc2a 8ebf
00000250: 3932 253f 1982 a73f e44f d93f eed1 923f
00000260: 81e3 acbf 1992 823e b006 4ebd dc73 87bf
00000270: be43 33bf eb27 3d3f 9acb a4bc 94c9 13bf
00000280: b627 b1c0 2ab2 3a3f aaa3 543e 6817 c1be
00000290: 0556 993e 0e79 913f e6a0 963f e45f 733f
000002a0: 8f92 673f 3ac0 bf3f 6deb 3dbf b650 943f
000002b0: ccad 9b3f cf04 553f 14f6 293f 632c acbf
000002c0: 5e2c 85bf deb7 c43e cef0 a4bf a4fb f7bf
000002d0: 9404 73be f81b 813e 45bd fabe 3dea bebf
000002e0: c409 1c3e 4bfa 90c0 1e0d c83e b757 1d3e
000002f0: 07c8 e83d 32bc b73d 8e0e c7bd e7ca 9e3f
00000300: 196e 11c0 7bdc 53bf e89b ee3e 267c 6a3f
00000310: 81a0 5d3f 9053 893f 528b cc3d 7f74 01bf
00000320: bb54 babe 364e 953f 1fb9 323c e79c 963e
00000330: 3fbf 87bf 681c 31be 978f 2cbe 403f 623e
00000340: 4b7f a7bf a735 8c3f cd08 e2bd 5ca6 b53e
00000350: bbb8 e3bf d4b8 373f 2137 63be ee00 403e
00000360: 98ec 29bf 435b 843f d3c0 c13d cf92 493f
00000370: 2ca2 f7be b112 c9be 9d47 553e ed8e ecbc
00000380: 21d6 45bf 90e5 2c3f 2324 183f d4d6 7fbf
00000390: 8146 03bf 47e3 edbf 2a17 093f 3c34 92be
000003a0: dbfe 81bf bb4b 0a40 9a00 bfbe 465b bd3e
000003b0: 992d 0bbf d7ee 2ac0 212b c9bc 84f3 1abf
000003c0: 9dec d2be 8798 2cbf a32e f53d d54e 6bbf
000003d0: 4abc e4be 1746 1b3f c41b e0be bc41 09bb
000003e0: fb80 8a3f 2d70 5b3f 3e2e 75be 532d 043f
000003f0: 12cd 07c0 18a8 febf d022 06bf 1bcc 2a3f
0.72296643 -1.0551976 -0.91996133 0.52071637 -0.121223174 1.5473368 -0.9837511 0.09680246
-1.3772136 0.77533394 -1.2688326 1.0087972 0.5909561 1.1133338 -0.093936235 0.52249974
0.06325658 -0.030540587 -3.2170215 -1.6721442 -0.34116316 -0.7680235 0.35924122 2.4539998
-0.113259695 -0.6210096 -1.5680468 -1.7044249 -0.77839476 0.6485535 -1.2080939 -2.8800914
-2.1479497 0.5660741 1.2602391 0.03534935 2.3371809 0.26475322 -0.60424155 -0.7357921
1.1872692 -1.0748155 -7.482556 0.26694828 -0.4498477 1.5531192 -1.5425262 0.11031757
0.41332743 0.121663816 -0.6175249 -0.6738835 0.7681671 1.0932361 0.34236217 0.17662969
-0.28103796 1.3164775 -0.347189 -0.16294079 -1.4240124 -2.7009444 -0.2191964 0.23862387
-2.2282746 -1.4289898 -1.5989939 -3.960473 -0.1701685 0.6719022 0.7796995 -3.3757873
0.4695488 0.04373166 -4.5578914 0.17833455 0.0025008258 -0.43705258 -1.1415622 0.5914296
-0.5828925 -1.3272647 0.019855296 -1.9515333 2.1838832 -1.3311005 -0.3225781 0.3380183
0.27127993 -3.3747025 0.014267447 -0.70131874 0.870158 0.19305688 0.2685666 0.10467693
0.9265803 -0.13276891 -1.9916114 -1.954354 -0.6426225 -0.39809746 -0.578903 0.5336552
0.9164774 -0.7879223 0.27704436 0.9434346 0.032994438 -1.4056166 -0.18165526 -1.0093436
0.9872568 2.0370963 1.0212399 0.08743386 -5.3402452 -0.4651724 1.1649729 -1.0407795
0.94244266 -4.522792 0.08518486 -0.757304 0.14485253 -4.6635814 0.29438794 -2.111264
0.36325818 0.28835955 -0.24069574 0.5228555 -0.51505476 0.3204656 0.20876086 -0.07115941
-0.3967915 0.61763024 0.35132638 -1.7270291 -4.340771 -0.7788678 -1.8576304 -0.92439544
0.07026555 -0.46130598 1.1116902 -1.110681 0.6452976 1.3086578 1.6977506 1.1470315
-1.3506929 0.2550209 -0.050299346 -1.0582232 -0.7002524 0.73889035 -0.020116616 -0.5772946
-5.5360975 0.72928107 0.20765558 -0.3771317 0.2994844 1.1365068 1.1767852 0.9506819
0.90458006 1.4980538 -0.74187356 1.1587131 1.2162414 0.8321046 0.6639111 -1.3451046
-1.0404165 0.3842153 -1.2885988 -1.937367 -0.23732215 0.2521665 -0.48972526 -1.4915234
0.152381 -4.5305533 0.39072508 0.15365492 0.11366277 0.08971442 -0.09719573 1.2405671
-2.2723448 -0.827583 0.46603322 0.91595685 0.86573035 1.0728626 0.09987511 -0.50568384
-0.3639277 1.1664493 0.010908394 0.29416582 -1.0605239 -0.17295992 -0.1685165 0.2209444
-1.3085722 1.0953873 -0.11036835 0.35478485 -1.779075 0.717664 -0.22188999 0.18750355
-0.6637664 1.0340351 0.094606064 0.7873964 -0.48365915 -0.39272073 0.208281 -0.028876746
-0.7727986 0.67537785 0.5943014 -0.99937177 -0.51279455 -1.8584985 0.5355097 -0.28555477
-1.0155901 2.1608722 -0.37305146 0.369837 -0.5436645 -2.6708276 -0.024556698 -0.60527825
-0.41196147 -0.6742024 0.11971786 -0.91917163 -0.44674903 0.60653824 -0.43771183 -0.0020943722
1.0820612 0.8571804 -0.23943421 0.5163166 -2.1218915 -1.9895048 -0.5239687 0.6671769

fc.1.bias f4 [128]
00000000: 896e b03f c03e df3f 5868 da40 674e 93c0
00000010: 1897 2cc0 1325 c03c 6a01 793f 90fd 2e3f
00000020: 1719 8dbf f5ed a3bf cc20 9bbe 850f a23f
00000030: 8ded b1be 3d61 3ebf b556 afc0 42a5 6d40
00000040: 15aa 4e40 0cff 5440 66c0 0fc0 7cfa 5ac0
00000050: d606 3340 7070 f0bf c218 1fbc e642 cbbd
00000060: 0604 b5bf 3323 26c0 e349 0040 c1bb 8a3f
00000070: fb14 25bd b105 913f d547 da3f d640 13c0
00000080: 2daf 4fbd 8bd6 5340 e4bd f4bc 7d0b 30be
00000090: f468 9abf 56a3 1940 50d9 42bf 543b 29c0
000000a0: 57d5 6a40 3cd6 6e3f 93a9 2cbd 11f3 77c0
000000b0: b29b 503f 82f5 fbbf ebc7 c740 2481 8c40
000000c0: 6e86 86bf 87f1 a53b 636b c0bc 16a4 793c
000000d0: fcdc 18c0 ced4 8b3f fe30 98bd 8057 1e3e
000000e0: bbd0 fa40 664b 7fc0 5958 be3e eb12 a040
000000f0: 1a13 0d3f 1862 46c0 32ed c9c0 0f33 2dc0
00000100: d030 04bf e007 ee3a 0c68 973b d085 ccbd
00000110: 0af5 02bf 97a4 dd40 d93c 85c0 5761 63c0
00000120: fd70 0d40 bdf8 1bbc 1662 c63f 7e8c afc0
00000130: 374c cebf 0959 4dbd d4ae 9140 7fc4 31bf
00000140: 907d 2ebf 6682 6b3f b625 6140 8429 4bc0
00000150: 5e64 cbbd 013e f13f 55b2 e4bf 0070 be3c
00000160: 248b 6640 a8cd 3840 ffc2 8640 a3fd a8c0
00000170: 832d 6c3e 11eb c8bc 1891 95bd bd83 4b40
00000180: b9a7 8540 2da5 cb40 b15a 463f 3f00 f6c0
00000190: 5314 aebf f478 1fc0 44d5 2bc0 7a2e 51bf
000001a0: 2eb3 e7bc 3207 13c0 1d19 9bbf 36a9 543f
000001b0: b33e b53f 5c30 8a40 7160 1b40 f566 943f
000001c0: f748 91bc 5496 6040 abf2 5fc0 d79a 8140
000001d0: 8547 90c0 e3a3 8ac0 d994 5c40 5a1f 1b40
000001e0: 78fd 1cbd 322a 4f3f b8fe a1bd 6723 02c1
000001f0: 1225 443e 8e0e 37c0 59cd 953f 11ee 09c0
1.3783733 1.7441025 6.8252373 -4.6033206 -2.696722 0.023455178 0.9726778 0.68355656
-1.1023282 -1.2806994 -0.3029846 1.2660986 -0.3475155 -0.74367124 -5.4793344 3.7132115
3.229131 3.3280668 -2.246118 -3.4215384 2.7972922 -1.8784313 -0.009710493 -0.09924869
-1.4141853 -2.5958984 2.0045097 1.0838548 -0.04030321 1.1329862 1.7053171 -2.3008323
-0.05070417 3.3099697 -0.029875703 -0.17191882 -1.2063279 2.4005942 -0.7611284 -2.644246
3.6692712 0.93295646 -0.042153906 -3.8742106 0.8148757 -1.9684298 6.243154 4.390764
-1.0509775 0.0050641927 -0.023488706 0.015236875 -2.3884878 1.0924318 -0.074312195 0.15463066
7.83798 -3.988977 0.3717678 5.0023093 0.5510727 -3.0997372 -6.3102045 -2.7062414
-0.5163698 0.0018160306 0.0046205577 -0.0998646 -0.5115515 6.9263415 -4.1636777 -3.5528162
2.2100213 -0.009519753 1.5498683 -5.4859 -1.6117009 -0.05013374 4.5525913 -0.69440454
-0.68160343 0.9199585 3.5179267 -3.174409 -0.09931253 1.8847047 -1.7866923 0.023246765
3.6022425 2.8875523 4.211303 -5.2809615 0.23064236 -0.02452615 -0.07303065 3.1799157
4.176724 6.363913 0.77482134 -7.68753 -1.3599952 -2.4917574 -2.6848917 -0.8171154
-0.028283682 -2.2973142 -1.2117039 0.83070695 1.4159759 4.3184032 2.4277613 1.159392
-0.017734988 3.5091753 -3.4991863 4.0501513 -4.5087304 -4.3325057 3.446585 2.4237885
-0.038327664 0.8092376 -0.07909912 -8.133643 0.19154766 -2.8602633 1.1703292 -2.1551554

fc.2.weight f4 [64, 128]
00000000: 11e5 6a3f 47e4 b7bf 744c 7cbf 31c7 84bf
00000010: 0716 f3be 69c9 bd3b 4341 89bf d66c 29c0
00000020: 9edf b13e 2805 89bd d679 043e 4320 53bf
00000030: 17d9 313e e5df 673e 8de1 08c0 1939 5c3f
00000040: 733a 9abe 0edd 49be 667a 2b3d 9d21 14c0
00000050: 4d96 933f 370d aebf ecdb 8b3c ffb4 19bd
00000060: fc36 8e3d 0f89 49bf 7627 9c3f 3205 313f
00000070: 8b27 b93d 9caa da3e 0d0a c43e e81f cb3f
00000080: b9ed 4e3c 8caa 02be 7e97 0fbc 2160 3b3e
00000090: 1323 1ec0 80b9 8b3f d11a b8bd 3c02 52bf
000000a0: 3507 9abf ad07 42bf ec06 123b a392 963e
000000b0: c8da 51bf a878 f5be 4b0a 8a3f b9b3 c33e
000000c0: e75a 753f 1d06 29bd ca48 12ba 1605 c93c
000000d0: 5f66 1a3e f660 2bbf f65d 2dbd 8f49 5f3e
000000e0: 03de 723e 3200 1ebf 1bda 6ebe c8b4 313f
000000f0: 4dab 463e dd34 9bbe 00fe b53e 175c 83be
00000100: 2231 233f d674 86bd 345d 3cbd ad9b c6bc
00000110: a1c3 dd3d 7454 3ac0 2530 88be 4c1e 993d
00000120: 5466 34bf 78c9 b1bc 700d fa3d 36f9 c93e
00000130: 070c 3abf b523 013b 9583 e33e 1bd2 a8bf
00000140: 0826 c43e 7ee9 31c0 af26 a93d 3c1e aa3e
00000150: dae6 cfbc 2fdc 413f 8fe0 813f 6e54 33be
00000160: 9a26 96bf bf4e 4bbd a4f5 10bf 7b00 57be
00000170: 9226 b6bf 4140 a7bd 014d f5bc 47de 263f
00000180: dfa5 47be 4cbd d6bd 3aec ddbe 774e a6c0
00000190: ed3d a5be 9fbe 03c1 a890 96be 811e 313f
000001a0: 4c99 cd3c aba2 40bf f2e7 83bf 77b9 aec0
000001b0: 7989 d1bf 3bd5 8ebf 6282 c2bd 763d 54bf
000001c0: e3b7 9d3d 8fe5 183f 5a49 063f a241 46c0
000001d0: cc27 24be bb90 f1bf 5127 0e3f 0212 13bf
000001e0: 5456 e73c 036c 823e f6e2 7cbd d63d ec3e
000001f0: 4335 d4bf 24e7 863d 2ca2 3fbf a9ca d3bf
00000200: add1 333d b7ab 8cbd 96a6 96bc efa2 57bf
00000210: aaf3 f0bc 54a1 5ebc 3657 74bd a8b6 203d
00000220: 6d78 913d e3dc 21bd 8214 21be 439d 85bd
00000230: 643f 5e3e 8acc 3f3d 593d 92be dade 8c3c
00000240: 0a7d c93d dab6 363d 90f2 973c 4ad8 3dba
00000250: b6f1 5dbd cb45 f5bd 64fb 11bd c3c9 d13c
00000260: e53c d83d 3b05 afbe 93b8 fe3c cf77 ec3c
00000270: 4547 b7bd add9 a3bb 63fb 07bc f08e 0c3e
00000280: f5c2 cb3b bacb ff3c 3aec 16bd 4b06 2b3d
00000290: 1ca2 1b3c 5e6b 5d3d 4374 65bc 9bbc 4bbc
000002a0: dcda c3bc defc f3bd 82de 303d dd99 f93a
000002b0: f486 c53c 61d5 4ebc 63c1 c03e e4e6 433d
000002c0: 15e5 db3d 34d8 f9bc a183 8a3d e89f 9bbd
000002d0: 57eb e13c c8b3 003d fc11 9a3d 00c6 ea3a
000002e0: e8ad 8a3d 352f 643d ab55 9d3d 9cf3 6b3e
000002f0: fc5d 083d e094 943b 1051 82bd b94f 77bc
00000300: 9f86 cabc 03bd 7fbd 3b24 823d 09fb c0bd
00000310: 89b8 6cbc 3795 5b3d a3d8 a53c f046 a6be
00000320: 080b bc3d 4243 1eba 0650 52bd 6dfa 9bbf
00000330: 4bd8 c2bd 1456 343d ff01 363d a49b d53d
00000340: 732b fabd dac0 c13d 6ed5 4dbd ac2f 55ba
00000350: b1e0 9ebd 8519 023d 83ae 153d 4c6a 993c
00000360: 25f3 c23e 952a 873c d084 4cbd 470b f2be
00000370: f1cb 08be 30f5 833d 71d8 cb3c e1f0 083e
00000380: c7d1 12be 1354 8bbd 1afd 7c3d a6a7 203f
00000390: 6dd3 b4bc adc9 48bf 5cde bebc 9002 c2bb
000003a0: 986f 95bd 95a8 09bb 404a c33e 5d5e a63e
000003b0: ebf7 093b 87fd 493c f02a 893b 6ad4 843c
000003c0: ecd6 9bbd 4dd6 2bbd 6325 adbd 62c1 773d
000003d0: 0331 cb3c 1ef9 953d 3024 ddbf 9d16 bdbd
000003e0: 0ac7 73bd 7ebf 83bd aeed 3c3b a035 633e
000003f0: 287b 16bc e80a 763c 0735 a13e 9ca3 2a3e
0.9175578 -1.436654 -0.9855416 -1.0373288 -0.47477743 0.005791832 -1.0723041 -2.6472678
0.3474092 -0.066904366 0.12937102 -0.824711 0.1736797 0.22644003 -2.1387665 0.86024624
-0.30122718 -0.19713232 0.041864775 -2.3145516 1.1530243 -1.3597783 0.01707264 -0.037526127
0.06944081 -0.7872476 1.2199543 0.6914855 0.09040745 0.4270829 0.38288918 1.5869112
0.01262992 -0.12760371 -0.008764146 0.18298389 -2.4708908 1.0915985 -0.0898949 -0.8203466
-1.203345 -0.7579296 0.0022281958 0.2940875 -0.8197446 -0.47943616 1.0784391 0.38223055
0.9584183 -0.041265596 -0.00055803044 0.024538558 0.15078114 -0.66944826 -0.042325936 0.21805404
0.23717503 -0.6171905 -0.23325388 0.69416475 0.19401284 -0.3031377 0.3554535 -0.25656196
0.63746846 -0.065652534 -0.045987323 -0.024244154 0.10828329 -2.9114046 -0.2659923 0.07476482
-0.7046864 -0.021702513 0.12209594 0.39447945 -0.726746 0.001970512 0.44436327 -1.3189119
0.38310266 -2.7798762 0.082593314 0.33226192 -0.025378633 0.757266 1.0146655 -0.17512676
-1.173053 -0.049635645 -0.5662482 -0.20996277 -1.4230521 -0.08166552 -0.029943945 0.6518292
-0.19496869 -0.10485324 -0.4334429 -5.197078 -0.32273808 -8.234038 -0.2940724 0.6918717
0.025097512 -0.7524821 -1.0305159 -5.4601398 -1.6370078 -1.1158823 -0.09497525 -0.8290628
0.07701089 0.5972528 0.52455676 -3.097756 -0.16030806 -1.8872293 0.5552874 -0.5744935
0.028239407 0.2547303 -0.061739884 0.46140927 -1.6578754 0.06587055 -0.7485683 -1.6546222
0.043901134 -0.068686895 -0.018389981 -0.8423299 -0.029413063 -0.013588268 -0.059653483 0.039236695
0.071030475 -0.039517295 -0.1573048 -0.06524136 0.21703869 0.046825923 -0.2856243 0.017196108
0.098383024 0.044607975 0.01854828 -0.00072420074 -0.05418559 -0.119762026 -0.035640135 0.025608903
0.1055849 -0.34183678 0.031093871 0.028865723 -0.089491405 -0.005000314 -0.008299681 0.13726401
0.006218309 0.031225074 -0.036846377 0.04175405 0.009499099 0.05405747 -0.01400477 -0.012435104
-0.023908071 -0.11913465 0.04318095 0.0019043047 0.024112202 -0.012624116 0.37647542 0.047827616
0.10737053 -0.030498601 0.067633875 -0.07598859 0.02757804 0.031421453 0.075229615 0.0017911792
0.06771451 0.055709083 0.076823555 0.23042148 0.033292755 0.004534349 -0.06363118 -0.015094691
-0.024722395 -0.062436115 0.06354567 -0.09422881 -0.0144482935 0.0536091 0.020244902 -0.32475996
0.091817915 -0.0006037244 -0.051345848 -1.2185799 -0.09513911 0.044027403 0.044435497 0.10430077
-0.122153185 0.09460612 -0.05025237 -0.0008132409 -0.077577 0.03176262 0.03654338 0.018727444
0.3807613 0.016499797 -0.049931347 -0.4727423 -0.13359047 0.0644325 0.02488348 0.13373138
-0.14337836 -0.06803145 0.061764814 0.6275581 -0.022073472 -0.7843273 -0.023299389 -0.0059207156
-0.072966754 -0.0021005024 0.38142586 0.32493868 0.0021052312 0.012328512 0.0041860268 0.016214568
-0.076093525 -0.04195242 -0.084543966 0.06048716 0.024803644 0.07322906 -1.7276669 -0.09232829
-0.05951599 -0.064330086 0.0028828192 0.22188425 -0.009184636 0.015017249 0.3148577 0.16663975

fc.2.bias f4 [64]
00000000: 84de 68bf 41a0 e540 9f0e df40 e719 08c0
00000010: 43e9 02bf c1c7 3bc1 342a 47be 6b47 15c1
00000020: 2e85 86c0 b4da a4c1 155c 1641 0322 c7bf
00000030: 6d68 0fbe c048 6bc0 03b5 e43f c427 2dc1
00000040: 1d6a 24be fe47 3741 2e5a 7ec1 0701 1741
00000050: a655 80c0 dbb7 8ec0 cde1 28bf 16bf 8ac1
00000060: 7944 f73f 2a97 98c0 50e6 f63f 3f5a 4b41
00000070: a041 1cc0 79ca 14be e884 ac3f b982 8740
00000080: e7d8 0040 20c1 13bf 7e69 453f b236 c9c0
00000090: 4966 07c0 f2cb a0c1 574f 0e41 3a29 ebbe
000000a0: b476 5cc1 91d3 5c41 b29b f140 d736 0541
000000b0: 3361 93bf b7e7 3fc1 a6c0 6ac0 6d82 f83f
000000c0: a5d1 24c1 7958 e6c0 8940 d83f 48e4 e83e
000000d0: 2279 9940 602d 7440 914c 6e41 0057 1d40
000000e0: 6d0d 0fc0 2d02 2340 7252 4f40 9f3d fabf
000000f0: 4f36 1941 c7cb ffbf dfbc e4c0 79dc c6bf
-0.9096453 7.1758122 6.970535 -2.126581 -0.5113718 -11.736268 -0.19449693 -9.329936
-4.2037573 -20.606789 9.397481 -1.5557255 -0.14004679 -3.6763153 1.786774 -10.822208
-0.16056104 11.455076 -15.897017 9.437751 -4.010455 -4.4599433 -0.65969545 -17.343304
1.9317771 -4.7684526 1.9289036 12.709533 -2.4415054 -0.14530362 1.347806 4.2347074
2.0132387 -0.5771656 0.77114093 -6.2879267 -2.115618 -20.099583 8.89437 -0.4592989
-13.77898 13.801652 7.550256 8.325889 -1.1514038 -11.994071 -3.6680083 1.9414803
-10.301183 -7.1983 1.6894695 0.45486665 4.7960367 3.8152695 14.893693 2.458435
-2.2351944 2.5470078 3.239407 -1.9550055 9.575759 -1.9984063 -7.1480556 -1.5536033

fc.3.weight f4 [32, 64]
00000000: 7ea8 f4bd dc86 72be 9f42 d8be b8e2 d8bc
00000010: 653b e3bc 1ab6 253d 884e 403d 41e7 14be
00000020: dac9 6dbe e0d4 8b3d 75e6 0abe eee2 3ebd
00000030: 73bb 8e3d a8ed e8bd 89fa b1be 7ff6 97bd
00000040: 18b3 ccbd dba0 cebe 860b 03be 00dc cfbd
00000050: 5272 f1bd 3fbf 2bbe 5210 ffbd 6884 2bbe
00000060: 41db b2bd b757 18be 10a2 3abe 07c9 9dbe
00000070: 3a32 a3be 2481 e8bd bcb7 9fbc 0d93 32be
00000080: df24 153d a5a8 1fbe a9ba 39be 1e3e 8dbd
00000090: 0396 4dbd 4ef2 55be 6500 78be c447 7f3d
000000a0: 9304 2f3d bd5d a9be f725 4bbe f47e 24bf
000000b0: 30c9 32be 36b0 60bd 6c94 55bd dd66 443c
000000c0: 90ee cabd 634c 093e bf34 68be 45d9 4bbe
000000d0: d533 d1be 6870 e1bd 580d 01be d085 c63a
000000e0: 9523 2abe 4e7b b73d 1231 73bd 6866 463d
000000f0: 2603 bebe dd3b b5be 06b0 28bd e3e3 43be
00000100: c413 b6bf 122e 9ebe 26e8 263e 8fa6 7abd
00000110: 2df9 033d 92ab 1abf 4102 143a 5bb3 aebb
00000120: 5204 b23d bea5 32be 71a6 763e b1cc 36c0
00000130: 0d41 0fc0 1420 7cbd 32af cdbe 9390 a0be
00000140: 6d39 fc3b cc4d 793d e5c5 28bf 9038 8f3e
00000150: 8243 59bd 6a0b c1bf c65a 1dbf d31a fdbe
00000160: 6652 d0bd 9031 583e 92ee 903d c67b 223e
00000170: 52dc 98be 86b3 103e 5789 263e 1409 e5bd
00000180: 6314 9abd 60e0 93be 812d 00c0 d659 713d
00000190: e203 0c3e 97c7 f8bd 57ea d1bd dee3 993e
000001a0: 9e14 c03e c7a1 60bd 4798 43bd c0ea af3e
000001b0: ff13 883e 8732 36be 5a70 693d c2fa febe
000001c0: ed26 89be 9d84 07c0 c194 cabd 8b30 e2bc
000001d0: 9481 85be 9133 2fbf acfc ef3d 3ba0 4ebe
000001e0: 8069 70bd 6840 4cbe 48fa 8fbe ab53 42bf
000001f0: 6a61 29be 9e98 c3bf 26ff 9bbd f645 53be
00000200: 1a2a b53c 5e08 803e 13f6 973c d1c2 b0bf
00000210: 5118 0ebd 8428 a3bf 90f6 b53d 3d74 cbbb
00000220: 5346 b7bc 0cb5 68bf 5810 4cbf dc19 9abd
00000230: 432e c3bf b2b1 4fbf e61b 2cbd 7498 dc3c
00000240: 2e5c 41be b7f0 babe cda4 0abd 7d61 88bf
00000250: c2f1 4ac0 8304 78bc a697 5ebc 9c2b 6ebe
00000260: b2e0 c1bd 12cc 08bd f783 59bd fdfc c0be
00000270: e989 913c ad4a e2bc f68a ddbe 8d5c ccbe
00000280: db19 bdbc df16 86bd 24f1 debf cd95 5c3c
00000290: 7576 fe3c bc2f 8c3e 3200 9dbe 57ce 9f3c
000002a0: 455a d8bf 7b29 84be d6e8 d8bf 6581 3a3d
000002b0: 17ba 16be 2c20 66be 41b9 953c 7412 bebd
000002c0: 7c23 f03c 21c0 5bbe 85d5 f0bd e769 d6bc
000002d0: b8b3 903d 4d76 97bc 1079 543d 961b 23bd
000002e0: 8310 efbd 2565 abbe 64b9 8cbd a28e df3c
000002f0: 93b7 03bf 0bc1 b83d b7ad 68bf 9d08 03bd
00000300: ddd5 1a3e defd 3ebe d30b 4abd 477b 383f
00000310: 8bf4 d8bd 6da2 73c0 9b25 0c3d 16c7 823e
00000320: c2aa 0f3e d245 be3d c6cd 90be 83cc 41c0
00000330: 0144 3ebf 8071 72be 205d 463e 1c0c 1cbe
00000340: 8414 8e3d f949 96bd 0998 87be 70b0 033e
00000350: 22c4 773d 5923 29be bb1a a8be c562 c3bd
00000360: 7625 1a3e e1c1 fe3d 4e9a 2dba 49f9 873e
00000370: 03cd d3bc 61a4 4abc dfc0 b6be 3e26 f6bd
00000380: 2b82 883e 81db d53d 82ec 84bd c072 563e
00000390: ea7e f73e 275d 3ebf d387 443e 7160 7cbf
000003a0: b0e1 04be f9ff a0be 76d3 df3d f441 b3bd
000003b0: 2107 3b3d 714c a9be ac01 b93d 2498 9ebe
000003c0: 12a9 edbd 04c5 69bf fb71 a1be 156a 60be
000003d0: fe21 91bf b6bb 82ba 0eb0 2bc0 71cd 38be
000003e0: f5e8 3bbd eba7 61be bc6b 3cbe 38c6 a8c0
000003f0: 78c7 30bd 1ac9 32c0 dd18 86c0 3d33 6abe
-0.119462 -0.23684257 -0.42238328 -0.026475295 -0.027738282 0.04045687 0.046949893 -0.14541341
-0.23221532 0.06827712 -0.13564475 -0.046603136 0.06969347 -0.11373454 -0.34761456 -0.07420062
-0.09995097 -0.40357098 -0.12797365 -0.101493835 -0.11789383 -0.16772173 -0.12454285 -0.16749728
-0.087332256 -0.1487721 -0.18225884 -0.30817434 -0.31874257 -0.113527566 -0.019496791 -0.17438908
0.036412116 -0.15591677 -0.18137611 -0.068966135 -0.05019189 -0.20893213 -0.242189 0.0623243
0.04272897 -0.3307933 -0.19838701 -0.64256215 -0.1745956 -0.054855548 -0.0521435 0.011987415
-0.099087834 0.13408045 -0.22676371 -0.199071 -0.40859857 -0.11007768 -0.12602746 0.001514608
-0.16615136 0.089590654 -0.05937297 0.048437506 -0.37111777 -0.35397235 -0.041183494 -0.191299
-1.4224782 -0.30894524 0.16299495 -0.061194 0.032220054 -0.60418046 0.0005646088 -0.0053314394
0.0869223 -0.17446038 0.2408693 -2.8562434 -2.2383454 -0.06155403 -0.40172726 -0.313603
0.0076972754 0.06086521 -0.65926963 0.2797284 -0.053042896 -1.5081608 -0.61466634 -0.49434528
-0.10171966 0.21112657 0.07076754 0.15867528 -0.2985559 0.14130983 0.16263328 -0.11183372
-0.0752342 -0.28882122 -2.0027773 0.058923565 0.13673356 -0.12147444 -0.10249775 0.3005666
0.3751573 -0.054841783 -0.047752645 0.34358788 0.26577756 -0.17792712 0.056991912 -0.49800688
-0.2678751 -2.117469 -0.09891654 -0.027611038 -0.26075423 -0.6843806 0.11718115 -0.2017831
-0.058694363 -0.19946444 -0.28120637 -0.7590892 -0.16541067 -1.528095 -0.07617025 -0.20632157
0.022114802 0.25006384 0.018549955 -1.3809453 -0.03469116 -1.2746739 0.08884919 -0.006208925
-0.0223724 -0.90901256 -0.7971244 -0.075244635 -1.5248493 -0.81130517 -0.042018794 0.026928164
-0.1888282 -0.36511776 -0.033848573 -1.0654751 -3.1710057 -0.015137794 -0.0135859605 -0.23258823
-0.09466685 -0.03339774 -0.053104367 -0.37693015 0.017765956 -0.027623499 -0.4327008 -0.3991436
-0.023083618 -0.06547331 -1.741734 0.01346345 0.031062344 0.27380168 -0.30664212 0.01950757
-1.6902548 -0.25812897 -1.6946056 0.045533556 -0.14719425 -0.2247321 0.018276813 -0.092808634
0.029313795 -0.2146001 -0.117594756 -0.026173545 0.07065529 -0.018489027 0.051873267 -0.03982123
-0.11673071 -0.33475605 -0.06871298 0.027289692 -0.5145199 0.09021195 -0.9089007 -0.031990636
0.15120645 -0.1865153 -0.049327683 0.72063106 -0.10593518 -3.8067887 0.03421555 0.25542516
0.14029983 0.09290661 -0.28281993 -3.0281074 -0.74322516 -0.2367611 0.19371462 -0.15238994
0.06937507 -0.07338328 -0.2648318 0.12860274 0.06048978 -0.1651739 -0.32832894 -0.09540323
0.15053353 0.12439323 -0.00066224195 0.26557377 -0.025854593 -0.012368293 -0.35694024 -0.12019013
0.2666181 0.10442258 -0.06490423 0.20942211 0.48339015 -0.7436089 0.19192438 -0.9858466
-0.12976718 -0.31445292 0.10929005 -0.08752814 0.045661096 -0.33066133 0.09033522 -0.3097545
-0.11604513 -0.91316247 -0.31532273 -0.21915467 -1.1338499 -0.0009974155 -2.6826205 -0.1804712
-0.045876462 -0.22036712 -0.18400472 -5.2741966 -0.04315898 -2.7935243 -4.190535 -0.22871108

fc.3.bias f4 [32]
00000000: 3c17 33bf 0716 e6bf 1992 59c0 ddcb 2b40
00000010: 6c07 983f 741b 6440 c91a 33c0 4f5b a740
00000020: 3991 13c0 c112 1fc1 27d4 36be 503b 7740
00000030: 6c3d 9040 9fdc c23f eb2c 2bc0 c36b ffbf
00000040: 6b26 93c0 308d 4d40 e56a 723f 6ed0 1bc0
00000050: 91dc a5c0 e071 4240 baf2 9bc0 7a72 aabe
00000060: 6977 5b3f 29e7 13bf 5fbd 3ec0 33e3 5e40
00000070: 91d9 a0c0 4a85 93be aa6e a83e e31a 64bf
-0.6995733 -1.7975472 -3.399542 2.6843178 1.1877265 3.5641756 -2.7985098 5.229896
-2.3057387 -9.942079 -0.17854367 3.8629951 4.507498 1.5223578 -2.6746166 -1.9954761
-4.5984397 3.2117424 0.9469436 -2.4345965 -5.1831746 3.0382004 -4.8733797 -0.33290464
0.8572908 -0.577746 -2.9803083 3.4826171 -5.0265584 -0.2881263 0.3289693 -0.89103526

fc.4.weight f4 [16, 32]
00000000: 82e0 0ebe 74b0 45bc 4d2a 43b9 f5fc adb9
00000010: d483 a2bd ea60 31bd b3ed 29be 7b16 61bc
00000020: 795f c038 6b00 c2bb 4a66 c9bc e877 a839
00000030: ac18 fbbb 75ae 5739 f0a7 4abd 9d4f ccbb
00000040: 098f 97bd 8e25 82be aed3 b4bc f10e ceb9
00000050: c828 8cbd e040 19b9 3a43 d6ba 239a 2e3b
00000060: 430b 2bbb 5a14 57bd f9df fdbc c9ca e4bc
00000070: b3e4 09bd 56fc 6d3d 5d92 1abc 9d1f 18be
00000080: 828a 0c3d 9635 38be e21f 64c0 0707 3ebf
00000090: f325 4bbf c4ac 36bf ea2e 99bd c54c aebf
000000a0: d4fb e03d 91a2 8fc0 533b 013e 4fe0 fcbe
000000b0: 2c6b 8dc0 207a 81bc 89ac a73e d969 43bf
000000c0: afff d33b df18 dbbd 05c4 e8bd de23 76be
000000d0: 762e 07bf fe5e 4f3a dc94 c6bd e887 e2bd
000000e0: 17e8 0bbf 5cbb 54be e8e2 f1bf b024 dfbc
000000f0: 6fb6 2c3e a0bb 02bd f124 85bc 3f83 a0bd
00000100: 9be2 893d 6503 be3c 0c76 f3be fd89 93bd
00000110: da6d 84bb 2c57 223e e740 313d 25f2 683e
00000120: e9b5 c538 3015 3f3d febe c93c a70e 23bd
00000130: b6f3 823d cf74 e53d bb4a 14be 45a1 3a3c
00000140: ecb0 d43d 02f2 ad3b dfbd 2abc a388 57bd
00000150: 1a6a c73b d324 8dbb 83fe 383f 00bd 853d
00000160: 5ba4 0bbc 3ee8 33be 16f0 dfbc b097 60bc
00000170: ec11 f03c a778 4cbd f95b 54bc b280 e3be
00000180: a3f2 f9bc b7b4 97bd b113 9fbe 7759 e2be
00000190: a060 13bf a3f4 aebe 6fe8 9e3a 4a26 24c0
000001a0: 99e8 f83d ee30 273d 7cdb 9e3d 0e57 c6bd
000001b0: 3eaf eebe 4bea 72bb 3fbf fc3d 614d 3fbd
000001c0: 20b6 94bc 8b7e 98bc 1774 adbe fe37 67be
000001d0: 1456 36bc 0079 46bb 40cb 5fbd d791 563c
000001e0: f93b a1bd 962e 51bd eeac 2cbf 0c17 84bf
000001f0: 0f35 0abe 65eb 18be 694c 24bf aaa0 5bbf
00000200: ba33 adbd 8372 e3b9 74ab 2f3d 8c5f 2a39
00000210: 4cf4 6139 469d f638 c3bc 8c3b f165 1ebe
00000220: a75d 48be 0a67 963d d615 01be 3d3d 303e
00000230: b27e 0e3e de31 1fbd cf4a 943d 3d9d 1d3a
00000240: e9dd f1bc bf5a 9939 16d0 31bb f46c 43bd
00000250: 91ef c8bb 0f53 a4b9 308f fabf 4320 23bc
00000260: fbd3 eb39 99fc f0bd 2765 a9ba 187a 393a
00000270: 2bff f43b cd99 c73d b320 0fba ddff c4be
00000280: 2a12 2c3d 92ff 18bf b230 4d3d 3f2b 99bc
00000290: 6617 93bb 8cc8 67be 80cc 753d 853d 75bc
000002a0: f81d c93d 8c2a 5b3d a62c 62bd 7721 323e
000002b0: c10c ad3c 8c95 2c3d 3288 d83e 9329 51bd
000002c0: 40b1 3cbf 73f2 fa3b 599a 6dc0 8fab 79bd
000002d0: 4b29 e43c 325c 11bf 7dab c6c0 0dd5 edbd
000002e0: a3ea 153e 20cd 653c add1 cabd b863 68bd
000002f0: 4004 a83c 08f6 ab3d c550 c8bc 9d63 22be
00000300: 0365 923e 6c45 17c0 165c 943f 3dc7 00c0
00000310: 4a6d 2cbc 1ec3 d2bb efc5 7cbe 41b3 3dc0
00000320: 9e0c 95be 0ed7 5ebd ca73 bdbd bb9c fab9
00000330: fb0f 0cbc 0dbe 77bb 4e89 ae3b 38ef e5c0
00000340: ecf2 3dbd 7cfd 97bb 2a85 36c0 c183 ce3c
00000350: 9fab 48bf fb9b bbc1 bca0 a0bd 99c4 04be
00000360: 8aa0 a8c0 c2ca 02ba 546a dcbc 9c2c 4ebd
00000370: 3067 68be 4811 72bd a317 143e 0be2 733c
00000380: 82dd bcbc ae18 77bc a35e 44bd 5fd3 aabe
00000390: 479c b4bd 0330 ab38 5f7a 35bd 56bc afbd
000003a0: e791 c8bd cd86 8dbe 0e57 ad3d bb04 82bd
000003b0: a4fb d1bd 06a5 16be 096d b43b 8858 91bc
000003c0: 8db9 a8bd 8133 48be c3b3 46bf 85a9 42bd
000003d0: b897 38be 4faa bebd e2c1 16bd c2f7 b0bb
000003e0: 3ce5 8bbd 1233 b1bd 3bd5 96bd 9f39 afbe
000003f0: 9427 89bd f9d5 1c3d 9645 e0be 9427 dabd
-0.1395283 -0.0120659955 -0.00018612407 -0.000331856 -0.079353005 -0.043305315 -0.16594581 -0.01373827
9.1730566e-05 -0.00592046 -0.024584908 0.00032132794 -0.007662853 0.00020568988 -0.049476564 -0.0062350766
-0.07400329 -0.25419277 -0.022073593 -0.00039302514 -0.06843716 -0.00014615385 -0.0016346939 0.0026642166
-0.0026099242 -0.052509643 -0.030990588 -0.027928727 -0.03366537 0.058101974 -0.00943431 -0.1485581
0.03431178 -0.17989191 -3.564446 -0.7422947 -0.7935478 -0.7135737 -0.07479651 -1.3617178
0.109855324 -4.4885945 0.12620287 -0.49389884 -4.4193325 -0.015805304 0.3274882 -0.76333386
0.006469689 -0.10698103 -0.11365513 -0.2403712 -0.5280527 0.0007910578 -0.096963614 -0.11061078
-0.54651016 -0.20774597 -1.8897371 -0.027239174 0.16866468 -0.031917214 -0.016252967 -0.07837533
0.06732675 0.023194978 -0.47551 -0.072040536 -0.0040414156 0.15853566 0.043274786 0.22748621
9.4275754e-05 0.046651065 0.024627205 -0.039808895 0.063941404 0.1120392 -0.14481632 0.011390989
0.10385308 0.0053083906 -0.010421245 -0.05262054 0.0060856463 -0.0043073683 0.72263354 0.065301895
-0.008523072 -0.17569062 -0.027336162 -0.01370804 0.02930542 -0.04991975 -0.012961381 -0.44434124
-0.030511206 -0.074075155 -0.3106971 -0.4420888 -0.57569313 -0.34171018 0.0012123714 -2.564837
0.121537395 0.040818147 0.07756707 -0.09684573 -0.46618074 -0.003706592 0.12341165 -0.046704654
-0.01815325 -0.018615028 -0.33877632 -0.22579953 -0.011128921 -0.0030284524 -0.054637194 0.013096294
-0.07872767 -0.05106982 -0.6745137 -1.0319533 -0.13496803 -0.14933546 -0.6417909 -0.8579203
-0.08457132 -0.00043382132 0.04288812 0.00016248057 0.0002154868 0.000117594886 0.004294963 -0.15468575
-0.19566976 0.07343872 -0.12605986 0.1721086 0.13915518 -0.038865916 0.07240831 0.0006012505
-0.02952476 0.00029250045 -0.0027132086 -0.047711328 -0.006132074 -0.000313424 -1.9574947 -0.009956422
0.0004498063 -0.11766929 -0.0012923823 0.00070753833 0.0074767075 0.09746132 -0.00054598897 -0.38476458
0.04200951 -0.5976497 0.050095268 -0.01869738 -0.0044888733 -0.22635096 0.06000948 -0.014968281
0.09820169 0.053507373 -0.05521836 0.17395578 0.021124246 0.042134807 0.4229141 -0.05106504
-0.7370796 0.0076582967 -3.7125456 -0.060954627 0.027851721 -0.56781304 -6.2084336 -0.11612902
0.14640288 0.014025956 -0.09903274 -0.056735724 0.020509839 0.08396536 -0.024452576 -0.15858312
0.2859269 -2.3636122 1.1590602 -2.0121605 -0.010524103 -0.006431951 -0.2468488 -2.9640658
-0.2911119 -0.05440431 -0.09250601 -0.0004780049 -0.008548732 -0.0037802488 0.0053264266 -7.1854515
-0.046374246 -0.004638372 -2.8518777 0.02520931 -0.78386873 -23.451162 -0.07843158 -0.12965621
-5.269597 -0.000498932 -0.02690617 -0.05033551 -0.22695613 -0.059098512 0.14462142 0.014885436
-0.023054842 -0.015081568 -0.047941815 -0.33364388 -0.0881887 8.162858e-05 -0.044306155 -0.08580844
-0.09793454 -0.27641907 0.0846387 -0.063485585 -0.10253075 -0.14711389 0.005506162 -0.01774241
-0.08238516 -0.19550897 -0.77618045 -0.047524948 -0.18026626 -0.093098275 -0.036805995 -0.005400629
-0.06830832 -0.08652319 -0.07364889 -0.3422365 -0.06697002 0.038289998 -0.4380309 -0.1065208

fc.4.bias f4 [16]
00000000: a6b7 cb3f 5348 9f3a fd8f 28c1 9042 c6be
00000010: 043b ab3e 0eb5 ec3f 4216 eb3c 7fb5 a6be
00000020: 595d f33f fc61 df3f 3ce8 ad3e 8386 0dc1
00000030: 0c67 8db9 f78f 2c40 a856 3e3c eeaa babc
1.591542 0.0012152292 -10.535153 -0.38722658 0.33443463 1.8492754 0.028697137 -0.32560346
1.9012862 1.7451777 0.33966243 -8.84534 -0.00026970392 2.696287 0.01161734 -0.022786584

fc.5.weight f4 [3, 16]
00000000: 71f9 fab8 8989 0bba d508 db38 6e64 dd3a
00000010: 4e7d 43b9 d2fe 4bb9 d6b4 b03d 3086 843b
00000020: 623b 1c39 dde8 a3ba 8c92 2eb9 c7b2 e9bc
00000030: a29b 6039 a10a 7239 ec63 11b9 6852 81b8
00000040: d6c6 a93e c006 53bb 92f4 8cba cb18 b1ba
00000050: 1642 3eba 22fb 84bd f66f 793a cf4d 22bd
00000060: ae61 64bd bfe2 fb3d 71de ca3d 9241 663d
00000070: 63ab 053d d713 bbbd 7540 c5ba c08f 1c3d
00000080: 5caf f338 4d70 5d3d f635 b7bd 36cd efbc
00000090: 8b52 dbbd 9ab3 00ba f90e 2bb9 3dfe 4d3d
000000a0: 60f1 ce39 b34a 00b9 637f dfba 61c4 413c
000000b0: dd22 16ba 9024 ed37 77f3 b63d 24fd 813a
-0.00011967391 -0.00053229235 0.00010444379 0.0016890892 -0.00018643329 -0.00019454517 0.08628242 0.0040443167
0.00014899441 -0.0012505312 -0.00016648526 -0.02852763 0.00021420282 0.00023082878 -0.00013865501 -6.166549e-05
0.33159512 -0.0032200068 -0.001075404 -0.0013511417 -0.00072577724 -0.06493212 0.00095152797 -0.039624985
-0.055757217 0.12299108 0.099057086 0.056214876 0.03263415 -0.091346435 -0.0015049117 0.03822303
0.00011619806 0.054062176 -0.08945839 -0.029272657 -0.10709103 -0.0004909575 -0.00016313409 0.05029129
0.0003947122 -0.00012234859 -0.0017051514 0.011826606 -0.0005727241 2.8269627e-05 0.08933156 0.0009917361

fc.5.bias f4 [3]
00000000: 4e49 e038 b0c1 f13e 6d90 b83c
0.000106948064 0.47218084 0.022529805
