models/omni-road/model_epoch_220.pt (torch, 242162 bytes, 12 tensors)

fc.0.weight f4 [256, 60]
4.943953 -1.4035218 -2.4793584 -2.10233 0.44095814 -0.15528172 -0.35561177 1.1713976
-1.0040157 -0.46590376 -0.8249261 -0.8919582 2.7308965 1.919783 1.1017528 -4.4047465
-2.1869915 -0.07462503 0.581143 0.6208548 -0.72072655 -0.34597972 -0.32406205 -0.5416205
0.060502995 0.12232885 0.017237416 0.13904218 1.7345048 0.5436919 0.39389363 -0.005166567
-0.055351242 -0.13296752 -0.06000656 -0.10435833 -0.0047104075 0.091895826 -0.111880794 0.10683061
-0.025431588 0.17214486 0.19190435 0.0415248 -0.02183149 -0.03653742 -0.077506 -0.03308242
-0.08997239 -0.1442118 -0.07727466 0.019686393 0.035845533 -0.07422832 -0.06350791 -0.06325893
-0.0015715386 0.012698748 -0.016845856 0.010337273 2.1503751 2.2417974 0.35657933 -1.032619
-0.16512999 -0.1810863 -0.9124581 -1.6505978 -0.8180209 -0.8159858 1.324978 2.5583172
-0.4158163 3.5051005 -1.2221876 3.185476 -4.059571 1.1497558 0.20146057 -0.8350866
-0.9880026 0.32555568 -1.0531987 -0.16762756 0.06131519 0.054914005 -0.14811465 -0.50647587
0.11670622 0.003104769 0.06236947 -0.14284585 -0.12595917 -0.066972375 -0.0145017095 0.003771561
-0.0031106526 -0.06658033 -0.01686908 0.100829385 0.5982407 0.25519583 0.008591453 0.0022892517
0.062461317 0.1295786 -0.08929237 -0.29018742 0.07747521 0.08776826 0.1283434 0.071766265
0.11229137 -0.23430122 0.0564627 0.5276069 0.30203697 -0.07288745 -0.09088848 -0.026554203
-1.2343817 -6.1505055 0.095449895 0.31640333 0.4479301 0.29003567 0.64740187 0.7168534
-1.3449297 -0.93359184 1.5541798 -2.696374 -0.33743897 -0.13277419 0.17831214 -2.0165722
0.6535948 0.92207205 0.35744447 -0.6028029 0.5638266 -0.13370739 0.60668206 0.6967098
0.03057309 0.030435193 0.027616765 -0.007980826 0.04198529 -0.08696835 0.021514924 -0.070710786
-0.04210706 -0.0933262 -0.10829971 -0.004963748 0.0517597 0.013166905 -0.064359315 -0.016606662
-0.045602426 -0.043939818 -0.04844206 0.17899753 0.09150505 0.09189251 0.02527441 -0.0067372923
-0.06549878 -0.08413317 0.01560561 -0.06906737 0.03555616 0.094634496 -0.02527934 0.058323238
-0.06258183 0.05257344 0.0047276756 0.009765402 0.61906695 1.02265 2.232545 1.3655828
-1.1178226 0.20769334 1.0842662 1.0202754 1.5865043 0.17419167 -2.2557342 -0.061818983
-0.24342553 5.529127 3.9567702 -2.117954 -2.068326 -0.6136894 -0.52721864 0.09570903
0.084720045 1.1241962 0.15784767 0.6784906 -0.013160326 0.23239268 -0.45343968 -0.39657268
-0.30933812 -0.32229507 0.45485938 0.16716057 -0.2018815 -0.27509713 -0.03113053 0.14824343
-0.1641829 0.048032757 -0.21352407 1.0018027 -0.6381897 -0.71986747 -0.6537666 0.39569154
2.1275876 1.412071 1.1281549 1.1277426 -0.3274337 0.35925385 0.58424795 -0.11582432
-0.2663608 0.11202194 -0.60482144 0.2366849 0.50609225 0.27506736 0.17233007 0.41133016
-1.6546263 1.1446674 0.5313956 -0.067011975 0.5296543 -0.0627698 -0.2099313 -0.2051096
0.29963368 0.212737 1.3334771 1.2931967 3.7755804 1.3537643 1.8223523 -0.0742345
00000000: dd34 9e40 9aa6 b3bf cfad 1ec0 938c 06c0
00000010: 44c5 e13e 2c02 1fbe bf12 b6be 5bf0 953f
00000020: 9683 80bf f08a eebe 5b2e 53bf 5f57 64bf
00000030: 02c7 2e40 73bb f53f 3c06 8d3f aff3 8cc0
00000040: abf7 0bc0 02d5 98bd cac5 143f 57f0 1e3f
00000050: 8981 38bf 4124 b1be 76eb a5be a4a7 0abf
00000060: fdd1 773d 8c87 fa3d 7b35 8d3c 1361 0e3e
00000070: 4104 de3f 642f 0b3f 6dac c93e 4e4c a9bb
00000080: fcb7 62bd a328 08be 70c9 75bd d2b9 d5bd
00000090: c359 9abb e133 bc3d c221 e5bd 02ca da3d
000000a0: e855 d0bc be46 303e 9382 443e e915 2a3d
000000b0: f4d7 b2bc 43a8 15bd 77bb 9ebd 6e81 07bd
000000c0: 7243 b8bd 42ac 13be 2d42 9ebd 5c45 a13c
000000d0: c4d2 123d 0405 98bd 6f10 82bd e68d 81bd
000000e0: 16fc cdba 690e 503c 5200 8abc aa5d 293c
000000f0: bf9f 0940 9c79 0f40 9191 b63e dc2c 84bf
00000100: d617 29be b06e 39be db96 69bf ca46 d3bf
00000110: d169 51bf 72e4 50bf e198 a93f 78bb 2340
00000120: e0e5 d4be 9153 6040 a570 9cbf d7de 4b40
00000130: 01e8 81c0 332b 933f ae4b 4e3e 3cc8 55bf
00000140: bded 7cbf 3caf a63e 37cf 86bf 8fa6 2bbe
00000150: a325 7b3d 82ed 603d 5eab 17be 67a8 01bf
00000160: ac03 ef3d 6179 4b3b 2177 7f3d 2f46 12be
00000170: 71fb 00be d028 89bd 9498 6dbc 4b2c 773b
00000180: 17dc 4bbb 455b 88bd 0631 8abc a37f ce3d
00000190: 4d26 193f 07a9 823e 2ac3 0c3c 4507 163b
000001a0: 70d7 7f3d 41b0 043e ebde b6bd 7293 94be
000001b0: 53ab 9e3d d8bf b33d 746c 033e 31fa 923d
000001c0: 05f9 e53d a9ec 6fbe 6f45 673d 3f11 073f
000001d0: 97a4 9a3e 0446 95bd bd23 babd 3388 d9bc
000001e0: 3800 9ebf f1d0 c4c0 3c7b c33d 9eff a13e
000001f0: 1857 e53e 8e7f 943e 21bc 253f b483 373f
00000200: a826 acbf e0ff 6ebf 5def c63f 6491 2cc0
00000210: cdc4 acbe f5f5 07be 7597 363e 850f 01c0
00000220: fd51 273f ea0c 6c3f f602 b73e 4a51 1abf
00000230: f156 103f 97ea 08be 844f 1b3f 935b 323f
00000240: 6b74 fa3c 3a53 f93c 8e3c e23c 03c2 02bc
00000250: c4f8 2b3d 761c b2bd 1140 b03c d1d0 90bd
00000260: 7478 2cbd cf21 bfbd 3dcc ddbd f0a6 a2bb
00000270: fb01 543d 01ba 573c d1ce 83bd b20a 88bc
00000280: 9cc9 3abd 3dfa 33bd 2e6b 46bd 214b 373e
00000290: 0067 bb3d 2432 bc3d 480c cf3c 81c4 dcbb
000002a0: 3924 86bd 034e acbd acae 7f3c 3173 8dbd
000002b0: 56a3 113d bbcf c13d 9e16 cfbc 59e4 6e3d
000002c0: e72a 80bd 3f57 573d 9eea 9a3b 11ff 1f3c
000002d0: 2c7b 1e3f 32e6 823f 04e2 0e40 6bcb ae3f
000002e0: d014 8fbf 90ad 543e 3cc9 8a3f 6298 823f
000002f0: 9312 cb3f 4d5f 323e f35d 10c0 e735 7dbd
00000300: 8b44 79be 9cee b040 b93b 7d40 8f8c 07c0
00000310: 745f 04c0 c01a 1dbf cdf7 06bf 1903 c43d
00000320: b481 ad3d a9e5 8f3f d2a2 213e 8fb1 2d3f
00000330: 689e 57bc 59f8 6d3e 3f29 e8be 930b cbbe
00000340: 9161 9ebe dc03 a5be 54e3 e83e 242c 2b3e
00000350: 06ba 4ebe 88d9 8cbe 7405 ffbc 20cd 173e
00000360: 901f 28be ffbd 443d 0ea6 5abe 123b 803f
00000370: 6660 23bf 3c49 38bf 3f5d 27bf 1598 ca3e
00000380: 652a 0840 bebe b43f 6167 903f df59 903f
00000390: 64a5 a7be 1ff0 b73e 4691 153f 4d35 edbd
000003a0: 7160 88be c26b e53d 94d5 1abf 875d 723e
000003b0: 438f 013f a1d5 8c3e 4b77 303e de99 d23e
000003c0: cbca d3bf 7684 923f 8b09 083f 933d 89bd
000003d0: 6d97 073f 748d 80bd 3bf8 56be 4008 52be
000003e0: 9669 993e bad7 593e 61af aa3f 7887 a53f
000003f0: 1ca3 7140 2648 ad3f d742 e93f 4208 98bd

fc.0.bias f4 [256]
-1.830734 -2.7833087 -3.6617377 -5.9373064 -4.6260424 -4.2739506 -3.356496 -4.513962
-5.191969 -3.6049464 -0.99793524 -0.33792555 -3.4480262 -3.5712283 0.28931752 0.69133455
-0.46212348 -3.9150517 0.806369 0.18720366 -4.040015 -0.18905836 -6.653204 -4.4375467
-6.4884386 -1.7957493 0.699908 -4.1065097 -0.09532638 0.6281347 -2.9437866 -3.6870992
-2.3709934 -2.327177 -2.376156 -6.5200114 -0.40939236 -4.2708864 1.3475467 1.4744102
-4.1948786 -6.1318107 -1.6879538 -6.9278574 -2.2850788 -1.7360151 -5.2340717 -2.8551455
-2.2077677 -4.58167 0.021390893 -3.592549 -1.8963394 -1.5838218 -2.4271064 -6.678818
-1.9175667 -2.1893115 -2.1033542 1.0727227 -1.5010179 -0.1811173 0.5407406 -3.1401198
-6.993057 -4.3753643 -4.3047867 -4.839756 -1.8567346 4.438452 -0.74525625 0.31493652
-4.2657895 -5.6160116 -1.2468121 -6.1696095 0.57753015 -3.1154342 -6.0589304 -3.501103
1.8411452 -4.846362 -0.28841004 -1.9026296 -6.5369544 -0.5471509 0.43891597 -6.3339634
0.30319992 -3.7929957 0.43486485 -0.40067083 -4.4841948 -3.1796367 -4.8862104 -1.7528183
-2.294654 -0.2590043 -2.7230897 -6.2361927 0.31868356 0.3564545 -1.3616612 -4.1081033
-5.341565 -1.349416 -1.9476825 2.6930232 -0.15478522 -4.179398 -0.6117312 -3.6650248
-3.6637204 -3.6988401 -2.318989 -5.1047993 1.0809245 -4.462562 -3.8729894 -4.3663425
-0.019479172 -3.7929795 -3.6909523 -7.8874874 -3.9131322 -4.5936174 -0.24755919 -0.2628119
-1.8351791 2.3046095 -2.1385393 -3.3404107 0.7929165 -3.0409749 -0.2764626 -4.450717
-3.1871803 2.4250486 -4.580996 -5.5640483 -2.3206592 -1.0256432 -3.1619313 0.5263191
-3.611306 -3.9143324 -0.090153985 1.3545306 -4.1067705 0.9345537 -1.6422769 -1.2061661
-3.9832695 0.96791905 -4.41294 -5.407973 4.673258 1.2348657 -7.04291 -6.2328796
-1.1258947 -2.2794225 -1.0497416 -3.5621352 -1.8834753 -3.9184918 0.040858056 -0.07774733
-5.6417317 -4.122399 -8.05552 -3.4290457 -5.464825 -3.0835526 -3.6235526 -0.6263069
-1.9272757 -5.638327 -4.084008 -0.7855816 -1.9684548 0.68384427 -1.4425566 -6.473259
-3.99926 -3.8886483 -7.192684 -4.8075247 -1.6973541 -3.600793 -5.177027 -0.8218902
-0.7598 -4.3111696 -1.7030668 -3.2381265 0.10736113 6.9750147 -4.234801 0.17203131
-1.8658161 0.75401956 -2.0388398 -0.49898434 -3.6924524 0.037968036 -4.972581 -2.9665964
-5.3493648 -1.4481556 0.25878575 -3.405258 -5.8795514 1.8110632 -0.68816054 0.79230714
-2.933896 -2.2817254 -1.6848387 -0.7526525 -3.3668516 -3.4409087 1.1895444 -1.7258918
-0.24787748 -2.2253752 -2.4504507 -4.3566437 -7.5888286 -4.356886 -2.8312514 -1.3353056
-4.3525014 -5.65055 -4.1067104 -4.2809324 -4.4245324 -3.5013387 -1.1036462 -0.37698185
-5.621058 -3.825783 2.2386084 -4.6550083 0.14064646 -2.2505524 -0.44460285 -0.69895715
-6.530275 -2.6410866 -0.53748846 -1.8952712 -2.1019518 -3.9247432 -3.1152918 3.734994
00000000: 7e55 eabf bb21 32c0 e959 6ac0 6afe bdc0
00000010: 8a08 94c0 34c4 88c0 d5d0 56c0 6072 90c0
00000020: 9c24 a6c0 71b7 66c0 af78 7fbf 9404 adbe
00000030: 76ac 5cc0 018f 64c0 6d21 943e 4dfb 303f
00000040: 739b ecbe 3590 7ac0 336e 4e3f 51b2 3f3e
00000050: ce47 81c0 8498 41be 0ce7 d4c0 6200 8ec0
00000060: 4aa1 cfc0 1ddb e5bf 2c2d 333f 8768 83c0
00000070: 7a3a c3bd 70cd 203f 0067 3cc0 6ff9 6bc0
00000080: 5bbe 17c0 78f0 14c0 f112 18c0 efa3 d0c0
00000090: e09b d1be 1aab 88c0 697c ac3f 79b9 bc3f
000000a0: 723c 86c0 cb37 c4c0 df0e d8bf 02b1 ddc0
000000b0: bb3e 12c0 be35 debf 847d a7c0 b4ba 36c0
000000c0: 114c 0dc0 0a9d 92c0 f43b af3c 53ec 65c0
000000d0: 40bb f2bf acba cabf b655 1bc0 e1b8 d5c0
000000e0: d372 f5bf ae1d 0cc0 5b9d 06c0 fa4e 893f
000000f0: 5b21 c0bf d076 39be fa6d 0a3f b9f7 48c0
00000100: 1fc7 dfc0 fc02 8cc0 d0c0 89c0 48df 9ac0
00000110: 7ba9 edbf cc07 8e40 1dc9 3ebf 5c3f a13e
00000120: 5981 88c0 5eb6 b3c0 8a97 9fbf 716d c5c0
00000130: 04d9 133f 4663 47c0 c2e2 c1c0 1212 60c0
00000140: a5aa eb3f 6615 9bc0 7baa 93be 5e89 f3bf
00000150: bb2e d1c0 1512 0cbf 98b9 e03e d4af cac0
00000160: 053d 9b3e 71c0 72c0 9ba6 de3e ba24 cdbe
00000170: 867e 8fc0 2b7f 4bc0 d65b 9cc0 5a5c e0bf
00000180: 9cdb 12c0 369c 84be 1a47 2ec0 e48e c7c0
00000190: 7e2a a33e 3481 b63e ea4a aebf 9575 83c0
000001a0: 1aee aac0 aab9 acbf a94d f9bf 7e5a 2c40
000001b0: 0480 1ebe a1bd 85c0 6a9a 1cbf c48f 6ac0
000001c0: 657a 6ac0 ccb9 6cc0 516a 14c0 845a a3c0
000001d0: bc5b 8a3f 4fcd 8ec0 0fdf 77c0 14b9 8bc0
000001e0: c992 9fbc 2dc0 72c0 9038 6cc0 4c66 fcc0
000001f0: c270 7ac0 eafe 92c0 2880 7dbe 488f 86be
00000200: 26e7 eabf b97e 1340 d4dd 08c0 4ac9 55c0
00000210: 93fc 4a3f 559f 42c0 828c 8dbe 466c 8ec0
00000220: c3fa 4bc0 ff33 1b40 8597 92c0 af0c b2c0
00000230: ae85 14c0 4748 83bf 155d 4ac0 d9bc 063f
00000240: a31f 67c0 6c84 7ac0 a7a2 b8bd 4261 ad3f
00000250: aa6a 83c0 e93e 6f3f 2136 d2bf a763 9abf
00000260: e3ed 7ec0 8bc9 773f ce36 8dc0 1d0e adc0
00000270: 548b 9540 1410 9e3f 855f e1c0 c073 c7c0
00000280: 511d 90bf 0fe2 11c0 ef5d 86bf 06fa 63c0
00000290: b815 f1bf 92c8 7ac0 c75a 273d fe39 9fbd
000002a0: 1189 b4c0 b1ea 83c0 69e3 00c1 7c75 5bc0
000002b0: d9df aec0 ed58 45c0 49e8 67c0 a655 20bf
000002c0: f8b0 f6bf 2d6d b4c0 32b0 82c0 e01b 49bf
000002d0: 54f6 fbbf 6b10 2f3f b2a5 b8bf f024 cfc0
000002e0: e0f3 7fc0 9ddf 78c0 782a e6c0 3ed7 99c0
000002f0: e642 d9bf 6473 66c0 35aa a5c0 6567 52bf
00000300: 4182 42bf 1af5 89c0 18fe d9bf 773d 4fc0
00000310: 27e0 db3d 5233 df40 7d83 87c0 fa28 303e
00000320: 10d3 eebf 6d07 413f 5a7c 02c0 e07a ffbe
00000330: 2451 6cc0 5f84 1b3d 621f 9fc0 b7dc 3dc0
00000340: ff2d abc0 2a5d b9bf 917f 843e bfef 59c0
00000350: 4925 bcc0 ebd0 e73f 4a2b 30bf a4d4 4a3f
00000360: f4c4 3bc0 ca07 12c0 cba8 d7bf d6ad 40bf
00000370: 7f7a 57c0 d937 5cc0 fe42 983f 06ea dcbf
00000380: 98d3 7dbe 8c6c 0ec0 2fd4 1cc0 a069 8bc0
00000390: afd7 f2c0 9c6b 8bc0 3933 35c0 4beb aabf
000003a0: b147 8bc0 4ed1 b4c0 2c6a 83c0 66fd 88c0
000003b0: c595 8dc0 ef15 60c0 4744 8dbf c403 c1be
000003c0: b5df b3c0 a1d9 74c0 5c45 0f40 d4f5 94c0
000003d0: a005 103e 0d09 10c0 fca2 e3be dbee 32bf
000003e0: 03f8 d0c0 9007 29c0 d898 09bf 3f98 f2bf
000003f0: 6186 06c0 fe2e 7bc0 f160 47c0 240a 6f40

fc.1.weight f4 [128, 256]
0.7494394 -0.82571554 -0.98493814 0.34916565 0.076954365 1.5303236 -0.8587443 0.03880509
-1.5244635 0.76233286 -1.240112 0.9901215 0.28603727 1.1557688 -0.37536702 0.5682582
-0.13092214 0.06863425 -3.0942607 -1.6790168 -0.29296097 -0.73758835 0.42916152 2.6304138
-0.061340127 -0.42523852 -1.4873372 -1.8358859 -0.8518457 0.6424776 -1.1285405 -2.5670276
-2.2707422 0.32221538 1.1252408 -0.115376 2.3030963 0.1880472 -0.5307242 -0.72272384
1.152985 -0.97931284 -7.537685 0.43007398 -0.44673812 1.5815208 -1.5329684 0.0112891765
0.43700516 0.02005065 -0.60421497 -0.42994362 0.7217374 1.0981795 0.32247293 0.14307156
-0.25329074 1.1868232 -0.35906187 -0.15599012 -1.3702611 -2.6128917 -0.1780307 0.20668106
-2.0580285 -1.455378 -1.460741 -3.7590716 -0.17697689 0.6860503 0.8316537 -3.3473744
0.39772943 -0.023458801 -4.7926245 0.053144965 -0.012237003 -0.3961311 -1.1770613 0.40919808
-0.5561921 -1.2938734 -0.052880168 -1.9296525 2.1377807 -1.298553 -0.33630714 0.06773907
0.25050792 -3.2427557 0.027895743 -0.70458955 0.8705929 0.30124807 0.1849192 0.1758701
0.9378316 -0.11899774 -1.9075806 -1.7766839 -0.51965487 -0.2818609 -0.656674 0.4583768
0.7950549 -0.80756885 0.53740376 0.92150277 0.015125598 -1.4329358 -0.21056382 -0.9877707
1.0619606 2.0045662 0.95876235 0.11935698 -4.975305 -0.44754958 1.0044647 -0.9834961
0.97310984 -4.2948117 0.044527043 -0.52927315 0.45177498 -4.568429 0.347382 -1.9488275
0.30653986 0.117839396 -0.22771987 0.48656383 -0.56121176 0.34324104 0.24449784 -0.08408088
-0.31409112 0.6143742 0.44495174 -1.7026972 -4.242579 -0.75128883 -1.8579389 -1.0621896
-0.050699968 -0.46340755 1.0840526 -1.0949597 0.5412146 1.2998259 1.5736431 1.1605194
-1.3284204 0.27564347 -0.009515636 -0.8166134 -0.62413466 0.73680896 0.014414081 -0.40479955
-5.503334 0.69218 0.3311049 -0.38416702 0.22362863 1.0768576 1.1290045 0.8140693
1.0187426 1.3607739 -0.69883454 1.1057702 1.1322415 0.79676914 0.6358181 -1.3598161
-1.2481294 0.52788556 -1.156045 -2.0003362 -0.13887206 0.17627294 -0.5428061 -1.332219
0.24276833 -4.471783 0.44191533 0.2674911 -0.010476473 0.06382962 -0.10384436 1.1665286
-2.4118624 -0.8130462 0.5136691 0.9059159 0.8603151 0.9948265 0.09438126 -0.44535115
-0.346999 1.0077707 0.093167625 0.30032384 -1.0505409 -0.22963941 -0.12637639 0.14986245
-1.2500178 1.0676634 -0.08794085 0.38334477 -1.8268622 0.69518715 -0.21160105 0.1393299
-0.7909147 1.0822036 0.016932081 0.7528632 -0.40993738 -0.33124426 0.2307438 -0.15794672
-0.6421537 0.6733029 0.5263591 -0.76629424 -0.5646361 -1.6752324 0.37637922 -0.29046425
-0.9681667 2.0422077 -0.38067117 0.3647518 -0.44953957 -2.5502248 0.024098765 -0.6256267
-0.45017397 -0.6755431 0.15126085 -0.93564236 -0.33527854 0.6039401 -0.4111586 0.09122688
1.062105 0.85498965 -0.13992783 0.52292 -2.068648 -1.8990326 -0.59287155 0.6371963
00000000: 43db 3f3f 1862 53bf e824 7cbf d7c5 b23e
00000010: 409a 9d3d a5e1 c33f abd6 5bbf 16f2 1e3d
00000020: 9f21 c3bf 3f28 433f fdbb 9ebf 9a78 7d3f
00000030: 7a73 923e 3bf0 933f 1b30 c0be 5f79 113f
00000040: 7410 06be 1d90 8c3d 5e08 46c0 06ea d6bf
00000050: fbfe 95be 97d2 3cbf 0fbb db3e b358 2840
00000060: c93f 7bbd ddb8 d9be 1161 bebf 4ffe eabf
00000070: 8f12 5abf 6979 243f 0474 90bf 2e4a 24c0
00000080: d753 11c0 6af9 a43e e407 903f 414a ecbd
00000090: ee65 1340 728f 403e 8bdd 07bf 6e04 39bf
000000a0: 0395 933f 3fb4 7abf b734 f1c0 a832 dc3e
000000b0: dcba e4be 466f ca3f 4f38 c4bf 3df6 383c
000000c0: 24bf df3e 4341 a43c d5ad 1abf 9221 dcbe
000000d0: c8c3 383f 2591 8c3f 2c1b a53e 5a81 123e
000000e0: 53af 81be d3e9 973f f5d6 b7be e0bb 1fbe
000000f0: b764 afbf 9e39 27c0 ae4d 36be 33a4 533e
00000100: bdb6 03c0 d449 babf 90f9 babf a194 70c0
00000110: 6e39 35be fea0 2f3f 42e7 543f 623b 56c0
00000120: 31a3 cb3e ac2c c0bc 2e5d 99c0 89ae 593d
00000130: b67d 48bc b2d1 cabe f2a9 96bf 6982 d13e
00000140: 9b62 0ebf a59d a5bf e098 58bd dafe f6bf
00000150: 66d1 0840 fc36 a6bf 7330 acbe c8ba 8a3d
00000160: 9342 803e 4f89 4fc0 9d85 e43c fb5f 34bf
00000170: 2ddf 5e3f 303d 9a3e 755b 3d3e 4b17 343e
00000180: bb15 703f 16b5 f3bd 9a2b f4bf 616a e3bf
00000190: 1a08 05bf 1250 90be ca1b 28bf 5db0 ea3e
000001a0: b888 4b3f d5bc 4ebf 4b93 093f 9be7 6b3f
000001b0: 5bd1 773c 716a b7bf 0b9e 57be 8ade 7cbf
000001c0: 53ee 873f d04a 0040 7371 753f 6f71 f43d
000001d0: b335 9fc0 3825 e5be 4d92 803f 67c6 7bbf
000001e0: ba1d 793f 196f 89c0 fd61 363d 727e 07bf
000001f0: 0d4f e73e 9230 92c0 0edc b13e 2e73 f9bf
00000200: cbf2 9c3e c855 f13d 662f 69be e51e f93e
00000210: 93ab 0fbf 4abd af3e a45d 7a3e 9932 acbd
00000220: 8dd0 a0be a147 1d3f b7d0 e33e fbf1 d9bf
00000230: 35c3 87c0 7754 40bf f1d0 edbf d4f5 87bf
00000240: c5aa 4fbd c143 edbe 3cc2 8a3f a427 8cbf
00000250: 0a8d 0a3f b260 a63f 236d c93f e68b 943f
00000260: ae09 aabf 2421 8d3e 78e7 1bbc 930d 51bf
00000270: 4ac7 1fbf 839f 3c3f 0a29 6c3c e341 cfbe
00000280: 501b b0c0 b532 313f 9586 a93e 8ab1 c4be
00000290: e7fe 643e 78d6 893f 3883 903f d866 503f
000002a0: 2866 823f d72d ae3f d2e6 32bf e189 8d3f
000002b0: 4aed 903f 10f9 4b3f fac4 223f 740e aebf
000002c0: b4c2 9fbf 8223 073f 48f9 93bf 8205 00c0
000002d0: 7a34 0ebe e580 343e 57f5 0abf 2786 aabf
000002e0: 4398 783e d918 8fc0 ba42 e23e 98f4 883e
000002f0: 83a5 2bbc 1bb9 823d 5aac d4bd cf50 953f
00000300: f45b 1ac0 cc23 50bf d17f 033f 1bea 673f
00000310: 9c3d 5c3f f3ac 7e3f f64a c13d 1105 e4be
00000320: daa9 b1be a1fe 803f abce be3d 0cc4 993e
00000330: 2078 86bf 9826 6bbe d068 01be 8b75 193e
00000340: 9500 a0bf 32a9 883f 551a b4bd c445 c43e
00000350: 9fd6 e9bf c9f7 313f f2ad 58be 7fac 0e3e
00000360: 6379 4abf a685 8a3f 26b5 8a3c a5bb 403f
00000370: 50e3 d1be d998 a9be 1a48 6c3e c9bc 21be
00000380: 2f64 24bf 945d 2c3f 78bf 063f dc2b 44bf
00000390: fe8b 10bf 046e d6bf c7b4 c03e bbb7 94be
000003a0: c6d9 77bf 88b3 0240 55e7 c2be bfc0 ba3e
000003b0: 0d2a e6be e236 23c0 c66a c53c 1229 20bf
000003c0: 347d e6be 65f0 2cbf 20e4 1a3e 4286 6fbf
000003d0: a1a9 abbe d29b 1a3f 6183 d2be 29d5 ba3d
000003e0: 0ef3 873f 9ae0 5a3f 3e49 0fbe 16de 053f
000003f0: bb64 04c0 8013 f3bf 6ec6 17bf 4c1f 233f

fc.1.bias f4 [128]
1.3644174 1.646393 6.66248 -4.441999 -2.5491629 0.023455178 0.954237 0.6394146
-1.1486602 -1.2376332 -0.27336377 1.3072581 -0.29401195 -0.7016031 -5.2842116 3.6004105
3.1992803 3.2668648 -2.1475024 -3.2783651 2.7267191 -1.7947508 -0.009710493 -0.09924869
-1.3262979 -2.5294456 1.9716343 1.1134136 -0.04030321 1.150904 1.6907563 -2.2663093
-0.05070417 3.2970402 -0.029875703 -0.14215247 -1.1423458 2.3523898 -0.7086228 -2.5949085
3.5151224 0.90788317 -0.042153906 -3.77002 0.8138545 -1.8273373 6.066182 4.240675
-0.99913794 0.0050641927 -0.023488706 0.015236875 -2.2228613 1.0721946 -0.074312195 0.19335346
7.6042304 -3.8307493 0.38707963 4.898583 0.56922024 -3.069701 -6.2041273 -2.5728967
-0.46440294 0.0018160306 0.0046205577 -0.0998646 -0.4679805 6.7379184 -4.056333 -3.4935713
2.1933844 -0.009519753 1.5340439 -5.341195 -1.4989882 -0.05013374 4.432811 -0.7316911
-0.6130526 0.8905946 3.378506 -3.070535 -0.09931253 1.9170893 -1.7098002 -0.020095317
3.4809327 2.810005 4.143679 -5.109333 0.20959267 -0.02452615 -0.07303065 3.0842836
4.078122 6.224977 0.75175434 -7.459241 -1.29574 -2.4321046 -2.5288262 -0.8214616
-0.028283682 -2.1820674 -1.1739113 0.8089785 1.3813901 4.193957 2.3587165 1.1169701
-0.017734988 3.3581226 -3.4104404 3.9389627 -4.406368 -4.1915755 3.337175 2.374152
-0.038327664 0.77708805 -0.07909912 -7.9449263 0.16816187 -2.7604809 1.128453 -2.057179
00000000: 3ba5 ae3f 01bd d23f 0933 d540 db24 8ec0
00000010: 7c25 23c0 1325 c03c e048 743f adb0 233f
00000020: 4c07 93bf c46a 9ebf 56f6 8bbe 3c54 a73f
00000030: bc88 96be 439c 33bf 4318 a9c0 206d 6640
00000040: 02c1 4c40 5014 5140 ae70 09c0 bcd0 51c0
00000050: 9182 2e40 65ba e5bf c218 1fbc e642 cbbd
00000060: 21c4 a9bf 70e2 21c0 835e fc3f 5684 8e3f
00000070: fb14 25bd d350 933f b46a d83f 360b 11c0
00000080: 2daf 4fbd b502 5340 e4bd f4bc 6b90 11be
00000090: 6338 92bf 8e8d 1640 4e68 35bf fb12 26c0
000000a0: c4f7 6040 086b 683f 93a9 2cbd 0248 71c0
000000b0: c558 503f 30e6 e9bf 2a1e c240 9cb3 8740
000000c0: 81c7 7fbf 87f1 a53b 636b c0bc 16a4 793c
000000d0: 5c43 0ec0 ac3d 893f fe30 98bd 73fe 453e
000000e0: db55 f340 ff2a 75c0 4d2f c63e 31c1 9c40
000000f0: 6bb8 113f fb75 44c0 3688 c6c0 57aa 24c0
00000100: 39c6 edbe e007 ee3a 0c68 973b d085 ccbd
00000110: 249b efbe 079d d740 7bcd 81c0 ac96 5fc0
00000120: 6960 0c40 bdf8 1bbc 8d5b c43f 12eb aac0
00000130: d8de bfbf 0959 4dbd 96d9 8d40 1c50 3bbf
00000140: 04f1 1cbf 02fe 633f 7139 5840 a583 44c0
00000150: 5e64 cbbd 2f63 f53f bcda dabf ef9e a4bc
00000160: 9ac7 5e40 1fd7 3340 0599 8440 a87f a3c0
00000170: 769f 563e 11eb c8bc 1891 95bd e764 4540
00000180: fa7f 8240 0333 c740 f972 403f 1ab2 eec0
00000190: cfda a5bf 9aa7 1bc0 4ad8 21c0 4f4b 52bf
000001a0: 2eb3 e7bc fea6 0bc0 ba42 96bf 3719 4f3f
000001b0: 64d1 b03f e534 8640 36f5 1640 e0f8 8e3f
000001c0: f748 91bc 7beb 5640 a844 5ac0 f717 7c40
000001d0: f700 8dc0 6321 86c0 4694 5540 1bf2 1740
000001e0: 78fd 1cbd 3eef 463f b8fe a1bd d63c fec0
000001f0: a032 2c3e b8ab 30c0 2671 903f d2a8 03c0

fc.2.weight f4 [64, 128]
0.95023036 -1.707983 -0.92544377 -1.4133489 -0.4441223 0.005791832 -1.0163323 -2.5812783
0.3920226 -0.04289894 0.12920053 -0.8500926 0.20842366 0.17962353 -2.1559772 0.8305927
-0.37458196 -0.23038334 0.059511427 -2.296463 1.107667 -1.2616286 0.01707264 -0.037526127
0.047897156 -0.70767343 1.2289068 0.6022248 0.09040745 0.2657001 0.34125698 1.4401829
0.01262992 -0.16694438 -0.008764146 0.19161262 -2.3669155 0.9977186 -0.013793402 -0.78662467
-1.1333528 -0.6837328 0.0022281958 0.40031087 -0.87819356 -0.51253265 1.1684399 0.42270964
0.9733047 -0.041265596 -0.00055803044 0.024538558 0.19276448 -0.561781 -0.042325936 0.14156014
0.28178596 -0.57267696 -0.27380773 0.8003431 0.23414919 -0.33836347 0.43048015 -0.16612923
0.65365654 -0.065652534 -0.045987323 -0.024244154 0.03638429 -2.846844 -0.3067662 -0.25685582
-0.72583735 -0.021702513 0.19693738 0.35115463 -0.66100025 0.001970512 0.43405876 -1.3454435
0.47817582 -2.9593124 0.07172453 0.31562287 -0.025378633 0.8141109 1.0144578 -0.21344416
-1.2026731 -0.09075103 -0.5281132 -0.15682665 -1.4241711 -0.08166552 -0.029943945 0.6315357
-0.18619387 -0.17672499 -0.37347972 -5.099509 -0.28206447 -7.9650197 -0.33771718 0.6831598
0.025097512 -0.6480481 -1.0268598 -5.1638227 -1.655936 -1.0796795 -0.09323299 -0.76371896
0.07701089 0.62628645 0.5043158 -2.9646716 -0.09578089 -1.8953211 0.5876636 -0.7653749
0.028239407 0.23054251 -0.061739884 0.06454857 -1.7339188 0.09733942 -0.9137853 -1.5547997
0.065712124 0.020630686 -0.030782139 -0.7573829 -0.026269514 -0.013588268 -0.07071277 0.04559702
0.07043285 -0.036395162 -0.13755143 -0.102993004 0.21206892 0.04606001 -0.20433688 0.0023772328
0.09546984 0.034350585 0.014928818 -0.032063182 -0.04115755 -0.13022846 -0.035640135 0.025608903
0.100713074 -0.3990469 -0.0028601687 0.059175376 -0.089491405 -0.0060483627 0.0042651216 0.11224277
0.006218309 0.032981753 -0.036846377 0.009001619 -0.013063102 0.037952423 -0.0028700787 -0.008410137
0.0042930874 -0.13938327 0.04318095 -0.022522148 -0.0069489507 0.0032925375 0.32020774 0.045397066
0.11851884 -0.030498601 0.067633875 -0.07598859 0.021389121 0.026747517 0.075229615 0.010240682
0.057239957 0.04041993 0.074272685 0.21834694 0.04193298 0.024750328 -0.04164295 -0.011516141
-0.03784959 -0.062436115 0.06354567 -0.09422881 0.01057316 0.024886757 0.042660914 -0.2531129
0.09030648 -0.0006037244 -0.014126879 -1.0940049 -0.048245866 0.044027403 0.043009248 0.109126695
-0.12724452 0.0806112 -0.07680131 -0.0066998317 -0.077577 0.029676965 0.045998897 0.020291498
0.4100409 0.0010079624 -0.028360449 -0.45692396 -0.13824219 0.0644325 0.02488348 0.115388215
-0.13231067 -0.05905717 0.055865802 0.5863594 -0.04057197 -0.7704422 -0.017781565 -0.00069857476
-0.072966754 -0.047114305 0.4601329 0.23887506 -0.010172562 0.0082832305 0.03833993 0.012147465
-0.076093525 -0.030698346 -0.07472848 0.068800785 -0.0033988438 0.09429606 -1.6504235 -0.08210801
-0.05951599 -0.052535944 0.0028828192 0.27092403 -0.04677786 0.016252456 0.2566545 0.15918414
00000000: 4c42 733f 309f dabf e2e9 6cbf 9ee8 b4bf
00000010: 0064 e3be 69c9 bd3b 2d17 82bf aa33 25c0
00000020: 30b7 c83e cdb6 2fbd 254d 043e ab9f 59bf
00000030: 036d 553e 3bef 373e 88fb 09c0 b9a1 543f
00000040: 35c9 bfbe 9ce9 6bbe 41c2 733d 40f9 12c0
00000050: 08c8 8d3f 0c7d a1bf ecdb 8b3c ffb4 19bd
00000060: cf2f 443d 162a 35bf d14c 9d3f 682b 1a3f
00000070: 8b27 b93d d809 883e 3cb9 ae3e ea57 b83f
00000080: b9ed 4e3c 78f3 2abe 7e97 0fbc 1936 443e
00000090: 8b7b 17c0 7c6a 7f3f b9fd 61bc 3c60 49bf
000000a0: b411 91bf 1d09 2fbf ec06 123b 8cf5 cc3e
000000b0: 4bd1 60bf 5735 03bf 708f 953f 666d d83e
000000c0: 7f2a 793f 1d06 29bd ca48 12ba 1605 c93c
000000d0: 0d64 453e e1d0 0fbf f65d 2dbd 24f5 103e
000000e0: 4046 903e f59a 12bf 8730 8cbe 49e3 4c3f
000000f0: cec4 6f3e fa3d adbe e567 dc3e c81d 2abe
00000100: 0956 273f d674 86bd 345d 3cbd ad9b c6bc
00000110: b107 153d b132 36c0 7610 9dbe 9b82 83be
00000120: 7ad0 39bf 78c9 b1bc f4a9 493e 8aca b33e
00000130: 5037 29bf b523 013b f33c de3e 7e37 acbf
00000140: 76d3 f43e 6065 3dc0 4fe4 923d 5299 a13e
00000150: dae6 cfbc 9269 503f c1d9 813f 1b91 5abe
00000160: 31f1 99bf addb b9bd 6d32 07bf 2a97 20be
00000170: 3d4b b6bf 4140 a7bd 014d f5bc 53ac 213f
00000180: 9ba9 3ebe 65f7 34be bc38 bfbe 2d2f a3c0
00000190: c16a 90be 71e1 fec0 44e9 acbe 90e3 2e3f
000001a0: 4c99 cd3c 7be6 25bf 2470 83bf 093e a5c0
000001b0: b6f5 d3bf f032 8abf f0f0 bebd 1683 43bf
000001c0: e3b7 9d3d 4f54 203f d71a 013f 2ebd 3dc0
000001d0: c528 c4bd e299 f2bf 1f71 163f 9cef 43bf
000001e0: 5456 e73c 5613 6c3e f6e2 7cbd 0a32 843d
000001f0: 0df1 ddbf e459 c73d d5ed 69bf ad03 c7bf
00000200: 1494 863d af01 a93c d32a fcbc d9e3 41bf
00000210: 2a33 d7bc 54a1 5ebc dbd1 90bd f1c3 3a3d
00000220: 193f 903d 1813 15bd 48da 0cbe ffed d2bd
00000230: 9828 593e 6ca9 3c3d b03d 51be 59cb 1b3b
00000240: b185 c33d 33b3 0c3d 0098 743c af54 03bd
00000250: d294 28bd 9c5a 05be 64fb 11bd c3c9 d13c
00000260: a842 ce3d e04f ccbe ab71 3bbb e161 723d
00000270: 4547 b7bd 5831 c6bb 6fc2 8b3b 8adf e53d
00000280: f5c2 cb3b e017 073d 3aec 16bd 877b 133c
00000290: 9f06 56bc 0074 1b3d ee17 3cbb acca 09bc
000002a0: 07ad 8c3b 7dba 0ebe 82de 303d 5e80 b8bc
000002b0: 06b4 e3bb 9dc7 573b 45f2 a33e 46f2 393d
000002c0: 01ba f23d 34d8 f9bc a183 8a3d e89f 9bbd
000002d0: 3d38 af3c 9c1d db3c fc11 9a3d 89c8 273c
000002e0: 7274 6a3d 5e8f 253d 471c 983d 5796 5f3e
000002f0: ebc1 2b3d 33c1 ca3c cc91 2abd 32ae 3cbc
00000300: 2c08 1bbd 03bd 7fbd 3b24 823d 09fb c0bd
00000310: 0c3b 2d3c 50df cb3c 36bd 2e3d 0498 81be
00000320: 9bf2 b83d 4243 1eba 6d74 67bc 5a08 8cbf
00000330: 759d 45bd 1456 343d 772a 303d d17d df3d
00000340: 634c 02be 7c17 a53d 014a 9dbd 438a dbbb
00000350: b1e0 9ebd 1b1d f33c 5769 3c3d 5b3a a63c
00000360: e1f0 d13e 9b1d 843a 2c54 e8bc f0f1 e9be
00000370: 5c8f 0dbe 30f5 833d 71d8 cb3c a850 ec3d
00000380: 737c 07be eee5 71bd 8ad3 643d a61b 163f
00000390: cb2e 26bd b33b 45bf a5aa 91bc 8f20 37ba
000003a0: 986f 95bd eefa 40bd 8a96 eb3e aa9b 743e
000003b0: d1aa 26bc 63b6 073c 550a 1d3d 2906 473c
000003c0: ecd6 9bbd 197b fbbc 3f0b 99bd 6de7 8c3d
000003d0: 23bf 5ebb 4b1e c13d 1441 d3bf 3f28 a8bd
000003e0: 0ac7 73bd ee2f 57bd aeed 3c3b 8eb6 8a3e
000003f0: 249a 3fbd df23 853c 3868 833e 2b01 233e

fc.2.bias f4 [64]
-0.821521 6.877238 6.7277975 -2.0994232 -0.46317855 -11.364881 -0.19449693 -8.972256
-4.0319176 -19.745275 9.032272 -1.4141157 -0.15404858 -3.5838985 1.8033588 -10.124572
-0.16056104 10.957692 -15.175778 9.179233 -3.90522 -4.2108917 -0.68262005 -16.67054
1.8432986 -4.604519 1.9569441 12.188502 -2.3369188 -0.14530362 1.3298111 4.0488777
1.9197 -0.5713535 0.7268673 -6.1027412 -1.9577007 -19.284376 8.54546 -0.46217638
-13.161598 13.282217 7.2235436 7.999055 -1.1074741 -11.574319 -3.5283828 1.8452156
-9.993008 -6.7986507 1.76916 0.32263452 4.661827 3.8013933 14.229747 2.4081287
-2.1525261 2.427777 3.070935 -1.9241699 9.194948 -2.0891783 -6.918465 -1.5454612
00000000: 334f 52bf 5512 dc40 1e4a d740 f35c 06c0
00000010: bd25 edbe 8dd6 35c1 342a 47be 5c8e 0fc1
00000020: 7805 81c0 53f6 9dc1 3084 1041 be01 b5bf
00000030: e9be 1dbe 985e 65c0 76d4 e63f 3ffe 21c1
00000040: 1d6a 24be b552 2f41 fdcf 72c1 23de 1241
00000050: 20ef 79c0 a0bf 86c0 30c0 2ebf 445d 85c1
00000060: 35f1 eb3f 3858 93c0 257d fa3f 1b04 4341
00000070: 1490 15c0 79ca 14be 4037 aa3f 6890 8140
00000080: bbb8 f53f 3944 12bf fa13 3a3f a849 c3c0
00000090: f095 fabf 6746 9ac1 34ba 0841 62a2 ecbe
000000a0: e895 52c1 f683 5441 4527 e740 42f8 ff40
000000b0: b6c1 8dbf 6930 39c1 06d1 61c0 0630 ec3f
000000c0: 5ce3 1fc1 8c8e d9c0 d673 e23f 5a30 a53e
000000d0: b02d 9540 074a 7340 0bad 6341 c81e 1a40
000000e0: fdc2 09c0 b360 1b40 338a 4440 334b f6bf
000000f0: 821e 1341 19b5 05c0 1164 ddc0 acd1 c5bf

fc.3.weight f4 [32, 64]
-0.119462 -0.23684257 -0.42238328 -0.026475295 -0.027738282 0.04045687 0.046949893 -0.14541341
-0.23221532 0.06827712 -0.13564475 -0.046603136 0.06969347 -0.11373454 -0.34761456 -0.07420062
-0.09995097 -0.40357098 -0.12797365 -0.101493835 -0.11789383 -0.16772173 -0.12454285 -0.16749728
-0.087332256 -0.1487721 -0.18225884 -0.30817434 -0.31874257 -0.113527566 -0.019496791 -0.17438908
0.036412116 -0.15591677 -0.18137611 -0.068966135 -0.05019189 -0.20893213 -0.242189 0.0623243
0.04272897 -0.3307933 -0.19838701 -0.64256215 -0.1745956 -0.054855548 -0.0521435 0.011987415
-0.099087834 0.13408045 -0.22676371 -0.199071 -0.40859857 -0.11007768 -0.12602746 0.001514608
-0.16615136 0.089590654 -0.05937297 0.048437506 -0.37111777 -0.35397235 -0.041183494 -0.191299
-1.2399269 -0.29945862 0.1726151 -0.05618439 0.027829595 -0.6454554 0.0005646088 -0.09416843
0.077734515 -0.14042862 0.19017474 -2.7179623 -2.1367323 -0.09086625 -0.40259507 -0.2547811
0.0076972754 0.05158554 -0.5525572 0.28172672 -0.08687295 -1.2590714 -0.6114359 -0.48923308
-0.10083203 0.21832003 0.08493773 0.18321612 -0.33360744 0.14130983 0.13691027 -0.088917024
-0.090601474 -0.44273204 -1.7904127 0.06797519 -0.089082085 -0.16280039 -0.09376131 0.50574523
0.3208793 -0.0748304 -0.052324478 0.35354453 0.290039 -0.1437584 0.04931687 -0.47026065
-0.29313967 -2.0291245 -0.12573105 0.016652282 -0.22259806 -0.70902646 0.13157988 -0.22416243
-0.04357051 -0.2560248 -0.2654233 -0.7231705 -0.15570983 -1.5589737 -0.15715307 -0.20507272
0.020888926 0.25035906 0.009061757 -1.3809453 -0.047861114 -1.0838376 0.08884919 -0.0048127766
-0.0233634 -1.0735452 -0.52851707 -0.2105982 -1.5248493 -1.1295457 -0.056568805 0.05820535
-0.1888282 -0.4861697 -0.072660334 -0.9582421 -3.2242055 -0.006129117 -0.012426304 -0.32992867
-0.09181862 -0.11769016 -0.04510862 -0.29246724 0.010159118 -0.027623499 -0.28926563 -0.19878162
-0.06900561 -0.08893511 -1.5786177 0.03174216 -0.01840313 0.31494713 -0.24566887 0.01950757
-1.1534796 -0.22761126 -1.6868322 0.018437266 -0.12599465 -0.28689528 0.031075444 -0.096050814
0.028081173 -0.6291956 -0.11495839 -0.014250525 0.0642789 -0.09418473 -0.25785953 -0.018068817
-0.09985134 -0.33475605 -0.0843006 0.019920724 -0.51028717 0.12318116 -0.8667125 -0.03191816
0.1186401 -0.15195918 -0.058075707 0.7484803 -0.09393197 -3.6313245 0.03421555 0.22879817
0.13766348 0.14859815 -0.2515853 -2.551135 -0.7511784 -0.32808495 0.2123965 -0.2221663
0.06937507 -0.08302478 -0.11801577 0.14467123 0.046147965 -0.14024395 -0.36234993 -0.082842305
0.14844319 0.11529241 -0.01413022 0.21955122 -0.042606834 -0.012368293 -0.38177624 -0.14089546
0.26440033 0.11795277 -0.057054996 0.23166746 0.5451105 -0.7131343 0.18878646 -0.68930423
-0.12629618 -0.3429463 0.10656639 -0.11700659 0.0444439 -0.33066133 0.09437464 -0.3703167
-0.055161193 -0.83104503 -0.29286784 -0.18318005 -1.137452 -0.010065969 -2.7735157 -0.17521365
-0.04435861 -0.216854 -0.20139173 -5.0279055 -0.0400911 -2.250625 -3.864151 -0.24058735
00000000: 7ea8 f4bd dc86 72be 9f42 d8be b8e2 d8bc
00000010: 653b e3bc 1ab6 253d 884e 403d 41e7 14be
00000020: dac9 6dbe e0d4 8b3d 75e6 0abe eee2 3ebd
00000030: 73bb 8e3d a8ed e8bd 89fa b1be 7ff6 97bd
00000040: 18b3 ccbd dba0 cebe 860b 03be 00dc cfbd
00000050: 5272 f1bd 3fbf 2bbe 5210 ffbd 6884 2bbe
00000060: 41db b2bd b757 18be 10a2 3abe 07c9 9dbe
00000070: 3a32 a3be 2481 e8bd bcb7 9fbc 0d93 32be
00000080: df24 153d a5a8 1fbe a9ba 39be 1e3e 8dbd
00000090: 0396 4dbd 4ef2 55be 6500 78be c447 7f3d
000000a0: 9304 2f3d bd5d a9be f725 4bbe f47e 24bf
000000b0: 30c9 32be 36b0 60bd 6c94 55bd dd66 443c
000000c0: 90ee cabd 634c 093e bf34 68be 45d9 4bbe
000000d0: d533 d1be 6870 e1bd 580d 01be d085 c63a
000000e0: 9523 2abe 4e7b b73d 1231 73bd 6866 463d
000000f0: 2603 bebe dd3b b5be 06b0 28bd e3e3 43be
00000100: edb5 9ebf a452 99be 03c2 303e 9a21 66bd
00000110: e4fa e33c 913c 25bf 4102 143a 61db c0bd
00000120: 4633 9f3d 85cc 0fbe 2bbd 423e 18f3 2dc0
00000130: 39c0 08c0 1618 babd f120 cebe ab72 82be
00000140: 6d39 fc3b 5c4b 533d 6374 0dbf 7c3e 903e
00000150: 72ea b1bd 4029 a1bf 1087 1cbf c27c fabe
00000160: 0681 cebd 498f 5f3e d5f3 ad3d 029d 3b3e
00000170: 98ce aabe 86b3 103e 3532 0c3e 211a b6bd
00000180: 448d b9bd c6ad e2be 3e2c e5bf 9436 8b3d
00000190: ab70 b6bd 25b5 26be ee05 c0bd 8578 013f
000001a0: 4b4a a43e ae40 99bd 3152 56bd ca03 b53e
000001b0: fe7f 943e 6735 13be 7c00 4a3d 01c6 f0be
000001c0: 6716 96be 2ddd 01c0 a4bf 00be 5e6a 883c
000001d0: bff0 63be c282 35bf e0bc 063e d68a 65be
000001e0: fe76 32bd af15 83be 90e5 87be b421 39bf
000001f0: 6672 1fbe 738c c7bf bcec 20be 95fe 51be
00000200: 411f ab3c 102f 803e c377 143c d1c2 b0bf
00000210: 040a 44bd 31bb 8abf 90f6 b53d 7fb4 9dbb
00000220: 9a64 bfbc ee69 89bf e54c 07bf 0ea7 57be
00000230: 432e c3bf f494 90bf b1b4 67bd bc68 6e3d
00000240: 2e5c 41be 3ceb f8be f1ce 94bd 5b4f 75bf
00000250: 6259 4ec0 c3d6 c8bb b297 4bbc 69ec a8be
00000260: 670b bcbd 8a07 f1bd d1c3 38bd 44be 95be
00000270: 6e72 263c ad4a e2bc a01a 94be 698d 4bbe
00000280: d052 8dbd 9c23 b6bd 2510 cabf 1104 023d
00000290: 29c2 96bc c040 a13e 9f90 7bbe 57ce 9f3c
000002a0: 38a5 93bf ed12 69be 1eea d7bf c009 973c
000002b0: be04 01be f0e3 92be ee91 fe3c 4ab6 c4bd
000002c0: 7d0a e63c f612 21bf 4e6f ebbd 097b 69bc
000002d0: a8a4 833d ece3 c0bd 2a06 84be 0e05 94bc
000002e0: dc7e ccbd 2565 abbe cba5 acbd c930 a33c
000002f0: 2ea2 02bf 6746 fc3d dfe0 5dbf 9ebc 02bd
00000300: 95f9 f23d 309b 1bbe cbe0 6dbd 689c 3f3f
00000310: 685f c0bd 9f67 68c0 9b25 0c3d 114a 6a3e
00000320: a8f7 0c3e 1d2a 183e cacf 80be cc45 23c0
00000330: 3a4d 40bf c0fa a7be 787e 593e 907f 63be
00000340: 8414 8e3d e508 aabd 41b2 f1bd b224 143e
00000350: a605 3d3d 1c9c 0fbe ee85 b9be 3aa9 a9bd
00000360: 7e01 183e 6d1e ec3d 7082 67bc 09d2 603e
00000370: 8184 2ebd 61a4 4abc 2d78 c3be e646 10be
00000380: 7b5f 873e 3991 f13d 80b2 69bd 3c3a 6d3e
00000390: 5d8c 0b3f f88f 36bf 3d51 413e 3e76 30bf
000003a0: c953 01be a896 afbe 7b3f da3d 27a1 efbd
000003b0: cf0a 363d 714c a9be 7e47 c13d 279a bdbe
000003c0: b4f0 61bd 5ebf 54bf c6f2 95be 8d93 3bbe
000003d0: 0798 91bf bceb 24bc 4881 31c0 356b 33be
000003e0: 60b1 35bd fa0e 5ebe a239 4ebe 9ae4 a0c0
000003f0: 9136 24bd 3d0a 10c0 404e 77c0 885c 76be

fc.3.bias f4 [32]
-0.6995733 -1.5816302 -3.2428112 2.5633428 1.1037343 3.6741161 -2.710819 4.8689194
-2.1135747 -9.286529 -0.14792235 3.680559 4.3267765 1.4827629 -2.6746166 -1.9834772
-4.4075656 3.0876794 0.8521867 -1.9969492 -4.9248776 2.9372725 -4.677469 -0.33290464
0.7131316 -0.577746 -2.679311 3.4550068 -5.0229473 -0.2881263 0.22920546 -0.89103526
00000000: 3c17 33bf dc72 cabf 388a 4fc0 cf0d 2440
00000010: 2a47 8d3f b824 6b40 0f7e 2dc0 30ce 9b40
00000020: cf44 07c0 9f95 14c1 f578 17be 478e 6b40
00000030: f474 8a40 2dcb bd3f eb2c 2bc0 95e2 fdbf
00000040: c70a 8dc0 8a9c 4540 e828 5a3f 089c ffbf
00000050: 9998 9dc0 46fc 3b40 d3ad 95c0 7a72 aabe
00000060: cb8f 363f 29e7 13bf d579 2bc0 d51e 5d40
00000070: fcbb a0c0 4a85 93be d6b4 6a3e e31a 64bf

fc.4.weight f4 [16, 32]
-0.1395283 -0.012717487 -0.00039165895 -0.00069189933 -0.07970166 -0.029048223 -0.038736124 -0.012686209
0.0006941884 -0.0012899123 -0.024584908 0.00023412427 -0.007080444 0.00034588538 -0.049476564 -0.006932784
-0.05366997 -0.2250698 -0.017950451 -0.00051824737 -0.07226321 -5.137067e-06 -0.0013092901 0.0026642166
-0.0008715521 -0.052509643 -0.028058816 -0.025650287 -0.03366537 0.058101974 -0.005581314 -0.1485581
0.03431178 -0.07375947 -3.5596066 -0.6939438 -0.6696684 -0.7135737 -0.07479651 -1.2845371
0.09613621 -3.3798835 0.12620287 -0.49389884 -4.3775682 -0.014584154 0.3274882 -0.76333386
0.006469689 -0.088936396 -0.11365513 -0.25376657 -0.5280527 -0.0027817034 -0.096963614 -0.11061078
-0.5239101 -0.20774597 -1.8897371 -0.027239174 0.16866468 -0.031917214 -0.0028115832 -0.07837533
0.06732675 0.011583717 -0.4793784 -0.073434755 -0.0018970212 0.11523257 0.043274786 0.2284869
0.0016645353 0.038327157 0.024627205 -0.083492845 0.06258929 0.117941774 -0.14481632 -0.006349705
0.16591354 0.00282115 -0.013995102 -0.029462619 -0.11134873 -0.010122733 0.7761306 0.065301895
-0.017859006 -0.17569062 -0.036993474 -0.09765207 0.02930542 -0.04991975 -0.03467189 -0.44434124
-0.030511206 -0.06053416 -0.3106971 -0.44363466 -0.1270572 -0.3924838 0.0012123714 -2.821992
0.12021715 0.045604117 0.07756707 -0.09684573 -0.48297048 0.0027493115 0.12341165 -0.047997292
-0.01815325 -0.023088401 -0.33877632 -0.22403574 -0.011128921 -0.004853458 -0.054637194 0.013096294
-0.040624857 -0.05106982 -0.25337029 -0.9461965 -0.13496803 -0.14933546 -0.40319338 -0.8579203
-0.08457132 0.00093437 0.046973113 1.0666938e-05 -0.0005621498 0.0015561185 0.0008746674 -0.14260969
-0.16329934 0.07958111 -0.15271711 0.17255017 0.14205357 -0.039914966 0.07240831 0.0007686895
0.0020537137 -5.7008107e-05 -0.006090019 -0.050354626 -0.0016873003 -0.00025466157 -1.8977424 -0.009956422
-0.0048737046 -0.11766929 0.0018943896 -0.00058774883 0.0077197603 0.09746132 -8.4937055e-05 -0.38476458
0.04200951 -0.5914426 0.08808028 -0.024408745 -0.0046851197 -0.23499115 0.043427866 -0.014833703
0.101709016 0.045833204 -0.031015133 0.19469644 0.023245627 0.04762415 0.4229141 -0.061783202
-0.7955136 0.007863887 -3.5553613 -0.07440324 -0.016243424 -0.5407881 -5.9369507 -0.11612902
0.1462558 0.014025956 -0.06380988 -0.061309867 0.020306218 0.08396536 -0.022580825 -0.15858312
0.2859269 -2.2101977 1.1204765 -1.9778864 -0.0054409015 0.01835804 -0.2767608 -2.7952583
-0.046538856 -0.08522219 -0.09250601 0.019417131 -0.020284392 -0.0056257816 0.0053264266 -6.9417744
-0.046374246 -0.000778347 -2.8385105 0.0040628216 -0.7817227 -22.295979 -0.07843158 -0.12965621
-4.9894204 -0.000498932 -0.001106881 -0.08525712 -0.22695613 -0.059098512 0.15728572 0.014885436
-0.023054842 -0.015081568 -0.047941815 -0.33364388 -0.0881887 8.162858e-05 -0.044306155 -0.08580844
-0.09793454 -0.27641907 0.0846387 -0.063485585 -0.10253075 -0.14711389 0.005506162 -0.01774241
-0.08238516 -0.19550897 -0.77618045 -0.047524948 -0.18026626 -0.093098275 -0.036805995 -0.005400629
-0.06830832 -0.08652319 -0.07364889 -0.3422365 -0.06697002 0.038289998 -0.4380309 -0.1065208
00000000: 82e0 0ebe 025d 50bc 9357 cdb9 9460 35ba
00000010: a03a a3bd 8af6 edbc c5a9 1ebd d1d9 4fbc
00000020: 32fa 353a 4612 a9ba 4a66 c9bc 417f 7539
00000030: 1203 e8bb f357 b539 f0a7 4abd 682c e3bb
00000040: 0bd5 5bbd b378 66be d30c 93bc feda 07ba
00000050: bcfe 93bd 125f acb6 7c9c abba 239a 2e3b
00000060: df78 64ba 5a14 57bd 9adb e5bc 8d20 d2bc
00000070: b3e4 09bd 56fc 6d3d 75e3 b6bb 9d1f 18be
00000080: 828a 0c3d 340f 97bd 98d0 63c0 4da6 31bf
00000090: 636f 2bbf c4ac 36bf ea2e 99bd b66b a4bf
000000a0: 10e3 c43d 0350 58c0 533b 013e 4fe0 fcbe
000000b0: 0a15 8cc0 60f2 6ebc 89ac a73e d969 43bf
000000c0: afff d33b 4924 b6bd 05c4 e8bd b1ed 81be
000000d0: 762e 07bf 3d4d 36bb dc94 c6bd e887 e2bd
000000e0: f91e 06bf 5cbb 54be e8e2 f1bf b024 dfbc
000000f0: 6fb6 2c3e a0bb 02bd 8a42 38bb 3f83 a0bd
00000100: 9be2 893d a1c9 3d3c 1671 f5be f664 96bd
00000110: 78a5 f8ba 0eff eb3d e740 313d 78f8 693e
00000120: 892c da3a f0fc 1c3d febe c93c 4cfe aabd
00000130: d02e 803d 758b f13d bb4a 14be 3011 d0bb
00000140: 3de5 293e 0be3 383b b64b 65bc 975b f1bc
00000150: ce0a e4bd d2d9 25bc 7fb0 463f 00bd 853d
00000160: 0d4d 92bc 3ee8 33be 7886 17bd cffd c7bd
00000170: ec11 f03c a778 4cbd 1d04 0ebd b280 e3be
00000180: a3f2 f9bc abf2 77bd b113 9fbe 1524 e3be
00000190: 481b 02be a3f3 c8be 6fe8 9e3a 849b 34c0
000001a0: 6934 f63d 62cb 3a3d 7cdb 9e3d 0e57 c6bd
000001b0: e847 f7be cb2d 343b 3fbf fc3d cf98 44bd
000001c0: 20b6 94bc e323 bdbc 1774 adbe a069 65be
000001d0: 1456 36bc c209 9fbb 40cb 5fbd d791 563c
000001e0: 4066 26bd 962e 51bd c0b9 81be ef39 72bf
000001f0: 0f35 0abe 65eb 18be 5d6f cebe aaa0 5bbf
00000200: ba33 adbd 82f0 743a e166 403d 26f6 3237
00000210: 3c5d 13ba acf6 cb3a f049 653a 4608 12be
00000220: f137 27be 6cfb a23d e061 1cbe feb0 303e
00000230: 7e76 113e e07d 23bd cf4a 943d e181 493a
00000240: 9997 063b fd1b 6fb8 c88e c7bb a740 4ebd
00000250: 6728 ddba 1984 85b9 39e9 f2bf 4320 23bc
00000260: 99b3 9fbb 99fc f0bd 2b4d f83a 2813 1aba
00000270: 0bf6 fc3b cd99 c73d 3c20 b2b8 ddff c4be
00000280: 2a12 2c3d c868 17bf 6f63 b43d d9f4 c7bc
00000290: a285 99bb 85a1 70be 6be1 313d 0f09 73bc
000002a0: d14c d03d 99bb 3b3d 7313 febc 815e 473e
000002b0: 9d6d be3c 8a11 433d 3288 d83e 6210 7dbd
000002c0: c7a6 4bbf 88d7 003c 0a8b 63c0 ba60 98bd
000002d0: ee10 85bc 1771 0abf 80fb bdc0 0dd5 edbd
000002e0: 15c4 153e 20cd 653c c1ae 82bd 0e20 7bbd
000002f0: 3a59 a63c 08f6 ab3d 6cfb b8bc 9d63 22be
00000300: 0365 923e e173 0dc0 c66b 8f3f 622b fdbf
00000310: 9749 b2bb 9a63 963c 97b3 8dbe 83e5 32c0
00000320: 879f 3ebd f988 aebd ca73 bdbd ad10 9f3c
00000330: 742b a6bc 7a58 b8bb 4e89 ae3b 0423 dec0
00000340: ecf2 3dbd fc09 4cba 28aa 35c0 6b21 853b
00000350: fb1e 48bf 2a5e b2c1 bca0 a0bd 99c4 04be
00000360: 55a9 9fc0 c2ca 02ba c314 91ba 499b aebd
00000370: 3067 68be 4811 72bd 820f 213e 0be2 733c
00000380: 82dd bcbc ae18 77bc a35e 44bd 5fd3 aabe
00000390: 479c b4bd 0330 ab38 5f7a 35bd 56bc afbd
000003a0: e791 c8bd cd86 8dbe 0e57 ad3d bb04 82bd
000003b0: a4fb d1bd 06a5 16be 096d b43b 8858 91bc
000003c0: 8db9 a8bd 8133 48be c3b3 46bf 85a9 42bd
000003d0: b897 38be 4faa bebd e2c1 16bd c2f7 b0bb
000003e0: 3ce5 8bbd 1233 b1bd 3bd5 96bd 9f39 afbe
000003f0: 9427 89bd f9d5 1c3d 9645 e0be 9427 dabd

fc.4.bias f4 [16]
1.5363511 -0.01207679 -10.177013 -0.4675561 0.32796094 1.8106267 0.021916345 -0.32560346
1.8366531 1.7192605 0.118876114 -8.768085 -0.00085546175 2.6101131 0.010868614 -0.02187031
00000000: 27a7 c43f bbdd 45bc 0cd5 22c1 8363 efbe
00000010: 7fea a73e 9ec2 e73f e889 b33c 7fb5 a6be
00000020: 7317 eb3f ba10 dc3f 5275 f33d 134a 0cc1
00000030: 1141 60ba 180c 2740 4512 323c 5d29 b3bc

fc.5.weight f4 [3, 16]
-9.450756e-05 -5.62394e-05 -0.000312416 -0.00039385873 9.205609e-05 -0.00012944758 0.09185182 0.0040443167
-0.00025158943 -0.0014124558 -0.0009056055 0.010092718 0.00027112826 8.008386e-05 -1.6748132e-05 2.7414635e-06
0.34374702 -0.00034189352 -0.0017009296 0.0012647979 -0.0014208977 -0.067945264 0.0008460764 -0.039624985
-0.056619477 0.17446707 0.10189115 0.010141671 0.033847068 -0.093929045 -0.0012849481 0.034977306
0.00034703634 0.042300742 -0.08613721 -0.029612081 -0.10711359 0.00012803683 0.00011870792 0.05029129
-4.99821e-05 -0.00018884994 -0.00049921236 -0.005530714 3.8303282e-05 -1.6728642e-05 0.09157861 -0.00018096047
00000000: 5c32 c6b8 99e2 6bb8 c4cb a3b9 d37e ceb9
00000010: 3d0e c138 52bc 07b9 cf1c bc3d 3086 843b
00000020: c3e7 83b9 2722 b9ba 2866 6dba ed5b 253c
00000030: 3826 8e39 b2f2 a738 577e 8cb7 fcf9 3736
00000040: 9cff af3e 2c40 b3b9 baf1 deba 93c7 a53a
00000050: 6a3d baba e326 8bbd 3acb 5d3a cf4d 22bd
00000060: d3e9 67bd 7fa7 323e 4fac d03d 4029 263c
00000070: 39a3 0a3d df5d c0bd b46b a8ba 5d44 0f3d
00000080: 6ef2 b539 8b43 2d3d b568 b0bd 0995 f2bc
00000090: 5f5e dbbd a041 0639 d4f2 f838 3dfe 4d3d
000000a0: dfa3 51b8 0506 46b9 93dd 02ba fe3a b5bb
000000b0: d6a7 2038 7c54 8cb7 918d bb3d 35c0 3db9

fc.5.bias f4 [3]
0.00022352583 0.47209892 0.021218456
00000000: 4262 6a39 f3b6 f13e 54d2 ad3c
