models/omni-road/model_epoch_200.pt (torch, 242162 bytes, 12 tensors)

fc.0.weight f4 [256, 60]
0	0x40956528	4.668598
1	0xbfb0c083	-1.380875
2	0xc01289fb	-2.2896717
3	0xbfff69c0	-1.9954147
4	0x3eefe37e	0.4685325
5	0xbdf19465	-0.11795882
6	0xbea998fc	-0.3312453
7	0x3f9671c4	1.1753469
8	0xbf7799ab	-0.96718854
9	0xbeecaf4b	-0.46227488
10	0xbf3dbe84	-0.7411883
11	0xbf76978c	-0.9632499
12	0x40243200	2.5655518
13	0x3fe9f1ad	1.8276879
14	0x3f84ea02	1.0383914
15	0xc089a936	-4.3019056
16	0xc0047e4b	-2.0702083
17	0xbd1a0b25	-0.037608285
18	0x3f0904dc	0.5352304
19	0x3f1a3a2a	0.60245
20	0xbf34090c	-0.70326304
21	0xbeabbcb3	-0.33542404
22	0xbe65d62f	-0.22444986
23	0xbee6e09f	-0.45093247
24	0x3c96c4a6	0.018404316
25	0x3e1d5aaf	0.15366624
26	0xbce67d13	-0.028135812
27	0x3deaecde	0.1147096
28	0x3fd9085e	1.6955678
29	0x3ed85995	0.42255846
30	0x3ef22c31	0.4729934
31	0xbcb352fa	-0.021890152
32	0xbd004f32	-0.031325527
33	0xbe08bbb2	-0.1335285
34	0xbddff3c7	-0.10935169
35	0xbe33811c	-0.1752972
36	0xbcd3e198	-0.025864407
37	0x3dc2bc1f	0.095085375
38	0xbca1a7b6	-0.019733291
39	0x3dd460a7	0.103699975
40	0xbda09d89	-0.078425474
41	0x3e3030a5	0.17206056
42	0x3e28d09c	0.16485828
43	0xbd63566f	-0.05550235
44	0xbd2f345a	-0.042774536
45	0xbd0a7ce5	-0.033810515
46	0x3b347f76	0.0027541793
47	0x3c25d707	0.010122067
48	0xbce3e57d	-0.02781939
49	0xbe54f0a9	-0.2079493
50	0xbdd1dc33	-0.10247078
51	0x3d095a5a	0.03353343
52	0xbc32c453	-0.010911065
53	0xbddc0457	-0.10743015
54	0xbd02cc94	-0.031933382
55	0xbd34a0ef	-0.04409879
56	0x3d2c070c	0.041998908
57	0xbbaf64e9	-0.0053526056
58	0xbc8f561a	-0.017497111
59	0xbd2731d1	-0.040818993
60	0x400705c8	2.1097279
61	0x40064d45	2.0984662
62	0x3e8b2b44	0.27181447
63	0xbf6bbaac	-0.92081714
64	0xbd605336	-0.054766856
65	0xbe133ed4	-0.14379436
66	0xbf50c510	-0.81550694
67	0xbfc174e3	-1.5113796
68	0xbf4457a4	-0.7669623
69	0xbf4451cd	-0.7668732
70	0x3fa5a762	1.2941706
71	0x401bd818	2.4350643
72	0xbeb7d352	-0.35903412
73	0x4055f8e0	3.3433151
74	0xbf9c88fb	-1.2229303
75	0x403ffdfd	2.9998772
76	0xc07f10a9	-3.9853919
77	0x3f87e819	1.0617706
78	0x3e1fb915	0.15597947
79	0xbf624921	-0.88392836
80	0xbf847970	-1.034956
81	0x3e9bcc37	0.3042924
82	0xbf89a84b	-1.0754484
83	0xbe413c14	-0.18870574
84	0x3c7a1346	0.015263384
85	0x3d641733	0.055686187
86	0xbdfcdb89	-0.123465605
87	0xbf03d0f5	-0.5149072
88	0x3dfe57df	0.12419104
89	0x3d1ee733	0.038794708
90	0x3e3f86cd	0.18703766
91	0xbe4d119b	-0.20026247
92	0x3d9198c8	0.07109219
93	0xbd7ece77	-0.06220862
94	0xbc71c524	-0.014756475
95	0x3c6df86b	0.0145245595
96	0x3c4407f4	0.011964787
97	0xbcf4f2fc	-0.02990102
98	0x3d18ac11	0.03727347
99	0x3d0d6f1a	0.034529783
100	0x3f124005	0.57128936
101	0x3e80f56e	0.25187248
102	0x3b4f8a3f	0.0031668094
103	0xbcbb757e	-0.022883173
104	0xbcd11c82	-0.025526289
105	0x3d043b9a	0.032283403
106	0xbd8c92e6	-0.06863956
107	0xbe92d4b1	-0.28677896
108	0x3e94f61b	0.29094014
109	0xbbd579a3	-0.0065147444
110	0x3d88f747	0.066877894
111	0x3c8f7b1e	0.017514762
112	0x3dd2bc9c	0.10289881
113	0x3b0dec59	0.0021655767
114	0x3de38d30	0.11110914
115	0x3f0b5cd4	0.5443852
116	0x3dd38dbc	0.10329768
117	0xbe1031b7	-0.14081465
118	0xbd238dcb	-0.039930146
119	0xbda2e76f	-0.07954299
120	0xbf978c5a	-1.1839707
121	0xc0bf6fe2	-5.9824076
122	0x3df21a95	0.11821476
123	0x3eb50aa6	0.35359687
124	0x3ec7ea65	0.39046016
125	0x3e91978e	0.2843594
126	0x3f1e449d	0.61823446
127	0x3f215e4f	0.6303453
128	0xbfa7fe70	-1.3124523
129	0xbf6e72e9	-0.9314409
130	0x3fc18811	1.5119649
131	0xc0303ccc	-2.7537107
132	0xbeaed2b0	-0.34145117
133	0xbdfadab4	-0.122487456
134	0x3e52d54f	0.20589183
135	0xbfe84561	-1.8146173
136	0x3f152d09	0.58271843
137	0x3f66d5c9	0.9016996
138	0x3ecac064	0.39599907
139	0xbf19cf05	-0.6008151
140	0x3ef675d0	0.4813676
141	0xbe06925a	-0.13141766
142	0x3f0fe667	0.5621094
143	0x3f2496fb	0.6429288
144	0x3cc1e2b8	0.023667678
145	0xbbc7fb80	-0.006102979
146	0x3cac59cb	0.02103891
147	0x3b4a4fac	0.0030870242
148	0xbcf44d30	-0.029821962
149	0xbd478e18	-0.048719496
150	0x3dac1e6d	0.08404241
151	0xbd9a839a	-0.07544632
152	0xbda2dd53	-0.079523705
153	0xbe26a6d2	-0.16274574
154	0xbace09c9	-0.0015719469
155	0xbd618fdf	-0.055068847
156	0x3d8ae55c	0.06782028
157	0x3d3fe2d3	0.046847176
158	0xbc0aea8d	-0.008478773
159	0xbd362753	-0.044471096
160	0xbd53cae2	-0.051707156
161	0x3c732dc6	0.014842456
162	0xbc01621f	-0.007896929
163	0x3dbe5f2d	0.09295497
164	0x3db0663d	0.086132504
165	0x3e0019fe	0.12509915
166	0x3c857fda	0.016296316
167	0xbb601c38	-0.0034196507
168	0xbd376f6b	-0.04478399
169	0xbd215457	-0.039387073
170	0xbbceaffb	-0.0063075996
171	0x3d3415c8	0.043966085
172	0x3db5b254	0.08871904
173	0x3db4d012	0.08828749
174	0x3d088cee	0.033337526
175	0x3c782921	0.015146525
176	0x3c3dec94	0.011592049
177	0x3ba25571	0.004954033
178	0x3ca66af9	0.02031468
179	0x3c29f2e4	0.010372851
180	0x3eece397	0.46267387
181	0x3f87a793	1.0598015
182	0x40088b3f	2.133499
183	0x3faf8cde	1.3714864
184	0xbf81d282	-1.0142367
185	0x3926adde	0.00015895764
186	0x3f7ae7be	0.9800986
187	0x3f70a5da	0.9400307
188	0x3fbd701b	1.4799837
189	0x3dbec17f	0.0931425
190	0xc00b560a	-2.1771264
191	0xbd7f6c71	-0.062359277
192	0xbe1fd873	-0.15609913
193	0x40a7cfc7	5.2441134
194	0x406e1035	3.7197392
195	0xc0033824	-2.0503016
196	0xbffc9cc8	-1.9735346
197	0xbf29aa64	-0.6627562
198	0xbf23e19c	-0.6401613
199	0x3c4bdc40	0.012442648
200	0x3d68c95f	0.056832667
201	0x3f6aa010	0.91650486
202	0x3e75e941	0.2401476
203	0x3ed8f2b0	0.42372656
204	0x3d457009	0.04820255
205	0x3e3d9c82	0.18516734
206	0xbef5daee	-0.48018593
207	0xbebde08f	-0.37085387
208	0xbe9269a0	-0.2859621
209	0xbeaf99d9	-0.34297064
210	0x3f33e95e	0.70277965
211	0x3e31c6e7	0.17361031
212	0xbe0d1508	-0.13777554
213	0xbe84417b	-0.25831208
214	0x3d3e48f8	0.046456307
215	0x3e10e677	0.14150415
216	0xbe0ef852	-0.13961914
217	0x3da55b77	0.08074086
218	0xbdc23701	-0.094831474
219	0x3f7c3921	0.9852467
220	0xbf2bdc3b	-0.6713292
221	0xbf3775ee	-0.7166432
222	0xbf170588	-0.58992815
223	0x3e9d3d5d	0.3071088
224	0x4011fd96	2.2811027
225	0x3fabd870	1.3425426
226	0x3f840fcc	1.0317321
227	0x3f56f5cb	0.839688
228	0xbe353efb	-0.17699806
229	0x3ea71cd2	0.32639176
230	0x3f09998a	0.53749907
231	0xbe6593a2	-0.22419599
232	0xbe2f5385	-0.17121704
233	0x3e1f447b	0.15553467
234	0xbf162614	-0.5865185
235	0x3ea91baf	0.33028933
236	0x3ed57eb2	0.41698223
237	0x3ebdbafe	0.37056726
238	0x3de6a8d5	0.11262671
239	0x3ed40ffe	0.4141845
240	0xbfd5da98	-1.6707335
241	0x3f63e2eb	0.89018124
242	0x3f140447	0.57819027
243	0xbcd7eba8	-0.026357487
244	0x3f1852d1	0.5950137
245	0xbe7ee967	-0.24893723
246	0xbec81f13	-0.39086208
247	0xbea8e347	-0.329859
248	0x3e287623	0.16451316
249	0x3e20375a	0.15646115
250	0x3fab3f1d	1.3378636
251	0x3f9d5e53	1.229441
252	0x406c0920	3.688057
253	0x3f988169	1.1914493
254	0x3fd9eac4	1.702477
255	0xbe0c4528	-0.13698256

fc.0.bias f4 [256]
0	0xbfd9a2f9	-1.700286
1	0xc0277d04	-2.6170053
2	0xc062839e	-3.5392833
3	0xc0b79675	-5.7371163
4	0xc08e829d	-4.453444
5	0xc0829da8	-4.081745
6	0xc04aef13	-3.170842
7	0xc08aea84	-4.3411274
8	0xc09d4930	-4.915184
9	0xc0633686	-3.5502028
10	0xbf6fbd13	-0.9364788
11	0xbea1ac69	-0.3157685
12	0xc053d28b	-3.3097255
13	0xc05dbc48	-3.4646168
14	0x3e7a4017	0.24438511
15	0x3f229fbb	0.6352498
16	0xbeba4d92	-0.36387306
17	0xc0742ba4	-3.8151636
18	0x3f437f98	0.7636657
19	0x3e772487	0.24135028
20	0xc0756387	-3.8341997
21	0xbe131b14	-0.14365798
22	0xc0ca5107	-6.322391
23	0xc087c8cc	-4.2432613
24	0xc0c77507	-6.2330356
25	0xbfc94575	-1.5724322
26	0x3f2b670a	0.669541
27	0xc079694c	-3.8970518
28	0xbe1480a4	-0.14502198
29	0x3f12b3eb	0.57305783
30	0xc03141a2	-2.769631
31	0xc05f6760	-3.4906845
32	0xc00fd853	-2.2475784
33	0xc00b9bd5	-2.1813862
34	0xc00cbed0	-2.1991463
35	0xc0c5fb05	-6.186892
36	0xbed5c50d	-0.417519
37	0xc08323f7	-4.0981402
38	0x3f90a624	1.1300702
39	0x3fb2f7ca	1.3981869
40	0xc07d4d07	-3.9578264
41	0xc0baedef	-5.8415446
42	0xbfd047d7	-1.6271924
43	0xc0d4a734	-6.6454105
44	0xc00a91b7	-2.1651437
45	0xbfd15b34	-1.6355958
46	0xc09f9e49	-4.988072
47	0xc02efb42	-2.7340856
48	0xc00a1fdd	-2.1581948
49	0xc08db63c	-4.4284954
50	0x397cb164	0.00024098676
51	0xc05a1987	-3.407808
52	0xbfec2dbe	-1.845146
53	0xbfbbbdc7	-1.466729
54	0xc015ea82	-2.3424382
55	0xc0cc5edf	-6.386581
56	0xbfe9f00a	-1.8276379
57	0xc0038a2b	-2.055308
58	0xc00239ac	-2.03477
59	0x3f86ee96	1.0541561
60	0xbfb713c6	-1.4302909
61	0xbe6cba7b	-0.23118012
62	0x3f1687be	0.58800876
63	0xc0423e78	-3.0350628
64	0xc0d55a71	-6.66729
65	0xc087cccd	-4.24375
66	0xc0839c44	-4.1128254
67	0xc09368ab	-4.606527
68	0xbfe98263	-1.8242916
69	0x40878d43	4.235994
70	0xbf314d0f	-0.6925821
71	0x3ea80532	0.32816464
72	0xc08314bd	-4.0962815
73	0xc0aa4201	-5.320557
74	0xbf9412c2	-1.1568224
75	0xc0b97859	-5.795941
76	0x3f19fed8	0.60154486
77	0xc03ee13d	-2.9824975
78	0xc0ba491e	-5.8214254
79	0xc0545bdb	-3.3181064
80	0x3fe3d972	1.7800734
81	0xc094a34f	-4.644935
82	0xbe6eee13	-0.23333006
83	0xbfe30dab	-1.7738546
84	0xc0c56c83	-6.169496
85	0xbf0be7ce	-0.5465058
86	0x3eef528c	0.46742666
87	0xc0c1a3cd	-6.051245
88	0x3e84579b	0.25848088
89	0xc0683a65	-3.6285641
90	0x3ed15c49	0.4089072
91	0xbeaf8e41	-0.3428822
92	0xc0876d1d	-4.2320695
93	0xc04251e7	-3.036249
94	0xc0935e9e	-4.6053
95	0xbfcf497f	-1.6194304
96	0xc008c4b3	-2.1370056
97	0xbe8d8190	-0.2763791
98	0xc0280088	-2.6250324
99	0xc0be7cd6	-5.952739
100	0x3e9ec87b	0.3101233
101	0x3eb40c16	0.3516547
102	0xbfaaf599	-1.33562
103	0xc0782627	-3.8773286
104	0xc0a61df4	-5.1911564
105	0xbf9f92a2	-1.2466624
106	0xbfe5945d	-1.7935902
107	0x4023c447	2.5588548
108	0xbdbc0697	-0.091809444
109	0xc0806c71	-4.0132375
110	0xbf1fa9f8	-0.62368727
111	0xc05c1950	-3.439045
112	0xc05a7a32	-3.4137082
113	0xc061faf4	-3.530942
114	0xc00d42bd	-2.2071984
115	0xc09bfdd6	-4.874736
116	0x3f848283	1.0352329
117	0xc087258e	-4.2233343
118	0xc069e836	-3.654798
119	0xc085d14a	-4.181798
120	0xbd40dd5d	-0.04708611
121	0xc0645408	-3.5676289
122	0xc05b7320	-3.4289017
123	0xc0eed2e2	-7.4632425
124	0xc077e87a	-3.8735642
125	0xc08a4e17	-4.3220325
126	0xbe567c50	-0.20945859
127	0xbe744f7a	-0.23858443
128	0xbfdbd56a	-1.7174504
129	0x400c7e0c	2.1951933
130	0xbfff7350	-1.9957066
131	0xc048279f	-3.1274183
132	0x3f4edc54	0.80804944
133	0xc03da56f	-2.9632223
134	0xbe636e98	-0.22210157
135	0xc086fa13	-4.2180266
136	0xc042a203	-3.0411384
137	0x401317e8	2.2983341
138	0xc08f871c	-4.485243
139	0xc0ab4932	-5.352685
140	0xc00f92c3	-2.2433326
141	0xbf796c8e	-0.97431266
142	0xc03d1cac	-2.954875
143	0x3ef92268	0.48659062
144	0xc059b35b	-3.401572
145	0xc06fbb86	-3.7458205
146	0xbe1bdd9c	-0.15221256
147	0x3fa761ff	1.3076781
148	0xc07cdfda	-3.9511628
149	0x3f586147	0.84523433
150	0xbfca2345	-1.5792013
151	0xbf96d092	-1.1782401
152	0xc07a1264	-3.9073725
153	0x3f6103fd	0.8789671
154	0xc0877562	-4.233079
155	0xc0a5533b	-5.16641
156	0x408f8727	4.485248
157	0x3f98306f	1.1889781
158	0xc0d46322	-6.637101
159	0xc0bfe56a	-5.9967546
160	0xbf8de66e	-1.1085947
161	0xc00dcc1e	-2.2155833
162	0xbf68a5ca	-0.90877974
163	0xc0572f51	-3.362263
164	0xbfdd11b3	-1.7271026
165	0xc06caac6	-3.6979232
166	0x3d87ef72	0.066374674
167	0xbe30303d	-0.17205901
168	0xc0a7adf9	-5.239987
169	0xc0807409	-4.0141644
170	0xc0f5adfd	-7.677489
171	0xc04e675d	-3.2250588
172	0xc0a6d601	-5.2136235
173	0xc03c2508	-2.9397602
174	0xc05c6b40	-3.444046
175	0xbf249d5b	-0.64302605
176	0xbff9de34	-1.9520936
177	0xc0ac1af4	-5.37829
178	0xc07cc853	-3.9497268
179	0xbf2f1213	-0.68386954
180	0xbff6c593	-1.9279045
181	0x3f2d2b26	0.67643964
182	0xbfb44e6a	-1.408643
183	0xc0c7690f	-6.2315745
184	0xc073e0d7	-3.8105981
185	0xc06deb8c	-3.7175016
186	0xc0da29bc	-6.8175945
187	0xc08d5d04	-4.4176044
188	0xbfd5d236	-1.6704776
189	0xc05a4898	-3.4106808
190	0xc09e58c7	-4.948337
191	0xbf443c49	-0.7665449
192	0xbf41d5a9	-0.75716645
193	0xc0842e71	-4.130669
194	0xbfc8a8df	-1.5676535
195	0xc03fb8c2	-2.9956517
196	0x3d7dbd31	0.061948005
197	0x40d50329	6.6566358
198	0xc082c1e6	-4.0861692
199	0x3e415020	0.18878222
200	0xbfde1271	-1.7349378
201	0x3f21b1ac	0.6316173
202	0xc000e4ae	-2.0139575
203	0xbefe9ecc	-0.49730527
204	0xc05f08e4	-3.4849176
205	0xbca0eee1	-0.019645156
206	0xc09017f4	-4.502924
207	0xc0384b38	-2.879591
208	0xc0a2ee18	-5.091564
209	0xbfaecc2c	-1.3656058
210	0x3e867fe1	0.2626944
211	0xc05309a8	-3.2974644
212	0xc0b61618	-5.690197
213	0x3fdaf092	1.7104666
214	0xbf063823	-0.5242941
215	0x3f464df2	0.77462685
216	0xc0320660	-2.781639
217	0xc00ed499	-2.231726
218	0xbfcb22dd	-1.5870014
219	0xbf487b58	-0.7831321
220	0xc04deb55	-3.2174885
221	0xc0503444	-3.25319
222	0x3f94e9bf	1.1633834
223	0xbfc73664	-1.5563474
224	0xbe567f6a	-0.20947042
225	0xc006c53f	-2.105789
226	0xc013bb87	-2.3083208
227	0xc0844f40	-4.134674
228	0xc0e1f8b6	-7.06161
229	0xc0858567	-4.1725345
230	0xc030aa56	-2.7603965
231	0xbfa6baa7	-1.3025712
232	0xc088cbec	-4.274893
233	0xc0ab9f22	-5.3631754
234	0xc0796655	-3.8968709
235	0xc076cbec	-3.8561964
236	0xc085c994	-4.1808567
237	0xc0563baf	-3.3473928
238	0xbf73ffe7	-0.9531235
239	0xbeb97e23	-0.36229047
240	0xc0ab5d36	-5.3551283
241	0xc068125b	-3.6261203
242	0x4006cd74	2.1062899
243	0xc08b520f	-4.353767
244	0x3df623d7	0.12018555
245	0xc009064d	-2.1410096
246	0xbec8d8e0	-0.39227962
247	0xbf2c2ed8	-0.6725898
248	0xc0c62fbf	-6.1933284
249	0xc0228729	-2.5394995
250	0xbeef76db	-0.46770367
251	0xbff49b45	-1.9109885
252	0xc0073a72	-2.1129422
253	0xc069dba7	-3.6540315
254	0xc0403f43	-3.0038612
255	0x40686720	3.6312943

fc.1.weight f4 [128, 256]
0	0x3f16b4ae	0.58869445
1	0xbf676093	-0.90381736
2	0xbf8b17e0	-1.0866661
3	0x3ee12f14	0.4398123
4	0x3e08be22	0.1335378
5	0x3fb8cb90	1.4437122
6	0xbf4a08bf	-0.78919595
7	0xbdbf5208	-0.09341818
8	0xbf8a5a54	-1.0808816
9	0x3f424a90	0.75895023
10	0xbfa07eb5	-1.2538668
11	0x3f64a25c	0.8931024
12	0x3ec01d0a	0.37522155
13	0x3f871251	1.0552465
14	0xbdaaf61e	-0.083477244
15	0x3f13cb45	0.5773204
16	0xbe45577e	-0.19271657
17	0xbc35db35	-0.011099626
18	0xc045f872	-3.093289
19	0xbfcbe72c	-1.5929923
20	0xbe902cb0	-0.28159094
21	0xbf40c130	-0.7529478
22	0x3f01cbcc	0.50701594
23	0x401f9727	2.4936006
24	0xbe138026	-0.14404353
25	0xbf2b99f3	-0.6703178
26	0xbfb7ac40	-1.4349442
27	0xbfe982dd	-1.8243061
28	0xbf6bb997	-0.9208006
29	0x3f20b05b	0.627691
30	0xbf7c44f8	-0.9854274
31	0xc01a7d80	-2.41391
32	0xc00f6fcc	-2.2411985
33	0x3ef3de72	0.4763065
34	0x3f947a60	1.1599846
35	0x3e050d22	0.12993291
36	0x3fea3366	1.8296936
37	0x3e67e413	0.22645597
38	0xbecc92aa	-0.39955646
39	0xbf2f7106	-0.68531835
40	0x3f8383bc	1.0274577
41	0xbf725fef	-0.94677633
42	0xc0e1bf2a	-7.0545855
43	0x3f17986a	0.5921694
44	0xbec798d6	-0.38983792
45	0x3fbb76f4	1.4645677
46	0xbfa89deb	-1.3173193
47	0x3bc29baf	0.005938969
48	0x3ed27db6	0.41111535
49	0xbbd14121	-0.006385938
50	0xbf128a65	-0.57242423
51	0xbf1a6a3e	-0.6031836
52	0x3f13b736	0.5770143
53	0x3f82f6a3	1.0231518
54	0x3edb72d1	0.42861035
55	0x3d375a40	0.044763803
56	0xbe2d7a6b	-0.1694123
57	0x3f910b92	1.1331656
58	0xbeb44ce5	-0.35214916
59	0xbd78513c	-0.060624346
60	0xbfb3d0b3	-1.4048065
61	0xc0328fff	-2.7900388
62	0xbdb2af38	-0.087248266
63	0x3ebe9847	0.37225553
64	0xbfea7669	-1.8317386
65	0xbfbeaecc	-1.4897094
66	0xbfad69f3	-1.3547958
67	0xc050ec8a	-3.2644372
68	0xbe22ea46	-0.1590968
69	0x3f66e902	0.9019929
70	0x3f563bc3	0.8368494
71	0xc048b705	-3.1361706
72	0x3f00e475	0.503486
73	0x3cbb21ab	0.022843203
74	0xc09c019b	-4.875196
75	0xbc01ca24	-0.007921729
76	0xbd995808	-0.07487494
77	0xbeaab37d	-0.33340064
78	0xbf7308ce	-0.9493531
79	0x3df278bd	0.11839435
80	0xbee74d73	-0.45176277
81	0xbfa02100	-1.2510071
82	0xbd656bb5	-0.05601092
83	0xbfec74a5	-1.8473097
84	0x4001cf52	2.0282788
85	0xbf9861f3	-1.1904892
86	0xbedc3298	-0.4300735
87	0x3e40c9e6	0.18827018
88	0x3e7a3144	0.24432856
89	0xc053e2d8	-3.3107204
90	0xbd0c86d6	-0.034308277
91	0xbf04fc5b	-0.51947564
92	0x3f747afe	0.9550017
93	0x3e082c18	0.1329807
94	0x3e138bd7	0.14408813
95	0xbd8ca4b0	-0.06867349
96	0x3f50d1ba	0.8157002
97	0xbe1548ee	-0.14578602
98	0xc0025fce	-2.0370975
99	0xbfd8db1b	-1.6941866
100	0xbee90fcb	-0.45519862
101	0xbed3091d	-0.4121789
102	0xbf096328	-0.53666925
103	0x3eca1acc	0.3947357
104	0x3f74dc96	0.9564909
105	0xbf48f8db	-0.78504723
106	0x3ea34724	0.31890213
107	0x3f534aca	0.82535994
108	0x3b65e620	0.0035079792
109	0xbfad149c	-1.3521914
110	0xbe82fd54	-0.255839
111	0xbf852285	-1.040116
112	0x3f9234c6	1.1422355
113	0x3ffb5222	1.963444
114	0x3f722667	0.9458985
115	0x3daf6a21	0.08565164
116	0xc0965d5f	-4.698898
117	0xbe9efa3c	-0.3105029
118	0x3f60ebd3	0.8785984
119	0xbf8c2520	-1.094883
120	0x3f47aafa	0.77995265
121	0xc07959a4	-3.8960962
122	0x3e7f6569	0.24941029
123	0xbef70925	-0.48249164
124	0x3ea27fa0	0.31737995
125	0xc0824fc0	-4.072235
126	0x3eb34982	0.3501702
127	0xbff607f4	-1.9221177
128	0x3eb70c38	0.3575151
129	0x3da4a96f	0.080401294
130	0xbe65b3ba	-0.22431841
131	0x3ea8876c	0.3291582
132	0xbf444c01	-0.7667847
133	0x3ebfb909	0.37445858
134	0x3e4b1f27	0.19836102
135	0xbdace790	-0.084426045
136	0xbe61629e	-0.22010276
137	0x3f2144ce	0.6299561
138	0x3ecfffb7	0.40624782
139	0xbfc64c56	-1.5492046
140	0xc084df02	-4.1522226
141	0xbf346e86	-0.70481145
142	0xbfdc10e5	-1.7192656
143	0xbf86a3c8	-1.0518732
144	0xbd81def9	-0.06341357
145	0xbf06778c	-0.52526164
146	0x3f8a9a31	1.0828305
147	0xbf5a6cdd	-0.8532236
148	0x3f239de7	0.63912815
149	0x3f9cde48	1.2255335
150	0x3fd4e037	1.6630925
151	0x3f866248	1.0498743
152	0xbf9c8a16	-1.222964
153	0x3e96a6d3	0.29424152
154	0x3d61e4a9	0.055149708
155	0xbf46d059	-0.77661663
156	0xbf1e03b5	-0.61724406
157	0x3f2ab083	0.66675586
158	0x3d8d2801	0.06892396
159	0xbdd33392	-0.10312571
160	0xc0b18ae2	-5.5482035
161	0x3f2a484b	0.6651656
162	0xbd770676	-0.060308896
163	0xbec25a5b	-0.3795956
164	0x3dd310b0	0.10305917
165	0x3f83e2b7	1.0303563
166	0x3f8ad65c	1.0846667
167	0x3f0a5d7c	0.54048896
168	0x3f89425b	1.0723375
169	0x3f97dce7	1.1864289
170	0xbf90c23e	-1.1309278
171	0x3f7f3143	0.9968454
172	0x3f85eccd	1.0462891
173	0x3f4204f2	0.75788796
174	0x3f1a7be1	0.60345274
175	0xbf9ff2e7	-1.2496003
176	0xbf85e627	-1.0460862
177	0x3efe2748	0.49639344
178	0xbf92a03c	-1.145515
179	0xbfed4f9b	-1.8539919
180	0xbdcd1ff9	-0.10015864
181	0x3d7cdada	0.06173215
182	0xbf12ae0d	-0.5729683
183	0xbf99bf3d	-1.2011486
184	0x3e99e341	0.30056193
185	0xc07dbfc7	-3.9648302
186	0x3ef2a68f	0.473927
187	0x3ea5f568	0.32413793
188	0x3d2d86e5	0.042364974
189	0xbac20abe	-0.0014804227
190	0xbd803cae	-0.06261574
191	0x3f8fe1cf	1.1240786
192	0xc01058e1	-2.2554247
193	0xbf5b918d	-0.8576897
194	0x3f14b9ab	0.58095807
195	0x3f5c7205	0.8611148
196	0x3f4c0d49	0.7970777
197	0x3f8c78e8	1.0974398
198	0xbd764686	-0.06012585
199	0xbef827cf	-0.48467872
200	0xbec8948e	-0.39175838
201	0x3f41aa2d	0.7565029
202	0x3d30a78d	0.04312854
203	0x3ec16eea	0.37779933
204	0xbf8658ae	-1.0495813
205	0xbdf7df16	-0.12103097
206	0xbdb99a6f	-0.09062659
207	0x3e9a65c0	0.30155754
208	0xbf9d97c0	-1.2311935
209	0x3f8b63e3	1.0889858
210	0xbe846bec	-0.25863588
211	0x3e945c68	0.2897675
212	0xbff9f1fc	-1.9526973
213	0x3f1e718a	0.61891997
214	0xbcf66723	-0.030078476
215	0x3df0f4f9	0.11765475
216	0xbf4ba3e4	-0.7954695
217	0x3f8c16d0	1.0944462
218	0xbd8a4a2f	-0.06752431
219	0x3f3f642d	0.7476223
220	0xbefaf76a	-0.49016887
221	0xbec3b4cb	-0.38223872
222	0x3e6a070f	0.22854255
223	0x3e401291	0.18757083
224	0xbf25af57	-0.6472067
225	0x3f2facb0	0.68622875
226	0x3ece774a	0.40325385
227	0xbf267d40	-0.65034866
228	0xbf38785a	-0.7205864
229	0xbfbafe80	-1.4608917
230	0x3f092622	0.5357381
231	0xbec416a1	-0.38298514
232	0xbf5dc08a	-0.86621916
233	0x3fee3fd1	1.8613225
234	0xbe63c9a7	-0.22244893
235	0x3eba976a	0.36443645
236	0xbea11fdd	-0.31469622
237	0xc01be16c	-2.4356337
238	0x3d4c4d6c	0.049878523
239	0xbf06d1a0	-0.5266361
240	0xbeff6f3e	-0.4988956
241	0xbf364486	-0.7119831
242	0x3e304f54	0.17217761
243	0xbf53a786	-0.82677495
244	0xbe9470e8	-0.2899239
245	0x3f136328	0.57573175
246	0xbebad100	-0.3648758
247	0xbd027aa5	-0.031855244
248	0x3f52086d	0.82044107
249	0x3f62201b	0.8833024
250	0xbe3c4522	-0.18385747
251	0x3ef1a8e7	0.47199175
252	0xbffeff97	-1.992175
253	0xbfe497fc	-1.7858882
254	0xbf16d392	-0.5891658
255	0x3f29a911	0.662736

fc.1.bias f4 [128]
0	0x3fa52bbb	1.290397
1	0x3fcc5a70	1.5965099
2	0x40c9cf84	6.3065815
3	0xc086770f	-4.2020335
4	0xc0134a0c	-2.3013945
5	0x3cc02513	0.023455178
6	0x3f747a84	0.95499444
7	0x3f21e852	0.6324512
8	0xbf7e7b42	-0.99406826
9	0xbf9a0832	-1.2033751
10	0xbe7f2e16	-0.24919924
11	0x3fa367c4	1.2766042
12	0xbe51b4fa	-0.20479193
13	0xbf257a13	-0.64639395
14	0xc0a0cb59	-5.0248227
15	0x405b1f26	3.4237761
16	0x4045dcfd	3.091613
17	0x40453c06	3.0817885
18	0xc0003131	-2.0030024
19	0xc04b3b18	-3.1754818
20	0x40241f2f	2.5644033
21	0xbfce6c85	-1.6126868
22	0xbc1f18c2	-0.009710493
23	0xbdcb42e6	-0.09924869
24	0xbf933762	-1.1501276
25	0xc01912ee	-2.3917804
26	0x3ff60110	1.9219074
27	0x3f898f75	1.0746905
28	0xbd2514fb	-0.04030321
29	0x3f8d689f	1.1047553
30	0x3fdaad31	1.7084104
31	0xc00a84cb	-2.164355
32	0xbd4faf2d	-0.05070417
33	0x4050df30	3.2636223
34	0xbcf4bde4	-0.029875703
35	0xbdc8f412	-0.09812178
36	0xbf8af3cc	-1.0855651
37	0x4011481e	2.2700267
38	0xbf0b39ab	-0.5438487
39	0xc01cba64	-2.4488764
40	0x405120f3	3.267636
41	0x3f6bf408	0.9216924
42	0xbd2ca993	-0.042153906
43	0xc0643c60	-3.566185
44	0x3f3c3f92	0.735345
45	0xbfd57176	-1.667525
46	0x40b908b4	5.7823124
47	0x407e5706	3.9740615
48	0xbf6ee524	-0.9331839
49	0x3ba5f187	0.0050641927
50	0xbcc06b63	-0.023488706
51	0x3c79a416	0.015236875
52	0xc002a298	-2.041174
53	0x3f833820	1.0251503
54	0xbd9830fe	-0.074312195
55	0x3e3cd21f	0.1843953
56	0x40e2c7cd	7.0868897
57	0xc061fe9d	-3.5311654
58	0x3ed6add4	0.41929495
59	0x40952fbf	4.6620784
60	0x3f131b21	0.5746327
61	0xc03d676b	-2.9594371
62	0xc0baa41c	-5.832533
63	0xc015f82a	-2.3432717
64	0xbec79f77	-0.3898885
65	0x3c5e77a0	0.0135783255
66	0x3b97680c	0.0046205577
67	0xbdcc85d0	-0.0998646
68	0xbeda51de	-0.42640585
69	0x40ccc16a	6.39861
70	0xc074ec8b	-3.8269374
71	0xc0562342	-3.345902
72	0x40080053	2.1250198
73	0xbc1bf8bd	-0.009519753
74	0x3fc1a626	1.512883
75	0xc0a3cad0	-5.1185074
76	0xbfa43ab1	-1.2830411
77	0xbd4d5909	-0.05013374
78	0x40862c21	4.192887
79	0xbf2fec30	-0.6871977
80	0xbf13fad1	-0.5780459
81	0x3f6e9280	0.9319229
82	0x404e3eab	3.222575
83	0xc03b1492	-2.9231305
84	0xbdcb645e	-0.09931253
85	0x3ff59535	1.9186159
86	0xbfcb96c0	-1.590538
87	0x3b8806bf	0.004151195
88	0x405287a2	3.2895284
89	0x40288525	2.6331265
90	0x4076fe92	3.8592877
91	0xc09bf097	-4.873119
92	0x3e2276aa	0.15865579
93	0xbcc8eb11	-0.02452615
94	0xbd959118	-0.07303065
95	0x403cfed5	2.9530537
96	0x40777ca3	3.8669822
97	0x40bfb2e8	5.990589
98	0x3f30c4e6	0.69050443
99	0xc0e33260	-7.0998993
100	0xbf9b9c7f	-1.2157134
101	0xc00abdb7	-2.1678293
102	0xc0127f3c	-2.2890158
103	0xbf55b4ff	-0.83479303
104	0xbce7b32e	-0.028283682
105	0xbff7da76	-1.9363544
106	0xbf8af3bb	-1.0855631
107	0x3f367fa0	0.7128849
108	0x3fae5a57	1.362132
109	0x407dd7d2	3.9662976
110	0x40102596	2.252294
111	0x3f840b18	1.0315886
112	0xbc9148f7	-0.017734988
113	0x4044ce02	3.0750737
114	0xc04fff37	-3.249952
115	0x40708d86	3.758638
116	0xc0848b87	-4.142032
117	0xc08045ff	-4.0085444
118	0x404f578a	3.239718
119	0x4015d1e2	2.3409352
120	0xbd1cfd78	-0.038327664
121	0x3f5679d1	0.8377963
122	0xbda1feb8	-0.07909912
123	0xc0f1ca0d	-7.5559144
124	0x3e6159d0	0.22006917
125	0xc02582fe	-2.5861201
126	0x3f83e671	1.03047
127	0xbff67e39	-1.925727

fc.2.weight f4 [64, 128]
0	0x3f672e97	0.90305465
1	0xbfefc70a	-1.8732617
2	0xbf3f063e	-0.746189
3	0xbfb8db35	-1.4441897
4	0xbede476a	-0.4341386
5	0x3bbdc969	0.005791832
6	0xbf840b36	-1.0315921
7	0xc0194011	-2.3945353
8	0x3e9c6800	0.30548096
9	0xbc88ffd6	-0.016723555
10	0x3ddf0222	0.10889079
11	0xbf30f6df	-0.69126695
12	0x3dc4abd4	0.09603086
13	0x3df2a81c	0.118484706
14	0xc00e7e86	-2.2264724
15	0x3f361ace	0.7113465
16	0xbe8eef8b	-0.27917132
17	0xbe5a2c8b	-0.21306054
18	0x3b9ffd9c	0.0048825275
19	0xbfeb8906	-1.8401191
20	0x3f8c2e42	1.0951617
21	0xbfa55823	-1.2917522
22	0x3c8bdbec	0.01707264
23	0xbd19b4ff	-0.037526127
24	0x3da3750a	0.07981308
25	0xbf2205ac	-0.63289905
26	0x3fa7a8ae	1.3098352
27	0x3f27fb4f	0.6561784
28	0x3db9278b	0.09040745
29	0x3e9135cb	0.28361353
30	0x3ec26a04	0.37971509
31	0x3fb41fe4	1.4072232
32	0x3c4eedb9	0.01262992
33	0xbe28f01d	-0.16497846
34	0xbc0f977e	-0.008764146
35	0x3e8a0678	0.2695806
36	0xc00943a2	-2.144753
37	0x3f837399	1.0269653
38	0xbd16d723	-0.036826264
39	0xbf34b7b5	-0.70592815
40	0xbf8ea8cf	-1.1145266
41	0xbf1bca8f	-0.60855955
42	0x3b1206ec	0.0022281958
43	0x3ed9506c	0.4244417
44	0xbf682f5e	-0.90697277
45	0xbef5ab50	-0.47982264
46	0x3f928206	1.144593
47	0x3eb7c86b	0.35895094
48	0x3f76b194	0.9636471
49	0xbd29061d	-0.041265596
50	0xba1248ca	-0.00055803044
51	0x3cc90516	0.024538558
52	0x3e005ffa	0.12536612
53	0xbf4645e0	-0.7745037
54	0xbd2d5df6	-0.042325936
55	0x3e2ca4f6	0.16859803
56	0x3e92ec76	0.2869603
57	0xbf16d278	-0.589149
58	0xbe88d851	-0.26727536
59	0x3f44569f	0.76694673
60	0x3e6ac716	0.22927508
61	0xbe8528d4	-0.26007712
62	0x3ecb422a	0.39698917
63	0xbe4650af	-0.19366716
64	0x3f25a565	0.647055
65	0xbd8674d6	-0.065652534
66	0xbd3c5d34	-0.045987323
67	0xbcc69bad	-0.024244154
68	0x3c3044fd	0.010758636
69	0xc036e675	-2.857816
70	0xbea74526	-0.32669944
71	0xbd92f332	-0.07175292
72	0xbf390d62	-0.72286046
73	0xbcb1c978	-0.021702513
74	0x3dd55f9c	0.10418627
75	0x3ea6e145	0.32593742
76	0xbf117317	-0.5681624
77	0x3b0123b5	0.001970512
78	0x3ebfad7d	0.3743705
79	0xbfa022f0	-1.2510662
80	0x3ebedba6	0.37276953
81	0xc044c97f	-3.0747983
82	0x3dc4ab94	0.096030384
83	0x3ea85471	0.32876924
84	0xbccfe6da	-0.025378633
85	0x3f5d4db3	0.86446685
86	0x3f66d17c	0.901634
87	0xbe752d78	-0.23943126
88	0xbf8565b2	-1.042166
89	0xbd5ad9be	-0.05343031
90	0xbf0fe384	-0.56206536
91	0x3cad0819	0.021122025
92	0xbfa0886a	-1.254163
93	0xbda74041	-0.08166552
94	0xbcf54d01	-0.029943945
95	0x3f0d89e3	0.55288523
96	0xbe96d6f7	-0.2946088
97	0xbdae5796	-0.085127994
98	0xbed93ded	-0.42430058
99	0xc0943d32	-4.63247
100	0xbe8eb5f5	-0.27873197
101	0xc0ef653f	-7.481109
102	0xbe81fb98	-0.25387263
103	0x3f260531	0.6485167
104	0x3ccd994c	0.025097512
105	0xbf17170c	-0.5901954
106	0xbf9cec7c	-1.2259669
107	0xc0984a77	-4.75909
108	0xbfbd44dd	-1.478664
109	0xbf722baa	-0.94597876
110	0xbd46358e	-0.048390917
111	0xbf350b04	-0.70719934
112	0x3d9db7e3	0.07701089
113	0x3f07a15b	0.52980584
114	0x3f17ee3f	0.5934791
115	0xc02ecb09	-2.7311423
116	0xbe1a7730	-0.15084529
117	0xbfe6ba5b	-1.8025621
118	0x3f0b8030	0.54492474
119	0xbf276779	-0.6539226
120	0x3ce75654	0.028239407
121	0x3e49424d	0.19654198
122	0xbd7ce2f6	-0.061739884
123	0xbf270c5e	-0.65253246
124	0xbfd8a260	-1.6924553
125	0x3db4c908	0.08827406
126	0xbf6558f9	-0.89588886
127	0xbfb5779b	-1.4177126
128	0x3d6c8742	0.05774618
129	0xbd15cdb9	-0.036573146
130	0xbc913016	-0.017723124
131	0xbf4b7703	-0.7947847
132	0xbcf1fac9	-0.029538529
133	0xbc5ea154	-0.013588268
134	0xbd884388	-0.066535056
135	0x3cf78d9a	0.030218888
136	0x3d532f87	0.051558997
137	0xbd1122d6	-0.035433613
138	0xbdd7c935	-0.10536424
139	0xbd8a117f	-0.06741618
140	0x3e54d804	0.20785528
141	0x3d3f725f	0.046739932
142	0xbe9bfbbc	-0.30465496
143	0x3c22ccc8	0.009936519
144	0x3d4175ec	0.0472316
145	0x3c93d120	0.018044055
146	0x3d11c7d9	0.03559098
147	0xbdc4fcc7	-0.09618526
148	0xbd4c0db9	-0.049817774
149	0xbe039e68	-0.12853396
150	0xbd11fb64	-0.035640135
151	0x3cd1c9c3	0.025608903
152	0x3dad2106	0.08453564
153	0xbeb54887	-0.35406896
154	0xbcd44bf6	-0.025915127
155	0x3d008219	0.03137407
156	0xbdb74745	-0.089491405
157	0xbaedcf46	-0.0018143437
158	0x3c74c3e0	0.014939278
159	0x3dfff705	0.12498287
160	0x3bcbc2f5	0.006218309
161	0x3cc9ac76	0.024618369
162	0xbd16ec3a	-0.036846377
163	0xbc9cb1c5	-0.019127736
164	0x3c9d366a	0.019190986
165	0xbd0c7d37	-0.0342991
166	0xbb5b772a	-0.0033487775
167	0x3c06141d	0.008183506
168	0xbce20b3b	-0.027593246
169	0xbe023459	-0.12715282
170	0x3d30de82	0.04318095
171	0x3b9e2140	0.004825741
172	0x3cabf98e	0.02099302
173	0xbc4adae5	-0.01238129
174	0x3eb040a7	0.34424326
175	0x3d36fd89	0.044675384
176	0x3dd55621	0.104168184
177	0xbcf9d834	-0.030498601
178	0x3d8a83a1	0.067633875
179	0xbd9b9fe8	-0.07598859
180	0x3c0c8d9b	0.008578683
181	0x3cec969b	0.028880408
182	0x3d9a11fc	0.075229615
183	0x3c1b42f9	0.009476417
184	0x3d798e51	0.06092674
185	0x3d217c95	0.03942545
186	0x3d8b5084	0.068024665
187	0x3e680556	0.22658285
188	0x3d0eb870	0.034843862
189	0x3c7661a1	0.015037925
190	0xbd7c8acb	-0.0616558
191	0xbc659ab1	-0.014013932
192	0xbcd9dd90	-0.026594907
193	0xbd7fbe8d	-0.062437583
194	0x3d82243b	0.06354567
195	0xbdc0fb09	-0.09422881
196	0xbbff7c3b	-0.007796792
197	0x3d3bf5d0	0.045888722
198	0x3d156c8d	0.036480475
199	0xbe8d20fe	-0.27564234
200	0x3dd20f93	0.10256877
201	0xba1e4342	-0.0006037244
202	0x3d3c7335	0.046008307
203	0xbf8ed20e	-1.1157854
204	0xbdbafdf9	-0.09130473
205	0x3d345614	0.044027403
206	0x3d24beaa	0.040220894
207	0x3d8ba2f3	0.068181895
208	0xbe12fed7	-0.14355026
209	0x3db9bfd3	0.09069791
210	0xbd723147	-0.059129026
211	0xbc97d1bc	-0.018532626
212	0xbd9ee0b1	-0.077577
213	0x3d088077	0.03332564
214	0x3d213aa1	0.039362554
215	0x3ca92147	0.02064575
216	0x3ea9c5f0	0.33158827
217	0x3d21f00d	0.03953557
218	0xbd80c6e1	-0.06287933
219	0xbeda7cd0	-0.4267335
220	0xbddb03f3	-0.10694113
221	0x3d83f530	0.0644325
222	0x3ccbd871	0.02488348
223	0x3df37d9b	0.11889192
224	0xbe0aa441	-0.1353922
225	0xbd8a161c	-0.06742498
226	0x3d84d992	0.06486811
227	0x3f1bbc41	0.6083413
228	0xbd2754cf	-0.040852364
229	0xbf355a23	-0.7084066
230	0xbcb44a46	-0.022008073
231	0x3c0d08cf	0.008608057
232	0xbd956f98	-0.072966754
233	0xbcd8d7d6	-0.026470106
234	0x3f01e1a2	0.50734913
235	0x3ea60dbd	0.32432356
236	0x3cf3ef80	0.029777288
237	0x3b5959d2	0.003316511
238	0x3cc83dfb	0.024443617
239	0xbbab68e5	-0.0052310103
240	0xbd9bd6ec	-0.076093525
241	0xbcf3dc2f	-0.029768078
242	0xbdb5b7a9	-0.08872921
243	0x3da9cb08	0.08290678
244	0x3bc8c560	0.0061270446
245	0x3d8fcd57	0.07021587
246	0xbfcc2c20	-1.5950966
247	0xbd9cea8c	-0.07661924
248	0xbd73c70a	-0.05951599
249	0xbda78ea1	-0.08181501
250	0x3b3cedae	0.0028828192
251	0x3e893cb0	0.26804113
252	0xbca19f7b	-0.019729367
253	0x3ca57582	0.020197634
254	0x3e9d7864	0.30755913
255	0x3dd3756f	0.10325133

fc.2.bias f4 [64]
0	0xbf3cc2f5	-0.7373498
1	0x40c77a7d	6.233702
2	0x40c7ec44	6.247591
3	0xbfff6b03	-1.9954532
4	0xbeb27496	-0.34854573
5	0xc12fcaac	-10.98698
6	0xbe472a34	-0.19449693
7	0xc1055efd	-8.3356905
8	0xc06b054c	-3.6721983
9	0xc191c585	-18.221445
10	0x41057370	8.340683
11	0xbf9639c8	-1.1736383
12	0xbe468b3d	-0.19389053
13	0xc05d8c19	-3.461676
14	0x3feff6af	1.8747157
15	0xc1118d1d	-9.0969515
16	0xbe246a1d	-0.16056104
17	0x41224a8f	10.143203
18	0xc15d2baf	-13.823165
19	0x41094efc	8.581783
20	0xc06874bc	-3.632125
21	0xc06ae2f1	-3.6701014
22	0xbf22fa70	-0.6366339
23	0xc1743bf4	-15.264637
24	0x3fe70438	1.8048162
25	0xc089406d	-4.2891145
26	0x400a9c27	2.1657808
27	0x4138b919	11.54519
28	0xc006ad61	-2.1043322
29	0xbe14ca79	-0.14530362
30	0x3f9ddd4e	1.2333162
31	0x406e8847	3.7270677
32	0x3fda51df	1.7056235
33	0xbef666e6	-0.4812538
34	0x3f2da006	0.678223
35	0xc0b59a73	-5.6751037
36	0xbfef0360	-1.8672905
37	0xc18f057f	-17.877684
38	0x40fd799e	7.921096
39	0xbed43ae3	-0.41451177
40	0xc14225c7	-12.134223
41	0x4145ad6e	12.354841
42	0x40d7b823	6.7412276
43	0x40ec33bc	7.381315
44	0xbf85189a	-1.0398133
45	0xc12c50ed	-10.769757
46	0xc055035d	-3.3283303
47	0x3fe37e56	1.777293
48	0xc1168d93	-9.409564
49	0xc0c4b610	-6.1472244
50	0x3ff46a11	1.9094869
51	0x3e5db3d1	0.21650626
52	0x40898db7	4.298549
53	0x40633a0e	3.5504184
54	0x4151d727	13.115027
55	0x400c6cc3	2.1941383
56	0xc001ac80	-2.0261536
57	0x4004c15d	2.074302
58	0x4034c977	2.8247964
59	0xbfe4468e	-1.7834032
60	0x4108a69e	8.540678
61	0xc0046f71	-2.0693018
62	0xc0cefa8a	-6.4680834
63	0xbfbe7567	-1.4879578

fc.3.weight f4 [32, 64]
0	0xbdf4a87e	-0.119462
1	0xbe7286dc	-0.23684257
2	0xbed8429f	-0.42238328
3	0xbcd8e2b8	-0.026475295
4	0xbce33b65	-0.027738282
5	0x3d25b61a	0.04045687
6	0x3d404e88	0.046949893
7	0xbe14e741	-0.14541341
8	0xbe6dc9da	-0.23221532
9	0x3d8bd4e0	0.06827712
10	0xbe0ae675	-0.13564475
11	0xbd3ee2ee	-0.046603136
12	0x3d8ebb73	0.06969347
13	0xbde8eda8	-0.11373454
14	0xbeb1fa89	-0.34761456
15	0xbd97f67f	-0.07420062
16	0xbdccb318	-0.09995097
17	0xbecea0db	-0.40357098
18	0xbe030b86	-0.12797365
19	0xbdcfdc00	-0.101493835
20	0xbdf17252	-0.11789383
21	0xbe2bbf3f	-0.16772173
22	0xbdff1052	-0.12454285
23	0xbe2b8468	-0.16749728
24	0xbdb2db41	-0.087332256
25	0xbe1857b7	-0.1487721
26	0xbe3aa210	-0.18225884
27	0xbe9dc907	-0.30817434
28	0xbea3323a	-0.31874257
29	0xbde88124	-0.113527566
30	0xbc9fb7bc	-0.019496791
31	0xbe32930d	-0.17438908
32	0x3d1524df	0.036412116
33	0xbe1fa8a5	-0.15591677
34	0xbe39baa9	-0.18137611
35	0xbd8d3e1e	-0.068966135
36	0xbd4d9603	-0.05019189
37	0xbe55f24e	-0.20893213
38	0xbe780065	-0.242189
39	0x3d7f47c4	0.0623243
40	0x3d2f0493	0.04272897
41	0xbea95dbd	-0.3307933
42	0xbe4b25f7	-0.19838701
43	0xbf247ef4	-0.64256215
44	0xbe32c930	-0.1745956
45	0xbd60b036	-0.054855548
46	0xbd55946c	-0.0521435
47	0x3c4466dd	0.011987415
48	0xbdcaee90	-0.099087834
49	0x3e094c63	0.13408045
50	0xbe6834bf	-0.22676371
51	0xbe4bd945	-0.199071
52	0xbed133d5	-0.40859857
53	0xbde17068	-0.11007768
54	0xbe010d58	-0.12602746
55	0x3ac685d0	0.001514608
56	0xbe2a2395	-0.16615136
57	0x3db77b4e	0.089590654
58	0xbd733112	-0.05937297
59	0x3d466668	0.048437506
60	0xbebe0326	-0.37111777
61	0xbeb53bdd	-0.35397235
62	0xbd28b006	-0.041183494
63	0xbe43e3e3	-0.191299
64	0xbf9c18f6	-1.2195117
65	0xbeb30a9c	-0.34969032
66	0x3e1c2961	0.1525016
67	0xbe900b62	-0.28133684
68	0x3d042319	0.032260034
69	0xbf24a869	-0.64319474
70	0x3a140241	0.0005646088
71	0x3aef71ec	0.0018268204
72	0x3dbf8676	0.09351818
73	0xbe1ad60e	-0.15120718
74	0x3e8baf78	0.2728231
75	0xc02ab982	-2.6675725
76	0xbff8440a	-1.9395764
77	0xbda22e6c	-0.079190105
78	0xbe996c50	-0.29965448
79	0xbe9c58f9	-0.3053663
80	0x3bfc396d	0.0076972754
81	0x3d8cd168	0.068758786
82	0xbeedb4e5	-0.46427074
83	0x3e8eb39d	0.2787141
84	0xbd862c64	-0.065514356
85	0xbf55777b	-0.8338544
86	0xbf230d32	-0.6369201
87	0xbeec8f71	-0.46203187
88	0xbded470c	-0.11585817
89	0x3e50ec4c	0.2040264
90	0x3d54ac27	0.05192199
91	0x3e203005	0.15643318
92	0xbe98e2e0	-0.29860592
93	0x3e10b386	0.14130983
94	0x3df5d532	0.120035544
95	0xbde0ff3f	-0.10986184
96	0xbdb74c13	-0.08950057
97	0xbf10dbef	-0.5658559
98	0xbfe02422	-1.7511027
99	0xbc8b6585	-0.017016182
100	0xbf1047cd	-0.5635956
101	0xbe3f253b	-0.18666546
102	0xbe06b390	-0.13154435
103	0x3e3bbae0	0.18333006
104	0x3e99fb0c	0.30074346
105	0xbdfa2081	-0.12213231
106	0xbc293908	-0.010328539
107	0x3ebbbb82	0.36666495
108	0x3e94ac4a	0.29037696
109	0xbe151ec8	-0.14562523
110	0x3c9b3b04	0.01894904
111	0xbef93207	-0.4867098
112	0xbe8b67b0	-0.27227545
113	0xc003c40e	-2.0588412
114	0xbdb6bd3f	-0.089228146
115	0xbb127436	-0.00223471
116	0xbe3fa7f6	-0.18716416
117	0xbf39fd4a	-0.72652113
118	0x3deeffaa	0.11669858
119	0xbe26f58d	-0.16304608
120	0xbd3bcb02	-0.0458479
121	0xbde0840a	-0.109626845
122	0xbe8f5f71	-0.28002504
123	0xbf647457	-0.8924002
124	0xbe21c81a	-0.15798989
125	0xbfa6e1bf	-1.3037642
126	0xbed73376	-0.4203145
127	0xbe259abf	-0.16172312
128	0x3c9c7477	0.019098504
129	0x3e81f5a0	0.2538271
130	0x3ca30dca	0.019904036
131	0xbfb5aff9	-1.4194328
132	0xbcf9ecc6	-0.03050841
133	0xbf4b98b5	-0.7952989
134	0x3db5f690	0.08884919
135	0x3c1a10f1	0.009403453
136	0xbc9489c1	-0.018132092
137	0xbf7f4e06	-0.9972843
138	0xbeb100cb	-0.34570917
139	0xbe4355bb	-0.19075672
140	0xbfc32e43	-1.5248493
141	0xbf947147	-1.159707
142	0xbe1d0c84	-0.15336806
143	0x3d128434	0.03577061
144	0xbe415c2e	-0.1888282
145	0xbf3ddf7d	-0.7416914
146	0xbdaa9422	-0.08329035
147	0xbf8e7cbd	-1.1131817
148	0xc041d79a	-3.0287843
149	0xbc6034b1	-0.013684438
150	0xbc64763e	-0.013944207
151	0xbf0d74bb	-0.5525624
152	0xbdcfca0f	-0.101459615
153	0xbdb15914	-0.086595684
154	0xbceea2fb	-0.02913045
155	0xbec4847c	-0.38382328
156	0x3c84bc04	0.016202934
157	0xbce24aad	-0.027623499
158	0xbf01f98f	-0.5077142
159	0xbed933e5	-0.42422405
160	0xbd7bc34c	-0.061465546
161	0xbe4709a6	-0.19437274
162	0xbfb17557	-1.3863934
163	0x3cd58a82	0.026067022
164	0xbc96d187	-0.018410457
165	0x3e92a513	0.28641567
166	0xbe581275	-0.21100791
167	0x3c9fce57	0.01950757
168	0xbf8eec12	-1.1165793
169	0xbe989302	-0.29799658
170	0xbfc0c98c	-1.5061507
171	0xb9b75702	-0.00034969306
172	0xbe07bb12	-0.13254955
173	0xbeb40911	-0.35163167
174	0x3cf220cf	0.02955666
175	0xbdad22e4	-0.084539205
176	0x3c88d007	0.016700758
177	0xbf83e817	-1.0305203
178	0xbdeefe6b	-0.1166962
179	0xbd51fb82	-0.051265247
180	0x3d528a78	0.051401585
181	0xbe10f37a	-0.14155379
182	0xbf0fc99c	-0.56167006
183	0x3c90131d	0.017587239
184	0xbdd0c7c3	-0.101943515
185	0xbeab6525	-0.33475605
186	0xbd56fa4b	-0.05248479
187	0x3cc63b23	0.02419812
188	0xbee41ffe	-0.44555658
189	0x3de179de	0.110095724
190	0xbf720642	-0.945408
191	0xbcff297c	-0.031147711
192	0x3e078020	0.1323247
193	0xbe01009d	-0.1259789
194	0xbd27f664	-0.04100646
195	0x3f458019	0.77148587
196	0xbdfa839a	-0.12232132
197	0xc06084ab	-3.5080974
198	0x3d0c259b	0.03421555
199	0x3e738299	0.23780288
200	0x3e2210f7	0.15826784
201	0x3e10c676	0.14138207
202	0xbe8761b2	-0.26441723
203	0xc00d26e0	-2.2054977
204	0xbefa232c	-0.4885496
205	0xbe9ca382	-0.30593497
206	0x3e396761	0.18105842
207	0xbe109ac5	-0.1412154
208	0x3d8e1484	0.06937507
209	0xbd9671db	-0.07345935
210	0xbe1ea5f4	-0.15492994
211	0x3e0c9d52	0.13731888
212	0x3d8e0a0c	0.0693551
213	0xbe0c23a2	-0.13685468
214	0xbeb47bb2	-0.35250622
215	0xbde133d2	-0.10996212
216	0x3e0f8cc2	0.14018539
217	0x3dff0380	0.124518394
218	0xbcb61382	-0.022226099
219	0x3e7d34af	0.24727128
220	0xbd2e438e	-0.042544894
221	0xbc4aa461	-0.012368293
222	0xbeb63320	-0.3558588
223	0xbe0c4e7b	-0.13701813
224	0x3e909abc	0.28243053
225	0x3ddc6c35	0.10762826
226	0xbd8be71c	-0.0683119
227	0x3e8435a6	0.2582218
228	0x3f060490	0.5235071
229	0xbf2c7db4	-0.6737931
230	0x3e2f98e9	0.17148174
231	0xbf809d87	-1.0048074
232	0xbe070364	-0.13184887
233	0xbea66c81	-0.32504657
234	0x3de9760f	0.11399471
235	0xbd7fc1a9	-0.062440548
236	0x3d3a4c4a	0.04548291
237	0xbeb3b3ec	-0.35098207
238	0x3df7486f	0.120743625
239	0xbe9cef85	-0.3065149
240	0xbd69fcfa	-0.057126023
241	0xbf4142b3	-0.754924
242	0xbe9ae94f	-0.30256125
243	0xbe54eaa0	-0.20792627
244	0xbf8c49df	-1.0960044
245	0xbc1a6db2	-0.009425567
246	0xc01e0c71	-2.4695094
247	0xbe36ab44	-0.1783877
248	0xbd4bc94b	-0.049752515
249	0xbe5ecb14	-0.21757156
250	0xbe3fdb10	-0.1873591
251	0xc09b4685	-4.8523583
252	0xbd359828	-0.04433456
253	0xbf939d71	-1.1532422
254	0xc044c6c7	-3.0746324
255	0xbe7f1433	-0.24910049

fc.3.bias f4 [32]
0	0xbf33173c	-0.6995733
1	0xbfacf7ed	-1.3513161
2	0xc03f3348	-2.987505
3	0x40121526	2.2825408
4	0x3f86d6c0	1.0534286
5	0x4067a924	3.6196985
6	0xc025b965	-2.5894406
7	0x408ac18a	4.3361254
8	0xc01754e3	-2.364556
9	0xc10235a8	-8.1381
10	0xbe1778f5	-0.14792235
11	0x405524f5	3.3303807
12	0x407fc649	3.9964774
13	0x3fb4c115	1.4121424
14	0xc02b32d8	-2.6749783
15	0xbfebf4d4	-1.8434091
16	0xc085d3e3	-4.182115
17	0x4035cf28	2.8407688
18	0x3f3f9e11	0.74850565
19	0xbfb0d552	-1.38151
20	0xc08bfdd6	-4.374736
21	0x401ee074	2.4824495
22	0xc089a96f	-4.301933
23	0xbeaa727a	-0.33290464
24	0x3ed51fa3	0.416257
25	0xbf0c8eac	-0.549052
26	0xbfec6425	-1.8468062
27	0x405532dc	3.3312292
28	0xc0a0bbfc	-5.0229473
29	0xbe93854a	-0.2881263
30	0x3dbaebca	0.091270044
31	0xbf5d02d6	-0.8633245

fc.4.weight f4 [16, 32]
0	0xbe0ee082	-0.1395283
1	0xbc66851a	-0.01406982
2	0xb95d0b16	-0.00021080332
3	0xb9aaeb0f	-0.0003260006
4	0xbd9ee7bc	-0.077590436
5	0xbd08faf1	-0.03344244
6	0xbdf956a9	-0.12174732
7	0xbc4e6805	-0.012598042
8	0xba063df0	-0.0005120924
9	0xba2c0c6d	-0.0006563131
10	0xbcc9664a	-0.024584908
11	0x3a62e5c7	0.00086554553
12	0xbbe78079	-0.0070648757
13	0x39392c4c	0.00017659477
14	0xbc91548e	-0.017740514
15	0xbbde3aef	-0.006781928
16	0xbd467717	-0.048453417
17	0xbe81a833	-0.25323638
18	0xbc9f93f9	-0.019479739
19	0xb984c320	-0.0002532238
20	0xbd348ca6	-0.044079445
21	0xb91af846	-0.00014779074
22	0x3b8b710f	0.004255421
23	0x3b2e9a23	0.0026642166
24	0x3a8d2ebb	0.0010771373
25	0xbcaa04a7	-0.020754172
26	0xbcfce2c2	-0.030869845
27	0xbcc8102d	-0.024421776
28	0xbd09e4b3	-0.03366537
29	0x3d6dfc56	0.058101974
30	0xbc05cb86	-0.0081662
31	0xbe181f9d	-0.1485581
32	0x3d0c8a82	0.03431178
33	0xbd623ded	-0.05523484
34	0xc0622aec	-3.5338697
35	0xbf334bd0	-0.70037556
36	0xbf0b6ca1	-0.5446263
37	0xbf33b8de	-0.7020396
38	0xbd992eea	-0.07479651
39	0xbf94bac6	-1.1619499
40	0x3daa899c	0.08327028
41	0xbfa240a4	-1.2675977
42	0x3e013b53	0.12620287
43	0xbeea924e	-0.45814747
44	0xc088f8ac	-4.2803555
45	0xbc90226c	-0.017594539
46	0x3ea7ac89	0.3274882
47	0xbf327d79	-0.69722706
48	0x3bd3ffaf	0.006469689
49	0xbeb1930b	-0.34682497
50	0xbde8c405	-0.11365513
51	0xbeaa69fd	-0.33283988
52	0xbf072e76	-0.5280527
53	0xbbb9ee29	-0.005674143
54	0xbdc694dc	-0.096963614
55	0xbde287e8	-0.11061078
56	0xbed9d964	-0.42548668
57	0xbe54bb5c	-0.20774597
58	0xbfee5098	-1.8618345
59	0xbcdf24b0	-0.027239174
60	0x3e2cb66f	0.16866468
61	0xbd02bba0	-0.031917214
62	0xbd1c350b	-0.038136523
63	0xbda0833f	-0.07837533
64	0x3d89e29b	0.06732675
65	0x3c112256	0.008858284
66	0xbe5faa55	-0.2184232
67	0xbd640421	-0.055668
68	0xbb5dd675	-0.003384975
69	0x3db29266	0.087193295
70	0x3d306b11	0.043070856
71	0x3e6dd32d	0.23225088
72	0xbc467cea	-0.012114743
73	0x3d29aee6	0.04142656
74	0x3cc9befe	0.024627205
75	0xbdd1d848	-0.102463305
76	0x3d833561	0.064066656
77	0x3dfd221e	0.12360023
78	0xbe144abb	-0.14481632
79	0x3c2e7535	0.0106480615
80	0x3dc85cb3	0.09783306
81	0x3b4aef98	0.0030965563
82	0xbc1c460c	-0.009538185
83	0x3d264d70	0.040601194
84	0xbc7d9452	-0.015477257
85	0xbc649baa	-0.013953129
86	0x3f55a5b2	0.83455956
87	0x3d85bd00	0.065301895
88	0xbb36d5a1	-0.002789833
89	0xbe33e83e	-0.17569062
90	0xbcf5c503	-0.03000117
91	0x3d0110dd	0.031510223
92	0x3cf011ec	0.02930542
93	0xbd4c78a7	-0.04991975
94	0xbd4ff149	-0.050767217
95	0xbee380b2	-0.44434124
96	0xbcf9f2a3	-0.030511206
97	0xbcc60088	-0.024170175
98	0xbe815922	-0.25263315
99	0xbe945bfa	-0.28976423
100	0xbf13a323	-0.576708
101	0xbec1d481	-0.3785744
102	0x3a9ee86f	0.0012123714
103	0xc04b263d	-3.1742089
104	0x3dec64d0	0.11542666
105	0x3d8a453c	0.06751487
106	0x3d9edb7c	0.07756707
107	0x3b8244a0	0.003975466
108	0xbecab006	-0.3958742
109	0xbc0c93bb	-0.008580144
110	0x3dfcbf3f	0.12341165
111	0x3bee20f1	0.0072671105
112	0xbc94b620	-0.01815325
113	0xbbb103cb	-0.0054020635
114	0xbe9e713b	-0.30945763
115	0xbe70c4c5	-0.23512562
116	0xbc365614	-0.011128921
117	0xbb040389	-0.0020143709
118	0xbd5fcb40	-0.054637194
119	0x3c5691d7	0.013096294
120	0xbc865bc2	-0.016401175
121	0xbd512e96	-0.05106982
122	0xbe5ec4d8	-0.21754777
123	0xbf7f4115	-0.9970868
124	0xbe0a350f	-0.13496803
125	0xbe18eb65	-0.14933546
126	0xbe86960c	-0.26286352
127	0xbf5ba0aa	-0.8579203
128	0xbdad33ba	-0.08457132
129	0x3aa26509	0.001238973
130	0x3d4e9e0f	0.050443705
131	0x39e2b2b6	0.0004323923
132	0xba52c9f6	-0.0008040959
133	0x39959571	0.00028530837
134	0x3bc198eb	0.005908122
135	0xbe230e7b	-0.15923493
136	0xbe6aa8ad	-0.22915907
137	0x3d8d3b97	0.068961315
138	0xbe1c61e0	-0.15271711
139	0x3e377d2d	0.17918845
140	0x3e183b46	0.14866361
141	0xbd1a2962	-0.037637122
142	0x3d26dbfc	0.040737137
143	0x3a1776e9	0.0005777912
144	0x3c919beb	0.017774543
145	0x3919ed5c	0.0001467964
146	0xbbfbad64	-0.007680582
147	0xbd4ce63a	-0.05002425
148	0x3b12fdce	0.0022429111
149	0xba45bf52	-0.00075434626
150	0xbfc19b21	-1.5125467
151	0xbc232043	-0.009956422
152	0xbad3dcad	-0.0016163789
153	0xbe18fcc0	-0.14940166
154	0x3aa76792	0.0012771955
155	0x3a8b712f	0.001063859
156	0x3bfcf60b	0.0077197603
157	0x3dc799cd	0.09746132
158	0xb99df0d3	-0.00030124802
159	0xbec4ffdd	-0.38476458
160	0x3d2c122a	0.04200951
161	0xbf031c62	-0.51215184
162	0x3d60b6e7	0.05486193
163	0xbce45b11	-0.027875455
164	0xbba34bd4	-0.0049834047
165	0xbe7846ea	-0.24245802
166	0x3d48070a	0.048834838
167	0xbc7780a4	-0.015106354
168	0x3d7e49c0	0.062082052
169	0x3d772b0e	0.060343795
170	0xbcfe1373	-0.031015133
171	0x3e1e3411	0.1544955
172	0x3cd5a980	0.0260818
173	0x3d41733f	0.047229048
174	0x3ed88832	0.4229141
175	0xbd70a8d9	-0.058754776
176	0xbf37fdb6	-0.7187151
177	0x3c378257	0.011200509
178	0xc0492f3e	-3.1435084
179	0xbd6ad27d	-0.057329644
180	0x3cb83003	0.022483831
181	0xbf1c4d03	-0.6105501
182	0xc0bd073c	-5.907133
183	0xbdedd50d	-0.11612902
184	0x3e199bae	0.15000793
185	0x3c65cd20	0.014025956
186	0xbd8fb481	-0.0701685
187	0xbd8876ed	-0.06663308
188	0x3ca6593a	0.020306218
189	0x3dabf608	0.08396536
190	0xbce0a72c	-0.027423464
191	0xbe01f194	-0.12689811
192	0x3e926503	0.2859269
193	0xc00f1b61	-2.236046
194	0x3f986884	1.1906896
195	0xc00638c8	-2.0972157
196	0xbbed4120	-0.0072404295
197	0x3d00ad08	0.031415015
198	0xbe2528e5	-0.16128881
199	0xc03f2b00	-2.9869995
200	0xbe2e9882	-0.17050365
201	0xbd05793c	-0.03258632
202	0xbdbd73ca	-0.09250601
203	0xbd0defdd	-0.03465258
204	0xbc0f8666	-0.00876007
205	0xbbd22398	-0.0064129345
206	0x3bae894e	0.0053264266
207	0xc0d069c7	-6.5129123
208	0xbd3df2ec	-0.046374246
209	0xbb91bf67	-0.0044478658
210	0xc02cb9e4	-2.6988459
211	0xbc44388d	-0.011976373
212	0xbf218c04	-0.6310427
213	0xc1a6246c	-20.767784
214	0xbda0a0bc	-0.07843158
215	0xbe04c499	-0.12965621
216	0xc09d0897	-4.9072986
217	0xba02cac2	-0.000498932
218	0xbd0e22d9	-0.034701202
219	0xbd788fcd	-0.060684014
220	0xbe686730	-0.22695613
221	0xbd721148	-0.059098512
222	0x3e1fb1c0	0.1559515
223	0x3c73e20b	0.014885436
224	0xbcbcdd82	-0.023054842
225	0xbc7718ae	-0.015081568
226	0xbd445ea3	-0.047941815
227	0xbeaad35f	-0.33364388
228	0xbdb49c47	-0.0881887
229	0x38ab3003	8.162858e-05
230	0xbd357a5f	-0.044306155
231	0xbdafbc56	-0.08580844
232	0xbdc891e7	-0.09793454
233	0xbe8d86cd	-0.27641907
234	0x3dad570e	0.0846387
235	0xbd8204bb	-0.063485585
236	0xbdd1fba4	-0.10253075
237	0xbe16a506	-0.14711389
238	0x3bb46d09	0.005506162
239	0xbc915888	-0.01774241
240	0xbda8b98d	-0.08238516
241	0xbe483381	-0.19550897
242	0xbf46b3c3	-0.77618045
243	0xbd42a985	-0.047524948
244	0xbe3897b8	-0.18026626
245	0xbdbeaa4f	-0.093098275
246	0xbd16c1e2	-0.036805995
247	0xbbb0f7c2	-0.005400629
248	0xbd8be53c	-0.06830832
249	0xbdb13312	-0.08652319
250	0xbd96d53b	-0.07364889
251	0xbeaf399f	-0.3422365
252	0xbd892794	-0.06697002
253	0x3d1cd5f9	0.038289998
254	0xbee04596	-0.4380309
255	0xbdda2794	-0.1065208

fc.4.bias f4 [16]
0	0x3fb7789c	1.4333682
1	0xbc8a9737	-0.016917808
2	0xc118c843	-9.548892
3	0xbedb8650	-0.4287591
4	0x3ead401b	0.3383797
5	0x3fdd3ef0	1.7284832
6	0x3cd24433	0.025667286
7	0xbea6b57f	-0.32560346
8	0x3fda7890	1.7068043
9	0x3fcc70f1	1.5971967
10	0x3db7975c	0.089644164
11	0xc10689ac	-8.408611
12	0xb8f84ed9	-0.00011840248
13	0x401c92b7	2.4464548
14	0x3c915afc	0.01774358
15	0xbbc40a3e	-0.0059826663

fc.5.weight f4 [3, 16]
0	0xb7cd038f	-2.4439561e-05
1	0xb9e92517	-0.00044468857
2	0x39a0dd0a	0.00030682265
3	0xb7d0abd1	-2.487554e-05
4	0x38e43112	0.00010881027
5	0xb7621d53	-1.3477477e-05
6	0x3dc1921b	0.094516955
7	0x3b848630	0.0040443167
8	0x3924da15	0.000157215
9	0xba357b52	-0.0006922978
10	0xb911f3ea	-0.00013919143
11	0xbab3d53c	-0.0013720165
12	0x39708177	0.00022936413
13	0x39d10cb3	0.00039873048
14	0x3945430b	0.0001881236
15	0x3978a2c1	0.00023711754
16	0x3ebbdd46	0.36692256
17	0xbae50b4c	-0.001747468
18	0xbad1894c	-0.0015986352
19	0x3a9bced2	0.0011887199
20	0xba3314be	-0.0006831399
21	0xbd958f78	-0.07302755
22	0x39ee52d2	0.00045456603
23	0xbd224dcf	-0.039624985
24	0xbd6ced81	-0.05784369
25	0x3e1cd4d5	0.15315564
26	0x3dad7310	0.08469212
27	0x3d086cc5	0.033306856
28	0x3d0800b4	0.033203796
29	0xbdce88d7	-0.10084694
30	0xba8a7fc4	-0.0010566642
31	0x3d286a1a	0.04111681
32	0x39890df9	0.00026141087
33	0x3d0e0dec	0.034681246
34	0xbdc1de61	-0.094662435
35	0xbd2719b4	-0.040795997
36	0xbde72eff	-0.11288261
37	0xb897174c	-7.2045805e-05
38	0xb987675a	-0.0002582621
39	0x3d4dfe3d	0.05029129
40	0x3972835b	0.00023127852
41	0x3a10f49a	0.00055296125
42	0xbaf6f2ab	-0.0018840631
43	0x3bfed6ee	0.0077770865
44	0xb9c55179	-0.0003763547
45	0x38608c4f	5.3536434e-05
46	0x3dc19659	0.09452505
47	0xba278bf7	-0.0006391401

fc.5.bias f4 [3]
0	0x3970f853	0.00022980692
1	0x3ef2ed4f	0.47446677
2	0x3cbcc58e	0.02304342
